saved_models/decoder_epoch12.pt (torch_old, 480736 bytes, 2 tensors)

linear1.weight f8 [12, 5000]
0	0xbf7ce2705af4e622	-0.007051886451614505
1	0x3f7a056483668977	0.006352799062741324
2	0x3f74b15aba9f3b1c	0.005051950845838229
3	0xbf386f8ad6abe355	-0.0003728593789414277
4	0x3f7f913de87cbc50	0.007706872776721843
5	0xbf41b5e68bc4ff78	-0.0005404830658690537
6	0x3f8ae807b3a09637	0.013137874764718933
7	0xbf85748df3cd86d8	-0.010476216318866902
8	0xbf6aac9a3fcc23c4	-0.0032561314277512483
9	0x3f60f1aa07f7c297	0.0020683594627757917
10	0x3f897ee4bb34f008	0.01244906135854508
11	0x3f80e97120cfeea3	0.008257755102014491
12	0x3f7315050de8b6b0	0.0046587178644991595
13	0x3f8386385ed405a9	0.009533348459174489
14	0xbf85e443f5483c8c	-0.010689288065832046
15	0xbf54824cbd69aa9f	-0.0012517690098784796
16	0xbf3ad64fa266c716	-0.0004095024509310636
17	0x3f82137321de0941	0.008826159926461076
18	0xbf6396aa1786d38c	-0.0023911783320848586
19	0xbf86ee2c958dbf09	-0.011196468652741058
20	0xbf84612d04e1ac7b	-0.009950973235581131
21	0x3f860e0a7e777e9a	0.010768968567332938
22	0xbf88c7735ca2f887	-0.012099171890778372
23	0xbf80466a4540e3d2	-0.00794680618138158
24	0x3f89d58c56b0e03b	0.012614342113110513
25	0x3f6ad2e1d3302266	0.003274384559976351
26	0x3f87c4dc11c808a2	0.011605948727268892
27	0x3f719a894bf4f05d	0.0042977679398142595
28	0xbf8229d52dcc25a4	-0.008868852100493659
29	0xbf5b09b698f3d37f	-0.0016502650431082508
30	0xbf8801c4d7e88479	-0.011722123946187534
31	0x3f87e7b0f9bd4e07	0.011672384854739993
32	0x3f4714d09bc0b79e	0.0007043856235264716
33	0xbf734ba601a95c0f	-0.0047108158710989076
34	0xbf825d8c32ec06ff	-0.008967490486159855
35	0xbf712b017ab00163	-0.004191404131234175
36	0xbf6646e1de3f4f5e	-0.0027193461882947653
37	0xbf7fbcfd405a126e	-0.00774859358137246
38	0x3f8ba5d001e0fb47	0.013499856049859494
39	0xbf53ecc4e897487c	-0.0012161181388035394
40	0x3f7ca7d0b8ee6795	0.006995978662326059
41	0x3f8593911c863859	0.010535367663376304
42	0x3f8b754320cb812e	0.013407253683397426
43	0x3f6ea7e1f23d61a8	0.0037421620381048078
44	0x3f8c62dd97243ce8	0.013860446143125718
45	0xbf85f31495cb7df4	-0.010717545338990477
46	0x3f6038e1368b3754	0.0019802473728764234
47	0x3f874bfd7db6d72d	0.011375408553117328
48	0xbf7c2ae4a4ab1450	-0.006876843583715944
49	0x3f41022e13ac1a04	0.000519058702906972
50	0x3f86a52f1112b4ea	0.01105725069859394
51	0x3ee4558def2a91b9	9.696100709285419e-06
52	0x3f841d980560b685	0.009822070755116439
53	0x3f8310137e6dca99	0.009308006568720816
54	0xbf602d3e082ab856	-0.001974698215540231
55	0x3f86688671f34007	0.010941553451999665
56	0x3f88db603701a2e4	0.012137176207219942
57	0x3f840cd5e022c540	0.009790106680471866
58	0xbf7535a99bb49dd3	-0.005178129703643691
59	0x3f7f783e507db1b2	0.0076830324322653566
60	0xbf713b34bbc3f311	-0.004206853857110075
61	0xbf7d87387d4b434d	-0.007209034597239161
62	0xbf8555b871e9319e	-0.010417405105862806
63	0x3f61e1cdc4868555	0.0021828669452622997
64	0x3f88ecd7ead44b59	0.012170492986603486
65	0xbf8521de93f31d69	-0.010318507089677369
66	0xbf82253b15a3cd52	-0.008860074613471856
67	0xbf81ae4413f8ffa6	-0.008633167132870611
68	0x3f5bf4ed2e25754d	0.0017063442433803034
69	0xbf7ccc717e599a39	-0.0070309098569852286
70	0x3f8555b0c6ae0653	0.01041734796831687
71	0xbf7567d2a4d1b97a	-0.005225966288988077
72	0xbf8ab6243f828752	-0.013042720020454066
73	0x3f8b65a662144c14	0.013377475612776059
74	0xbf81145ee763c4e5	-0.008339635311559632
75	0xbf6e2d3188f286d2	-0.00368365931315471
76	0xbf56905c237c66d8	-0.0013771915236646028
77	0x3f599660272a72e7	0.0015617312425668052
78	0xbf88faeded76dbcd	-0.012197359856925072
79	0xbf4e69b9ceb87031	-0.0009281308425133137
80	0x3f81fd745a5bf293	0.008784207351248774
81	0x3f877a46fc430e3a	0.01146369416563352
82	0xbf7a6f7e7ee59c06	-0.006453985332291806
83	0x3f3dfb2733fb0ada	0.00045747477632233707
84	0xbf8788f96b04cc73	-0.011491726473286534
85	0xbf58eb8f78197bb7	-0.001521005732136633
86	0x3f646c97534c1f57	0.0024931865285714827
87	0x3f8b46fe38631c06	0.013319002242850441
88	0xbf5d3f1b9eef436c	-0.0017850656256437015
89	0xbf8529994597b3de	-0.010333249508187533
90	0xbf804dec2bad8a7c	-0.007961125452941469
91	0x3f8b2d6788aa8001	0.013270195825782595
92	0x3f5c30500b6aa650	0.001720503014136194
93	0x3f6260c358c24e43	0.0022434058537983705
94	0xbf62d6b2d6277c68	-0.00229964188586922
95	0xbf821b595301b09b	-0.008841226430569107
96	0x3f81ced8a59d673a	0.008695309213795011
97	0xbf882e607fe52685	-0.01180720701508454
98	0x3f80833123b141a5	0.008062728788133475
99	0xbf8064beeba46859	-0.008004657331685804
100	0xbf782c3001646aa9	-0.005901515504116142
101	0x3f7d17d5c3b90248	0.007102808969250925
102	0xbf7841830bd24ef8	-0.005921852015621225
103	0x3f37dffb28032aa9	0.00036430246110500747
104	0xbf6c001d7f70f27d	-0.0034180236939660978
105	0xbf767ff11bbd2bc5	-0.005493108586800359
106	0xbf831ee049d2f156	-0.00933623528759912
107	0xbf748b513985ce0a	-0.005015675815559737
108	0x3f6ebddd5a1870a5	0.003752643898009183
109	0x3f8a53373c52f3f4	0.012854033974116753
110	0xbf8cc06f66367e62	-0.01403891592673218
111	0x3f88bf4c045b9c23	0.012083619959822716
112	0x3f8476b145068502	0.00999201290034302
113	0xbf88389de6e7d1c6	-0.01182673798482704
114	0x3f85958a3893644a	0.010539131022982446
115	0xbf81689f963ff601	-0.008500334522973498
116	0x3f89696d3e3cd3b0	0.012408116781083084
117	0x3f8ce7f3831bc98c	0.01411428684102558
118	0x3f840da762676eae	0.00979166764312053
119	0x3f78f4ffa326966d	0.006093023856384866
120	0x3f5bf84f4f24cc9d	0.001707150888773857
121	0x3f8620e77898268b	0.01080494725012506
122	0x3eef4ddafeb069b7	1.4926968978247518e-05
123	0x3f7f9ec16536f9bb	0.007719760370888225
124	0x3f7944c0c364e6fb	0.006169083577612029
125	0xbf898e0631de3947	-0.012477920910694563
126	0x3f8990225a6edb97	0.012481945404813106
127	0xbf6fcaffa46d869e	-0.0038809769643400457
128	0xbf84665683263a5b	-0.009960819127426015
129	0xbf70cf06fd3b2667	-0.004103686620234726
130	0x3f559b586fce2418	0.0013187755241423956
131	0xbf8902f2d0f8440f	-0.012212655069591375
132	0x3f8806d2c1c58db8	0.01173176435322075
133	0x3f7d473c52478e5b	0.007148013716207292
134	0x3f85eb4f99e17998	0.010702726253097691
135	0xbf8191302f54d676	-0.00857770580715143
136	0x3f88e7fc75c343b4	0.012161228507837275
137	0x3f8124c040f83e3c	0.008370878203122982
138	0x3f6323da04e1cc62	0.002336431330201048
139	0xbf859a2d03f99460	-0.010547973331265392
140	0xbf8a76e76b915538	-0.01292210385342206
141	0xbf8a4ed0d612719d	-0.01284564164444007
142	0x3f5424b1e4695b00	0.0012294518688997225
143	0x3f87477c481bba3a	0.011366816473551745
144	0xbf7c0d8ce24f6799	-0.006848860100001541
145	0x3f6085d6ceef8f48	0.0020169444537589155
146	0xbf74e04ff3b593cd	-0.005096733391245456
147	0x3f796f580f9a590a	0.006209701526719744
148	0xbf62b79ef5accbef	-0.002284822910405541
149	0xbf88370c905d642c	-0.011823747783340798
150	0x3f8032612dd0db94	0.007908591471375272
151	0xbf6574e688ff0634	-0.0026192190780143457
152	0x3f682cbfe0dfe996	0.0029510257363629206
153	0x3f87216a91a9054d	0.011294205255696932
154	0xbf8800694b77ea09	-0.011719534507382627
155	0xbf70d88f3ee948b3	-0.004112777284335833
156	0xbf44e809ff6f1066	-0.0006380127732588225
157	0xbf88422e8aace128	-0.011844981772455812
158	0xbf886600b8ea6edc	-0.01191330494230363
159	0xbf8030a7bf453978	-0.007905302548036217
160	0x3f6ad799bfb0634f	0.003276634493442655
161	0xbf305430ca1df54c	-0.00024915877485639083
162	0x3f88311857aa6171	0.011812391448345423
163	0xbf5f948d43afbc25	-0.0019275073561819758
164	0xbf80eb45e4ffcddb	-0.008261247683527031
165	0x3f7de601e53fab75	0.00729943027907153
166	0xbf858ad6a2e1aa43	-0.01051871952605155
167	0xbf69209804f1d80d	-0.003067299759602632
168	0x3f636670af26f0e6	0.002368183218292785
169	0x3f5de7a002590451	0.0018252432431753627
170	0x3f8ae97392f6ab0d	0.01314058582541613
171	0xbf6993d05bccf1c3	-0.003122240972883912
172	0xbf707402d041dc61	-0.004016886701825846
173	0xbf7ab5b762874166	-0.006520954463170225
174	0xbf7bba900c01fca3	-0.006769716914390464
175	0xbf8a88c5675d22d4	-0.012956182686722974
176	0xbf6ed026da6edf12	-0.0037613638737318345
177	0x3f8a1ab8b383999f	0.012746279695829808
178	0xbf717589a4f28723	-0.004262483285090632
179	0xbf6481bc1da8a1b0	-0.0025032686364918275
180	0x3f8ac49515b29738	0.013070263600024043
181	0x3f7ba2035edc5182	0.00674630467053239
182	0x3f37d900db27d161	0.000363886555674561
183	0x3f6641726ecc2de8	0.0027167544379886784
184	0xbf6b5bf9a6b9d50b	-0.0033397556306292756
185	0x3f83840b76511a89	0.009529199169390228
186	0xbf758736c941ea3e	-0.005255903252072756
187	0x3f6ef04e13f64171	0.0037766957245325907
188	0xbf831d770a2dfafb	-0.009333543775708266
189	0xbf61fddb4c133959	-0.0021962435863322302
190	0x3f71b28b3bbe39f3	0.004320663338047914
191	0xbf80f1c90ada5aa0	-0.008273668903070075
192	0x3f66e7aa29cdbb3a	0.00279601321238179
193	0xbf7a3bb89f18523e	-0.0064046108032199105
194	0x3f8c8d1411756a62	0.013940960676952222
195	0x3f874dbe778d846e	0.011378753684484457
196	0x3f809701e9a8ab5e	0.008100523894503272
197	0xbf8350a779472be4	-0.009431179417239428
198	0xbf8a6554994e880e	-0.012888585022498258
199	0xbf6d93ef3d286d9a	-0.0036105797419289766
200	0xbf8658f2c786faf6	-0.010911843027199702
201	0x3f7d097c939fab03	0.00708912527805228
202	0x3f77f6f83043d77a	0.0058507628311782415
203	0x3f8666d3a2cde61e	0.010938313871281354
204	0x3f5b0c17828e0d8d	0.0016508321370743734
205	0xbf790be560e67230	-0.0061148605440420195
206	0x3f65019a24ecb13e	0.00256424051567286
207	0x3f76a221202f151e	0.005525712392175279
208	0x3f638664732f6bcf	0.002383419219297057
209	0xbf839b5b648fa884	-0.009573663717635357
210	0xbf8c6d3d6119986f	-0.013880233312374394
211	0xbf7e7035ca1100ab	-0.007431230654276681
212	0xbf81c5fafb782e96	-0.008678398894537847
213	0x3f88167030e58424	0.01176154755802556
214	0x3f6791b8a86f5047	0.002877102527671513
215	0xbf788158c4652fc1	-0.0059827296702898445
216	0x3f858a9ac18db7f8	0.010518273383890872
217	0x3f7f0dddbae31809	0.007581583149834267
218	0xbf88bc7196fc7b0a	-0.012078177852854494
219	0xbf70a7734287ca59	-0.004065942987369364
220	0x3f66aa1860f450cc	0.002766654600813911
221	0xbf82ade06b5b263f	-0.00912070586800262
222	0xbf87ca710eb82a16	-0.011616595517826272
223	0xbf87ae3a3f4a5067	-0.011562781387773847
224	0x3f83bf258bffa837	0.009641927084846553
225	0x3f8bfea56d2a4714	0.0136692928256568
226	0xbf6ca9f317832b63	-0.003499007023582677
227	0xbf7f4ff80df5f172	-0.0076446237211452595
228	0xbf665ac10eda716c	-0.0027288218178240144
229	0x3f8750a4ca95d145	0.011384284431848921
230	0x3f84d6d7a5d5828b	0.010175404308655508
231	0xbf4f26ad9832ee70	-0.0009506557111289126
232	0xbf6b5f18684d00a5	-0.0033412434299010135
233	0x3f801512f269184b	0.007852695486814684
234	0xbf795d26362fe910	-0.006192349685983936
235	0xbf8b68f06b7c24de	-0.01338374927537916
236	0xbf8576090e6084ad	-0.01047904086232373
237	0xbf7eee686617c265	-0.007551582153141644
238	0x3f85b8085d1af5ac	0.010604920712803466
239	0x3f87a71d300456f4	0.011549213435994223
240	0xbf5e1c75924e0f41	-0.001837839904710273
241	0x3f7a7bd83f7139ca	0.006465763776829234
242	0x3f74f8e473b90fef	0.005120174780646621
243	0x3f7928771c319b00	0.006142106317475138
244	0xbf7eed003abdc73e	-0.007550240417787011
245	0x3f7655400f70b173	0.005452394710158226
246	0xbf6f14a9069f65e0	-0.0037940312658803904
247	0x3f86d739d4bdcf43	0.011152698330739624
248	0x3f771bb44d2f4eba	0.005641655256983286
249	0x3f80bebcfef5add5	0.008176304369690005
250	0xbf8141062b2fdfab	-0.008424804871523714
251	0x3f8330035de7c944	0.009368921569124063
252	0xbf892ab9f1811283	-0.012288525278685519
253	0x3f819d66245689da	0.008600996002148632
254	0x3f840910bb9586ed	0.009782915806400417
255	0xbf703084d03f2763	-0.0039525211358951455

linear1.bias f8 [12]
0	0xbf8b1e09a131fec5	-0.013240885955610246
1	0x3f7a6cd30540167d	0.006451439188827399
2	0xbf61db1e78c59e90	-0.0021796794082325557
3	0xbf66df28d59a779e	-0.0027919576212544614
4	0xbf8b1befea2188d4	-0.013236879665957359
5	0xbf7eb70ae03e25aa	-0.007498781665966995
6	0x3f67af5a5941a579	0.0028912319776749876
7	0x3f827eb537753a62	0.00903073859686038
8	0x3f696f9a18af91e1	0.003104973764026506
9	0x3f7b81585590c74b	0.0067151499325051696
10	0x3f5abe8fbd9727b7	0.001632347461383505
11	0x3f8a56739b3a9f23	0.01286020581694875
