saved_models/decoder_epoch2.pt (torch_old, 480736 bytes, 2 tensors)

linear1.weight f8 [12, 5000]
00000000: f7d7 23bf 73e2 7cbf 0136 a2a1 6205 7a3f
00000010: 65d6 23a7 58b1 743f 7eb1 3f4a b96f 38bf
00000020: 9d90 7ae5 3b91 7f3f 5a18 7c5c fdb5 41bf
00000030: 26bf 8ff4 06e8 8a3f bcc3 2c2a 9074 85bf
00000040: 89a9 2a97 a1ac 6abf 0189 1c88 a3f1 603f
00000050: 976f c28e e37e 893f 1130 0cee 6fe9 803f
00000060: 9bcb 9271 0215 733f 5445 4432 3786 833f
00000070: bd93 bb59 46e4 85bf 03fd 588e 5c82 54bf
00000080: 68a4 1eef 8ed6 3abf 6d04 1b95 7113 823f
00000090: 51c3 ecba b296 63bf 4a56 af37 2fee 86bf
000000a0: 9cda 6796 2f61 84bf e825 abf7 080e 863f
000000b0: 989b c210 76c7 88bf 82fa 0db9 6c46 80bf
000000c0: 0302 aa04 8bd5 893f d014 fe03 dad2 6a3f
000000d0: 96b4 6f94 dac4 873f f258 f8d0 859a 713f
000000e0: 281d 629e d729 82bf 30ce bc97 c609 5bbf
000000f0: fc88 a94e c701 88bf 91ce 91da afe7 873f
00000100: 24c7 838b b614 473f d89f 7e2b aa4b 73bf
00000110: 9d7e 377a 8e5d 82bf 52cb 6447 052b 71bf
00000120: 8752 2c43 e946 66bf 09e8 0631 01bd 7fbf
00000130: 58ca c56a cfa5 8b3f 5e34 4c06 cfec 53bf
00000140: 0295 65ab cea7 7c3f 41be c516 9093 853f
00000150: 2b95 e743 4275 8b3f 0971 109d dca7 6e3f
00000160: a514 73be dc62 8c3f 8b45 84ac 16f3 85bf
00000170: a310 4f24 dc38 603f bd0a f1d8 fc4b 873f
00000180: e87a 1335 e82a 7cbf d704 8d64 1402 413f
00000190: 0fac 280b 2ea5 863f c512 7b21 204f e43e
000001a0: e605 06e3 961d 843f 8b01 2040 1210 833f
000001b0: 7726 ce37 452d 60bf 7730 ad76 8568 863f
000001c0: be02 b840 5fdb 883f c4d1 cc9a d40c 843f
000001d0: 66d1 b6ec ad35 75bf d134 6f6a 3b78 7f3f
000001e0: 0e14 14c5 383b 71bf 85f6 b2de 3c87 7dbf
000001f0: 7b94 31e7 ba55 85bf aa4f ed67 c6e1 613f
00000200: f246 fbb5 d6ec 883f e6d7 43fe e021 85bf
00000210: ea8d d67c 3d25 82bf cf5d 8e7c 46ae 81bf
00000220: 1867 5afe def4 5b3f a486 b1e7 75cc 7cbf
00000230: a41c 4888 af55 853f 8fb9 85c3 d667 75bf
00000240: eaaf 5bb9 26b6 8abf 4c34 855e a565 8b3f
00000250: eeea 0033 6114 81bf 4638 6e10 3a2d 6ebf
00000260: 69ef cd50 6c90 56bf d37b 6206 5196 593f
00000270: c4ff a861 f0fa 88bf 51ba bb7a d969 4ebf
00000280: f17d 2408 73fd 813f e502 3df2 457a 873f
00000290: f4fd 13e9 826f 7abf 0878 ed25 eefa 3d3f
000002a0: 3e52 1edd fb88 87bf 4814 c3e9 9eeb 58bf
000002b0: c4ec 82d4 906c 643f 59a4 1a36 fd46 8b3f
000002c0: 3e4f f91a 293f 5dbf a029 8566 9b29 85bf
000002d0: 6bb6 8b37 ee4d 80bf 4f2e 91ae 662d 8b3f
000002e0: be61 5579 4330 5c3f 5a18 e203 bd60 623f
000002f0: 2c59 cf14 bad6 62bf f7fb 7e94 5b1b 82bf
00000300: ad03 454a d7ce 813f 5be3 0ee8 622e 88bf
00000310: 82eb 30f2 2f83 803f 8967 8802 c164 80bf
00000320: 1747 4c64 342c 78bf 11af 6ee3 d217 7d3f
00000330: 088c 3246 8741 78bf dada 6254 bfdf 373f
00000340: c0c3 de81 2500 6cbf dd96 346f f57f 76bf
00000350: 5847 d093 e21e 83bf c88d 1315 558b 74bf
00000360: 859f e88b d7bd 6e3f c79b a425 3653 8a3f
00000370: 5a84 21f6 71c0 8cbf cb13 d7db 4abf 883f
00000380: 98cd 5f03 b076 843f e744 0c35 a038 88bf
00000390: b30c ac31 8995 853f f87c f98c a168 81bf
000003a0: b2de 875e 6c69 893f 1068 42a2 f2e7 8c3f
000003b0: aa39 0f3a a60d 843f cfe8 380d fdf4 783f
000003c0: 4fc1 da6a 43f8 5b3f e003 7e6e e620 863f
000003d0: ed2e d29e 9147 ef3e 6e78 7347 bf9e 7f3f
000003e0: 51ae 41b2 be44 793f f5ad f44f 088e 89bf
000003f0: 49cc 45a3 2190 893f 93f5 c077 06cb 6fbf
00000400: 995e 1bb9 5866 84bf a96b 55b9 0acf 70bf
00000410: dc49 53e8 4b9b 553f 40ac 23fd f402 89bf
00000420: d099 38d8 d106 883f 4749 3f19 3a47 7d3f
00000430: 82fc 93c8 4eeb 853f 2def 3f26 3291 81bf
00000440: 864e dd48 fbe7 883f 3e44 0bc9 be24 813f
00000450: 9a6d 4680 d323 633f b126 fa55 2f9a 85bf
00000460: f119 aac1 e976 8abf b219 7831 d34e 8abf
00000470: 9871 7da6 a424 543f dac0 193c 7b47 873f
00000480: 60da 4757 910d 7cbf bb70 5560 d085 603f
00000490: b286 e4b4 53e0 74bf 3859 5e63 556f 793f
000004a0: b33f eb83 a5b7 62bf 31f4 0aa5 0e37 88bf
000004b0: f304 8a22 6032 803f 5b58 7761 ed74 65bf
000004c0: de7c 099c b92c 683f e1f0 4a7a 6921 873f
000004d0: 2c52 be90 6b00 88bf 42b6 d5f4 92d8 70bf
000004e0: b785 eaaf 25e8 44bf cc1b d3c4 3042 88bf
000004f0: 616c caea 0266 88bf a99d 64d2 a930 80bf
00000500: fdb8 429d 93d7 6a3f 2825 c6b5 6b54 30bf
00000510: 511d 4911 1731 883f 20c7 829b 9d94 5fbf
00000520: f6e0 dd33 48eb 80bf b3f3 ca22 ffe5 7d3f
00000530: 5f4b d4d5 d88a 85bf ddc0 ccc4 9f20 69bf
00000540: 3d47 1f29 6a66 633f 3e8a 76ba 93e7 5d3f
00000550: dc8c a996 72e9 8a3f 7411 b35b d893 69bf
00000560: cd00 9a06 0774 70bf a744 544d bbb5 7abf
00000570: 1556 e869 93ba 7bbf 050a e644 c788 8abf
00000580: 229c a2eb 2cd0 6ebf 0684 69d4 b71a 8a3f
00000590: 40f3 4d3d 8d75 71bf a473 d342 c381 64bf
000005a0: 5ef5 9424 94c4 8a3f 129e e849 01a2 7b3f
000005b0: 2efe 0815 d4d8 373f 3b00 4439 6d41 663f
000005c0: a258 84d4 005c 6bbf ffa6 9462 0a84 833f
000005d0: 8c5b 7c74 3a87 75bf 92c7 5105 48f0 6e3f
000005e0: 1d0c 9b3f 791d 83bf 096e ea5c e2fd 61bf
000005f0: b0cd d7b4 88b2 713f 0b5d 1feb caf1 80bf
00000600: 0b5b 2ce3 a4e7 663f fa0e 6109 bc3b 7abf
00000610: 77c5 7673 138d 8c3f 9b85 7f74 bd4d 873f
00000620: 4c97 1cd7 0097 803f dab3 cf7f a950 83bf
00000630: 05cc 35c0 5665 8abf 3abe fa7a f593 6dbf
00000640: 6f4d 71b1 f458 86bf f0ac 32bf 7a09 7d3f
00000650: 1748 2bf9 f5f6 773f 5ff9 f9c6 d266 863f
00000660: 63ac 4ea9 0c0c 5b3f a827 2e33 e90b 79bf
00000670: 69f4 1f15 9401 653f 3725 a883 1ea2 763f
00000680: 4766 017a 5e86 633f b36a 4d67 5d9b 83bf
00000690: 6e8b e28c 3f6d 8cbf 12f1 ae5b 3970 7ebf
000006a0: d361 54fb fcc5 81bf da98 9f50 6f16 883f
000006b0: 9ece e9e3 b391 673f 825a b919 5c81 78bf
000006c0: a40f c1f7 998a 853f 2f57 cfde db0d 7f3f
000006d0: 56e1 42a0 73bc 88bf ffb1 6f62 76a7 70bf
000006e0: 7c9c 6bda 13aa 663f b623 8c31 e2ad 82bf
000006f0: 3aaf 732b 73ca 87bf 2a18 b042 3cae 87bf
00000700: 6ebb 9ec8 24bf 833f ee6a b7f8 a4fe 8b3f
00000710: 60a6 ea55 f8a9 6cbf 13b0 5f26 fb4f 7fbf
00000720: 7217 70e6 c65a 66bf ef8d ddf7 a350 873f
00000730: c536 19b6 d6d6 843f e38d cfe0 c526 4fbf
00000740: dd68 6da4 1d5f 6bbf ee36 094d 1215 803f
00000750: f118 810f 295d 79bf 81f0 0c5b f268 8bbf
00000760: 0218 3d00 0b76 85bf 78fb 2122 6cee 7ebf
00000770: cd1a bf6c 07b8 853f 90a8 e43c 1ca7 873f
00000780: 322e 310d 821c 5ebf 0ac9 72d8 d57b 7a3f
00000790: febc 72cf e1f8 743f a9ad d2d7 7428 793f
000007a0: 2379 fc00 04ed 7ebf c440 c28e 3d55 763f
000007b0: 4848 65b1 b014 6fbf f8eb 3792 38d7 863f
000007c0: 8967 eced b01b 773f 7194 d59c bbbe 803f
000007d0: 5701 714d 0841 81bf 0c04 b542 0230 833f
000007e0: 001c e346 bc2a 89bf 0e8c f6c8 649d 813f
000007f0: 70d5 625b 0f09 843f 902a 2120 8930 70bf
-0.007051899085345418 0.006352792052110257 0.005051943111757139 -0.0003728701942680364 0.0077068652823621105 -0.0005404936900681543 0.013137869203972818 -0.01047623280246223
-0.0032561451019620974 0.0020683473566275317 0.012449052614378604 0.008257746173988808 0.004658708138935898 0.009533339711682721 -0.010689305890488993 -0.0012517837398176585
-0.00040951718903642917 0.008826148379173138 -0.002391194422124356 -0.011196488272541622 -0.009950992372052263 0.010768957193607556 -0.012099192034225756 -0.007946824452799154
0.012614332275235013 0.0032743700139144863 0.011605937628667722 0.004297754974251543 -0.008868870278333121 -0.0016502799398495742 -0.011722142303544285 0.011672376496995514
0.000704373486796171 -0.004710831381011325 -0.008967507462272645 -0.00419141828597243 -0.0027193599611428673 -0.007748608259527509 0.01349985165208982 -0.001216127560101719
0.006995971014793103 0.010535360045394461 0.013407247254643003 0.003742152105145395 0.01386043983655789 -0.010717560901442954 0.001980237926973842 0.011375403757602038
-0.006876856860997128 0.0005190467428307877 0.011057243075887539 9.684125913075694e-06 0.009822062304695355 0.009307997304859558 -0.001974711600671249 0.01094154613897323
0.01213716903930739 0.009790097211955458 -0.005178145783635157 0.0076830216339207206 -0.004206868893793304 -0.007209050915830799 -0.01041742342040152 0.0021828532330036747
0.012170483997951707 -0.010318525085022356 -0.008860092518097457 -0.008633185077811327 0.0017063310309936627 -0.007030926291095394 0.010417338701712638 -0.005225981636938561
-0.013042738467866816 0.013377468058616192 -0.008339652413373835 -0.0036836752000857535 -0.0013772065896935032 0.0015617171534711885 -0.012197378139830913 -0.0009281455909027713
0.008784197507849508 0.011463686423327466 -0.006454001778592556 0.00045746149219450015 -0.011491744695185987 -0.001521020115476961 0.0024931744302115495 0.013318994725823584
-0.0017850781840893083 -0.010333265367667377 -0.007961140699502786 0.013270189478269105 0.0017204913068181583 0.0022433940603745874 -0.002299655380265572 -0.008841243237723602
0.008695299104717192 -0.011807224947789121 0.008062719896875018 -0.008004672899051506 -0.005901531844544803 0.007102798254816426 -0.005921867766264029 0.00036428853162410806
-0.003418038612800406 -0.005493124702558663 -0.009336252342140902 -0.0050156901863575645 0.0037526330845771305 0.012854025863431219 -0.014038935016460186 0.01208361133002169
0.009992003539059977 -0.011826755160230863 0.010539123371478309 -0.008500349154188389 0.012408110270356463 0.014114280297054221 0.009791659018358729 0.006093014224058459
0.0017071398137141374 0.010804939505534905 1.4915259237711454e-05 0.007719752487188909 0.006169075877646772 -0.012477936687523597 0.012481940074144176 -0.0038809896778093183
-0.009960835598959593 -0.004103700533358992 0.0013187638553985226 -0.012212671256255914 0.01173175755600378 0.0071480054356974415 0.01070272016158769 -0.008577720444001702
0.01216121975054497 0.008370867262245448 0.0023364191894878596 -0.010547990619005661 -0.012922121260328519 -0.01284565920560685 0.0012294395364370377 0.01136680867350075
-0.006848876703307555 0.0020169324731523475 -0.005096747378304721 0.0062096915697991625 -0.002284835121237416 -0.011823763286310381 0.007908583692599147 -0.0026192318289118117
0.0029510140596325915 0.011294197125032603 -0.011719551424712447 -0.004112791107542759 -0.0006380256671329386 -0.011844998365985314 -0.011913321295017267 -0.007905318005738975
0.003276623067072325 -0.00024917249336249775 0.011812381949438818 -0.0019275225768464258 -0.008261264880033963 0.0072994199987847395 -0.010518735909988029 -0.003067314194048361
0.0023681710672257814 0.0018252318057895424 0.01314057848248356 -0.00312225587330966 -0.00401690239380077 -0.006520969055842907 -0.006769729456683323 -0.012956196584814181
-0.0037613751747645066 0.012746273202710167 -0.004262496678049399 -0.002503281945435325 0.013070256582632108 0.0067462969150606945 0.0003638761309367769 0.002716744735266755
-0.0033397690023192076 0.009529191144412417 -0.0052559169196432325 0.003776684442123598 -0.009333560231771948 -0.0021962567473801137 0.004320653924412651 -0.00827368288075416
0.002796003385252437 -0.006404623525728454 0.013940956078701145 0.011378746145001275 0.008100515904128656 -0.009431194508545394 -0.012888601055896851 -0.0036105913676107966
-0.01091185728561214 0.007089118461560448 0.005850754578846227 0.010938307473449425 0.0016508220335065486 -0.00611487477989129 0.002564229224843607 0.005525702663825619
0.002383408093049852 -0.009573678698577259 -0.013880249487845577 -0.007431243949153081 -0.008678413791629069 0.011761541030818657 0.0028770936472087413 -0.005982742087857875
0.010518267510754083 0.0075815762219997715 -0.01207819302395367 -0.004065954627531897 0.0027666461713696227 -0.009120719086711176 -0.011616611255213283 -0.011562796387817615
0.009641921398580524 0.013669289436554401 -0.003499016790858886 -0.0076446352522730075 -0.0027288326996339147 0.011384278299096244 0.010175397331433253 -0.0009506670190799173
-0.003341253180605282 0.007852690673782328 -0.006192360298945086 -0.013383763698236574 -0.010479055352004 -0.007551596065353709 0.010604913717441456 0.011549206360161685
-0.0018378515276421645 0.00646575482749002 0.005120164939554471 0.006142097871968324 -0.007550254478500914 0.005452385387016704 -0.0037940455469334423 0.01115268894408493
0.0056416426948774434 0.008176294063284769 -0.00842482076961974 0.009368913326968119 -0.012288542664817825 0.008600985892206505 0.009782905556088933 -0.00395253719950496

linear1.bias f8 [12]
00000000: 5aa8 62b0 ad1a 8bbf d7e6 15f5 7458 7a3f
00000010: c72c 025b 94c3 60bf 5d81 fa7c ef95 65bf
00000020: cdea 2834 639c 8bbf 675f b9be 9a8b 7fbf
00000030: bc47 cec6 d452 663f 4400 56f5 6250 823f
00000040: efbf 58ff 7c22 6a3f 6d2c e10b e98a 7c3f
00000050: 8e35 b5c9 eb06 593f 00cc 1252 b8ba 8a3f
-0.013234478898386626 0.006432015289982571 -0.002046384579505653 -0.0026349713806014655 -0.013481879262248775 -0.007701496575087541 0.002725043849246737 0.008942387687739146
0.003190273414269022 0.006968412721174305 0.0015275290123385218 0.013051452641184014
