saved_models/decoder_epoch4.pt (torch_old, 480736 bytes, 2 tensors)

linear1.weight f8 [12, 5000]
000000 06 f4 4e ea 72 e2 7c bf 88 85 b2 1c 63 05 7a 3f
       -0.007051895988237971 0.006352793842922984
000010 f6 d9 f7 24 59 b1 74 3f d4 39 eb ab ad 6f 38 bf
       0.005051944942798139 -0.0003728674891307047
000020 7b eb 3d 69 3c 91 7f 3f a5 5b b1 6c f7 b5 41 bf
       0.007706867199767649 -0.0005404909255827163
000030 3d b1 62 2c 07 e8 8a 3f 27 3e e9 99 8f 74 85 bf
       0.013137870828665238 -0.010476228603834304
000040 c6 db 53 b5 9f ac 6a bf 3a b1 43 30 a5 f1 60 3f
       -0.003256141596121395 0.0020683504427464723
000050 83 54 d2 dc e3 7e 89 3f 3f 92 04 40 70 e9 80 3f
       0.012449054886284344 0.00825774855963701
000060 71 c9 56 2b 03 15 73 3f 8a 1a d7 85 37 86 83 3f
       0.0046587108421810445 0.009533342143993612
000070 df 14 13 b9 45 e4 85 bf 18 2c a5 63 58 82 54 bf
       -0.01068930121472039 -0.00125177985917691
000080 b4 71 e1 32 7e d6 3a bf f8 d7 a9 f9 71 13 82 3f
       -0.0004095132925437076 0.008826151305793659
000090 c1 75 ce 82 b0 96 63 bf 00 42 04 8a 2e ee 86 bf
       -0.0023911902885191687 -0.011196483218129494
0000a0 c7 91 9b ec 2e 61 84 bf 75 8c 56 5f 09 0e 86 3f
       -0.009950987430280457 0.010768960210788084
0000b0 5c 85 e5 5b 75 c7 88 bf 7c ad 95 12 6c 46 80 bf
       -0.012099186770401608 -0.007946819607886672
0000c0 b4 ba ab 5e 8b d5 89 3f ac 00 da 04 dc d2 6a 3f
       0.01261433489477546 0.0032743737454553248
0000d0 3f 9d 7b f6 da c4 87 3f 48 70 eb bb 86 9a 71 3f
       0.011605940482196984 0.004297758393217839
0000e0 e5 14 04 01 d7 29 82 bf 34 cf fc a3 c2 09 5b bf
       -0.008868865698341508 -0.0016502762591245725
0000f0 49 2c 62 b4 c6 01 88 bf 54 14 0b 24 b0 e7 87 3f
       -0.011722137813441462 0.011672378635362225
000100 83 ff 11 59 bd 14 47 3f 1b 75 c7 1c a9 4b 73 bf
       0.0007043766546672578 -0.004710827441582378
000110 82 5f 60 e5 8d 5d 82 bf c8 f3 ad 55 04 2b 71 bf
       -0.008967503130449254 -0.004191414768567499
000120 df dd 67 70 e7 46 66 bf 2f db 88 39 00 bd 7f bf
       -0.0027193565649630126 -0.007748604658039323
000130 b6 47 da 95 cf a5 8b 3f de 49 65 5b cc ec 53 bf
       0.01349985290588394 -0.0012161250757186585
000140 e0 96 3f 31 cf a7 7c 3f 57 76 c7 55 90 93 85 3f
       0.006995972962590108 0.010535361879131218
000150 79 42 37 79 42 75 8b 3f db a6 44 ed dd a7 6e 3f
       0.01340724880620424 0.0037421545513510574
000160 e9 7f ee ed dc 62 8c 3f 0d dd 62 29 16 f3 85 bf
       0.013860441218469037 -0.010717557085043095
000170 8b 34 5d 82 dd 38 60 3f 09 ae cd 0a fd 4b 87 3f
       0.0019802404739608973 0.011375405208773353
000180 9f 09 27 53 e7 2a 7c bf 36 12 8d ce 1a 02 41 3f
       -0.006876853573376001 0.0005190497296117594
000190 c3 b0 8b 51 2e a5 86 3f 3c 60 1f 85 d5 50 e4 3e
       0.011057245124412756 9.687308338543578e-06
0001a0 ac 21 68 30 97 1d 84 3f 34 ec ec 91 12 10 83 3f
       0.009822064556843944 0.00930799968556615
0001b0 f4 78 5e 71 43 2d 60 bf 51 b6 b6 b9 85 68 86 3f
       -0.0019747082942124187 0.010941548090012495
0001c0 02 54 31 89 5f db 88 3f 61 34 49 f0 d4 0c 84 3f
       0.01213717114857538 0.009790099699922008
0001d0 a4 28 42 d3 ac 35 75 bf 68 50 2c 2a 3c 78 7f 3f
       -0.0051781416879156696 0.0076830244240860615
0001e0 8a 13 5c ba 37 3b 71 bf 35 9f 23 c1 3b 87 7d bf
       -0.00420686501252455 -0.007209046760386963
0001f0 b3 84 66 48 ba 55 85 bf eb ba 4d 4b c8 e1 61 3f
       -0.010417418798910871 0.002182856750031594
000200 b8 7c f9 08 d7 ec 88 3f e5 b7 1f 5e e0 21 85 bf
       0.012170486413366141 -0.010318520424302544
000210 71 13 23 dc 3c 25 82 bf 0c a1 4c dc 45 ae 81 bf
       -0.008860087841080251 -0.008633180413724982
000220 9b 1d f0 8e e2 f4 5b 3f 4a 3f 64 c8 74 cc 7c bf
       0.0017063343509578835 -0.007030922110302937
000230 50 b7 c6 dc af 55 85 3f d1 09 8b ac d5 67 75 bf
       0.010417341160827626 -0.00522597757725625
000240 6d b3 46 17 26 b6 8a bf 21 c1 40 a9 a5 65 8b 3f
       -0.013042733750660418 0.013377470233621626
000250 69 c7 e4 8f 60 14 81 bf 4f 21 6a c0 37 2d 6e bf
       -0.008339647666250465 -0.0036836708926026094
000260 81 ac 9a df 67 90 56 bf dc 4e b5 d6 54 96 59 3f
       -0.001377202452583132 0.001561720705315509
000270 35 28 a2 c1 ef fa 88 bf 8f 44 9e ba d1 69 4e bf
       -0.012197373482440191 -0.0009281419818184688
000280 e4 a8 c7 59 73 fd 81 3f a6 34 28 3d 46 7a 87 3f
       0.008784199883809803 0.011463688603749422
000290 09 cb da c1 81 6f 7a bf 8f 98 c7 5e fd fa 3d 3f
       -0.006453997482526183 0.00045746503636080125
0002a0 e5 03 8e 3c fb 88 87 bf 6e d2 e7 0b 9b eb 58 bf
       -0.011491740022167416 -0.001521016514400088
0002b0 21 f2 4d 83 92 6c 64 3f 75 61 f3 78 fd 46 8b 3f
       0.002493177564643526 0.013318996671316733
0002c0 88 6a b0 de 25 3f 5d bf c1 a5 d6 e0 9a 29 85 bf
       -0.0017850751708069785 -0.010333261477017854
0002d0 28 c5 25 b1 ed 4d 80 bf 06 25 13 e7 66 2d 8b 3f
       -0.007961136787999992 0.013270191122858776
0002e0 e4 27 d5 8d 46 30 5c 3f c3 03 a9 9e be 60 62 3f
       0.0017204941753612363 0.0022433970491708435
0002f0 2d 2a 53 3f b8 d6 62 bf fc 95 19 00 5b 1b 82 bf
       -0.0022996519643119413 -0.008841238918829035
000300 ee 52 2c a7 d7 ce 81 3f 6b c3 43 4c 62 2e 88 bf
       0.008695301808566449 -0.01180722041360279
000310 a5 0e 4d 44 30 83 80 3f c5 b9 66 75 c0 64 80 bf
       0.008062722286587951 -0.008004668791582579
000320 a4 45 96 4b 33 2c 78 bf e1 1e 52 9b d3 17 7d 3f
       -0.005901527759662715 0.0071028009307451965
000330 eb 5a b4 2f 86 41 78 bf ed 71 d9 a2 ce df 37 3f
       -0.005921863713658419 0.0003642920954456664
000340 c0 14 6b 75 23 00 6c bf 4c c2 47 50 f4 7f 76 bf
       -0.0034180347969106906 -0.005493120527248662
000350 13 ef f5 fa e1 1e 83 bf 14 44 e9 04 54 8b 74 bf
       -0.009336247893535743 -0.0050156862258328334
000360 81 09 13 35 d9 bd 6e 3f f8 af a9 73 36 53 8a 3f
       0.003752636178064595 0.012854028134107395
000370 9a 2f ba 4a 71 c0 8c bf b8 ef 79 33 4b bf 88 3f
       -0.014038930027957797 0.012083613880569874
000380 4e c3 28 62 b0 76 84 3f 28 2a 50 97 9f 38 88 bf
       0.009992006297666525 -0.011826750569544478
000390 3a 80 56 7f 89 95 85 3f ea 83 38 03 a1 68 81 bf
       0.010539125631851321 -0.00850034514502514
0003a0 d0 4e 92 a5 6c 69 89 3f 5c 77 98 e5 f2 e7 8c 3f
       0.012408112337915084 0.014114282256794723
0003b0 7a 45 7b 8a a6 0d 84 3f 44 d3 84 be fd f4 78 3f
       0.00979166135894859 0.006093016804062771
0003c0 ea bd 7f b1 46 f8 5b 3f c3 43 aa b8 e6 20 86 3f
       0.0017071428646849803 0.010804941664248951
0003d0 88 72 46 b5 40 49 ef 3e b1 c1 ff e7 bf 9e 7f 3f
       1.491839581362868e-05 0.007719754823469691
0003e0 b6 2a 9a 4a bf 44 79 3f 88 04 f7 c0 07 8e 89 bf
       0.006169078094567728 -0.012477932525941662
0003f0 3d 79 12 d9 21 90 89 3f 73 35 8d a6 04 cb 6f bf
       0.012481941639916111 -0.0038809862930181903
000400 7d 8c 28 24 58 66 84 bf 84 50 66 ba 09 cf 70 bf
       -0.009960831263987164 -0.004103696823580919
000410 d9 ed e0 50 4f 9b 55 3f 0e b0 74 66 f4 02 89 bf
       0.001318767029728876 -0.012212666870787838
000420 78 19 22 1b d2 06 88 3f 55 0e e4 bd 3a 47 7d 3f
       0.011731759503402314 0.0071480078315776146
000430 e0 2c f0 0f 4f eb 85 3f 62 05 4d 9a 31 91 81 bf
       0.010702722238440321 -0.008577716370953229
000440 a0 a3 d2 99 fb e7 88 3f 80 10 bf 2a bf 24 81 3f
       0.012161222106742475 0.008370870105757655
000450 72 06 e1 49 d5 23 63 3f 69 36 9e b7 2e 9a 85 bf
       0.0023364225189944016 -0.01054798601014824
000460 aa 2e 02 28 e9 76 8a bf c5 51 3f 8e d2 4e 8a bf
       -0.012922116788352273 -0.012845654455227238
000470 ca 5a 3e 82 a8 24 54 3f 30 52 88 8c 7b 47 87 3f
       0.0012294431298635494 0.011366811014377282
000480 c4 33 79 30 90 0d 7c bf 17 9d a8 2c d2 85 60 3f
       -0.006848872413297739 0.002016935822456777
000490 e9 ff 42 b3 52 e0 74 bf 5b db 20 1a 56 6f 79 3f
       -0.005096743629280789 0.0062096942293042535
0004a0 ff 14 d0 bf a3 b7 62 bf a4 a3 e0 18 0e 37 88 bf
       -0.0022848318317324474 -0.011823759206963498
0004b0 fe 63 41 72 60 32 80 3f 7c c7 01 7e eb 74 65 bf
       0.007908586012648652 -0.00261922831128286
0004c0 40 0c a5 58 bb 2c 68 3f e5 be 5a cb 69 21 87 3f
       0.002951017294579056 0.011294199484239662
0004d0 87 c6 3e f6 6a 00 88 bf eb b3 1f fa 91 d8 70 bf
       -0.011719546928222314 -0.00411278745921793
0004e0 6b 7b 1c 56 1e e8 44 bf 93 87 00 2c 30 42 88 bf
       -0.0006380222441498667 -0.011844993918263024
0004f0 24 5b 52 4e 02 66 88 bf ef 5f 0e 40 a9 30 80 bf
       -0.01191331674116964 -0.007905313746775248
000500 40 4c 2c 5b 95 d7 6a 3f e6 69 80 a0 5b 54 30 bf
       0.003276626311512071 -0.0002491687487250746
000510 80 4f 45 67 17 31 88 3f 2d 57 10 28 99 94 5f bf
       0.011812384451935776 -0.0019275184315623126
000520 15 79 5d 92 47 eb 80 bf 67 05 43 f6 ff e5 7d 3f
       -0.008261260179719213 0.007299423076063994
000530 23 18 f7 34 d8 8a 85 bf d3 9e 74 a3 9d 20 69 bf
       -0.010518731228227612 -0.0030673102261465717
000540 2d fd 3e f7 6b 66 63 3f 13 81 25 41 97 e7 5d 3f
       0.0023681744296194713 0.001825235089732817
000550 a4 b3 fe e3 72 e9 8a 3f 0a 01 e9 39 d6 93 69 bf
       0.013140580733159109 -0.0031222519021697525
000560 ca ba 1f f4 05 74 70 bf 95 d5 a7 4b ba b5 7a bf
       -0.0040168983996255545 -0.006520965306198963
000570 99 89 c7 82 92 ba 7b bf b1 c8 2b c2 c6 88 8a bf
       -0.006769726093326511 -0.012956192780141458
000580 c2 fb 0a 2a 2b d0 6e bf 0c 09 3b 17 b8 1a 8a 3f
       -0.0037613719035500546 0.0127462751473826
000590 5b ef 3c 48 8c 75 71 bf 34 13 51 66 c1 81 64 bf
       -0.004262493111862965 -0.002503278478373972
0005a0 7c 78 7b 68 94 c4 8a 3f 5c b2 8b e3 01 a2 7b 3f
       0.013070258558794949 0.006746299150773707
0005b0 4a 32 5f 65 e0 d8 37 3f 3c f4 18 b6 6e 41 66 3f
       0.0003638789979703334 0.002716747506183141
0005c0 57 a3 82 e1 fe 5b 6b bf c7 34 da b0 0a 84 83 3f
       -0.003339765371567809 0.009529193422418548
0005d0 de a0 c2 78 39 87 75 bf 25 d7 db a9 49 f0 6e 3f
       -0.005255913256555026 0.003776687501949721
0005e0 df e8 ab aa 78 1d 83 bf 1d e7 58 86 e0 fd 61 bf
       -0.009333555897218236 -0.002196253323543908
0005f0 b9 69 c3 5e 89 b2 71 3f 59 f5 bb 6c ca f1 80 bf
       0.004320656397079175 -0.008273679202370475
000600 58 c0 df 52 a6 e7 66 3f 16 15 eb 15 bb 3b 7a bf
       0.0027960060606276142 -0.006404619982906886
000610 44 77 f4 ab 13 8d 8c 3f d2 3b 40 c2 bd 4d 87 3f
       0.013940957722805465 0.011378748407905013
000620 26 c5 5e 26 01 97 80 3f 5e ff 9d f8 a8 50 83 bf
       0.008100518210854956 -0.009431190573877476
000630 5e d1 91 2a 56 65 8a bf aa 01 14 b5 f3 93 6d bf
       -0.012888596700783846 -0.0036105880650440696
000640 e7 6d a1 29 f4 58 86 bf ff ad 40 57 7b 09 7d 3f
       -0.010911853332962585 0.007089120674247606
000650 df 61 ec ab f6 f6 77 3f 13 15 a8 13 d3 66 86 3f
       0.005850757180063642 0.010938309705134352
000660 75 39 6b 0c 10 0c 5b 3f ff b9 7e 12 e8 0b 79 bf
       0.0016508251880399092 -0.006114870578967756
000670 8f 2d fc fb 95 01 65 3f d3 f0 d8 58 1f a2 76 3f
       0.0025642327672181285 0.005525705766157257
000680 16 18 28 56 60 86 63 3f 50 cd 3e ce 5c 9b 83 bf
       0.002383411557505442 -0.00957367424402969
000690 7f f5 8d ec 3e 6d 8c bf 2a db 3b 48 38 70 7e bf
       -0.013880244821616426 -0.007431239940834536
0006a0 fb 0b ce 67 fc c5 81 bf e2 87 98 94 6f 16 88 3f
       -0.008678409498093833 0.011761543009075785
0006b0 c6 75 5e 59 b5 91 67 3f 81 00 90 24 5b 81 78 bf
       0.0028770963644564078 -0.005982738520288079
0006c0 31 4c 27 36 9a 8a 85 3f 39 9e b6 79 dc 0d 7f 3f
       0.010518269326814518 0.00758157847614132
0006d0 4f 32 a3 0b 73 bc 88 bf 86 95 1e 7a 75 a7 70 bf
       -0.012078188698432827 -0.004065951246876925
0006e0 99 40 28 36 15 aa 66 3f 90 5c 61 b4 e1 ad 82 bf
       0.0027666487014884164 -0.009120715443869082
0006f0 4f 95 24 99 72 ca 87 bf 8d e7 15 b1 3b ae 87 bf
       -0.011616606997061267 -0.011562792150232837
000700 1b 92 bc 06 25 bf 83 3f b3 b8 87 28 a5 fe 8b 3f
       0.009641923206410266 0.013669290828115832
000710 12 9b fd cb f6 a9 6c bf 64 96 9d 4b fa 4f 7f bf
       -0.0034990139246703434 -0.0076446320689221615
000720 0c 3d 8c 52 c5 5a 66 bf 32 44 54 31 a4 50 87 3f
       -0.002728829760947021 0.011384279971510567
000730 75 c4 4c f4 d6 d6 84 3f 2e 22 e6 d3 bf 26 4f bf
       0.010175399141731692 -0.0009506642016257666
000740 87 85 f4 43 1c 5f 6b bf d0 29 02 7d 12 15 80 3f
       -0.003341250616032357 0.007852692069964556
000750 21 c9 6c 50 28 5d 79 bf 7d c6 4c dc f1 68 8b bf
       -0.006192357518374687 -0.013383760009307405
000760 c2 76 82 80 0a 76 85 bf 27 fc 19 26 6b ee 7e bf
       -0.01047905163460017 -0.007551592397816476
000770 48 d8 f7 ae 07 b8 85 3f c7 1f 37 79 1c a7 87 3f
       0.010604915644744875 0.011549208115766775
000780 3f a0 ea e2 7e 1c 5e bf 3c 1b f5 71 d6 7b 7a 3f
       -0.0018378485798766912 0.006465757061340945
000790 34 50 2b 7e e2 f8 74 3f 52 16 71 7d 75 28 79 3f
       0.005120167482079597 0.006142100282038836
0007a0 b9 f1 41 f3 02 ed 7e bf 8f 5c 2e 4f 3e 55 76 3f
       -0.007550250553432774 0.005452388187129688
0007b0 26 d6 94 83 ae 14 6f bf 79 7e 76 f3 38 d7 86 3f
       -0.0037940414883006644 0.011152691774270128
0007c0 60 6f e2 ec b1 1b 77 3f 4c e1 66 0c bc be 80 3f
       0.005641646405049133 0.008176297310328672
0007d0 5d 76 3c ad 07 41 81 bf 01 7b a3 a3 02 30 83 3f
       -0.008424816107033434 0.009368916148046138
0007e0 33 a0 6d 98 bb 2a 89 bf 02 49 6d 38 65 9d 81 3f
       -0.012288537587394987 0.008600989136230645
0007f0 8c 6d 2e cd 0f 09 84 3f c3 77 a4 da 87 30 70 bf
       0.009782908867967753 -0.003952532463044225

linear1.bias f8 [12]
000000 9a e7 29 ba bc 37 8b bf 01 84 cc a7 3e 90 7a 3f
       -0.013289904052033386 0.006485218761356216
000010 7e ff b5 6a b1 39 61 bf c8 a1 e1 b8 07 0b 66 bf
       -0.002102705495133194 -0.002690806467445326
000020 38 d0 bb 3a 4f 89 8b bf 04 1f b8 2a ac de 7e bf
       -0.013445490817936542 -0.0075365758198200385
000030 ea 15 a5 0b ae 9a 67 3f 15 42 2f 28 40 48 82 3f
       0.002881374294846796 0.008926869608246549
000040 bb ee 1b e2 2d a3 69 3f 1d e1 3c 4a cb b0 7c 3f
       0.003129567733479136 0.007004541493920405
000050 71 0c 84 98 e9 02 59 3f 50 63 58 ef b3 50 8a 3f
       0.0015265732964173907 0.012849241010415874
