saved_models/decoder_epoch8.pt (torch_old, 480736 bytes, 2 tensors)

linear1.weight f8 [12, 5000]
00000000: c9d6 e55a 71e2 7cbf c5ca 44e2 6305 7a3f
00000010: 190a 0109 5ab1 743f 1d09 f37e 986f 38bf
00000020: 4c00 9a42 3d91 7f3f 7452 c037 edb5 41bf
00000030: af92 5778 07e8 8a3f 8de3 b08f 8e74 85bf
00000040: c2e3 5646 9cac 6abf 1a7c e533 a8f1 603f
00000050: 2e87 0f61 e47e 893f 07e8 1bbe 70e9 803f
00000060: b5a1 ff3f 0415 733f c523 e304 3886 833f
00000070: 616f 1d9a 44e4 85bf 5f8d e4fe 5082 54bf
00000080: c823 0d7c 60d6 3abf 029a e1b1 7213 823f
00000090: a522 b56e ac96 63bf 55d0 4d4b 2dee 86bf
000000a0: d9f9 8bb1 2d61 84bf 6ef5 941b 0a0e 863f
000000b0: 16bb 1b0c 74c7 88bf 004a 69e4 6a46 80bf
000000c0: bdba 0afe 8bd5 893f 806c d8cb dfd2 6a3f
000000d0: faca 6aab dbc4 873f 521e 2764 889a 713f
000000e0: 6a7f 21d2 d529 82bf b5e0 bccb ba09 5bbf
000000f0: a8ac 7480 c501 88bf 4dce 88aa b0e7 873f
00000100: 1d9d f3f3 c914 473f c6ee 9504 a74b 73bf
00000110: 938c 37c1 8c5d 82bf 9b4b 0e7e 022b 71bf
00000120: 01b1 30e6 e346 66bf d19b 4c5e febc 7fbf
00000130: 0ae4 1fd1 cfa5 8b3f 3422 adb8 c7ec 53bf
00000140: 7a5a 8221 d0a7 7c3f c944 a2cd 9093 853f
00000150: dd40 b5d9 4275 8b3f dc7a 7b61 e0a7 6e3f
00000160: dd89 0d4b dd62 8c3f 72b6 ba2f 15f3 85bf
00000170: 8507 16cd df38 603f d556 4245 fd4b 873f
00000180: 1113 05ba e52a 7cbf ea74 9e4a 2602 413f
00000190: 4218 40c3 2ea5 863f 1b65 4d5b d653 e43e
000001a0: cf6e 1ab2 971d 843f 516b c520 1310 833f
000001b0: e2a1 fa0f 402d 60bf 7e1c ba22 8668 863f
000001c0: 9612 00ef 5fdb 883f a7cd 6d84 d50c 843f
000001d0: 2c1c 8ac4 aa35 75bf 2576 867f 3d78 7f3f
000001e0: dc5d 94d6 353b 71bf 9485 54ab 3987 7dbf
000001f0: dbfd 7e16 b955 85bf bfef 77cf cbe1 613f
00000200: 2168 3990 d7ec 883f ba9c 6739 df21 85bf
00000210: 0e5c 76b4 3b25 82bf 8a91 aeb5 44ae 81bf
00000220: 5238 592d e9f4 5b3f be4b 04ae 72cc 7cbf
00000230: 6783 a969 b055 853f 6388 69be d367 75bf
00000240: 4c73 18ea 24b6 8abf 34e9 e71c a665 8b3f
00000250: 839a 4075 5f14 81bf 0915 47a5 332d 6ebf
00000260: 78c8 5a0d 6090 56bf 4054 0535 5c96 593f
00000270: 13d4 d194 eefa 88bf dc8a f66b c269 4ebf
00000280: 7d70 6ffd 73fd 813f d998 a6b9 467a 873f
00000290: 4083 489c 7f6f 7abf e70a f44d 18fb 3d3f
000002a0: 14cf 8308 fa88 87bf 1a50 7461 93eb 58bf
000002b0: a413 b9a5 956c 643f 6919 b6f2 fd46 8b3f
000002c0: 27fa 9c59 1f3f 5dbf 13cb 50da 9929 85bf
000002d0: 9123 c8b5 ec4d 80bf 48a0 1f4c 672d 8b3f
000002e0: c279 6eb2 4c30 5c3f 9bf2 6ab2 c160 623f
000002f0: 214a 86c0 b4d6 62bf 85d7 08eb 591b 82bf
00000300: 51df f24b d8ce 813f 4609 931c 612e 88bf
00000310: 096e 3bd3 3083 803f 5ee3 b174 bf64 80bf
00000320: 70b7 9526 312c 78bf e42e 7f04 d517 7d3f
00000330: 6bf1 8115 8441 78bf 6301 1f07 ecdf 373f
00000340: 1629 7aa4 1f00 6cbf f552 cd45 f27f 76bf
00000350: cb54 05e6 e01e 83bf 9abd 4f32 528b 74bf
00000360: 212a e0de dbbd 6e3f b1bf 7ef2 3653 8a3f
00000370: 05e5 f00d 70c0 8cbf 7798 4eba 4bbf 883f
00000380: 80d6 76f1 b076 843f 7e2c 2c7d 9e38 88bf
00000390: d54b f3fd 8995 853f 5b64 ad12 a068 81bf
000003a0: 08f2 3c0a 6d69 893f be6b 6c4b f3e7 8c3f
000003b0: 5b48 c519 a70d 843f a5ea a800 fff4 783f
000003c0: b7fd 324c 4cf8 5b3f c65b 8d34 e720 863f
000003d0: 3416 27be 4d4c ef3e d1f5 87e7 c09e 7f3f
000003e0: e314 8736 c044 793f ed0e 3fc2 068e 89bf
000003f0: cf00 5c26 2290 893f 495a d65f 01cb 6fbf
00000400: 2eef 590f 5766 84bf ff12 c3eb 07cf 70bf
00000410: e669 7c4f 559b 553f 04a4 795d f302 89bf
00000420: 4c69 5f7f d206 883f d2c2 bcba 3b47 7d3f
00000430: 3b69 b464 4feb 853f 24a6 25ac 3091 81bf
00000440: 3011 4c2e fce7 883f 556c 1ee9 bf24 813f
00000450: 60d3 1a71 d823 633f 2b1d e29c 2d9a 85bf
00000460: 39b1 9e0e e876 8abf 5275 7a75 d14e 8abf
00000470: 7a93 cfda ae24 543f 401b fb0e 7c47 873f
00000480: 2b79 13f2 8d0d 7cbf 2f6a 354b d585 603f
00000490: 6366 02df 50e0 74bf bfab e463 576f 793f
000004a0: fd7f ee92 a0b7 62bf 6e07 f716 0d37 88bf
000004b0: 7c65 5aed 6032 803f 0a39 9837 e874 65bf
000004c0: 62d0 c06d be2c 683f e1a7 8251 6a21 873f
000004d0: d2c2 47df 6900 88bf e5e5 e836 90d8 70bf
000004e0: 0567 bb90 11e8 44bf a935 ab23 2f42 88bf
000004f0: 5c7d 3b49 0166 88bf 7863 a646 a830 80bf
00000500: fdb3 cd1c 98d7 6a3f 9895 5806 4054 30bf
00000510: f79c d7fe 1731 883f ef0e 3588 9194 5fbf
00000520: 7b30 687c 46eb 80bf 674d 522b 01e6 7d3f
00000530: 845c 2135 d78a 85bf 5262 8609 9a20 69bf
00000540: 3285 83e6 6e66 633f ae44 0ed5 9ce7 5d3f
00000550: 4aa5 6758 73e9 8a3f 9ee2 dc6f d293 69bf
00000560: 60d6 93f6 0374 70bf 0ac1 5d77 b8b5 7abf
00000570: 42d9 78f6 90ba 7bbf 12c3 40e7 c588 8abf
00000580: 70fd 6c5c 28d0 6ebf 33b0 d97e b81a 8a3f
00000590: b25d f38e 8a75 71bf bf55 25ee bd81 64bf
000005a0: 5f7a b9d9 94c4 8a3f f7fa 8adc 02a2 7b3f
000005b0: 07a7 8abc f5d8 373f 5eda e01f 7141 663f
000005c0: 32cd fd73 fb5b 6bbf d25c 8031 0b84 833f
000005d0: 0e20 dab4 3787 75bf f7ba c3a5 4cf0 6e3f
000005e0: ac08 c192 771d 83bf 80e7 f811 ddfd 61bf
000005f0: c76a 7092 8ab2 713f 348d 758b c9f1 80bf
00000600: 6755 cbc6 a8e7 663f 0f6f 3c79 b93b 7abf
00000610: a094 faec 138d 8c3f d26a 0136 be4d 873f
00000620: 9139 3ba1 0197 803f 6026 ec00 a850 83bf
00000630: 963e 562c 5565 8abf e3c3 72ee f093 6dbf
00000640: afc9 b64b f358 86bf 6ea1 e713 7c09 7d3f
00000650: 2d53 2ca2 f7f6 773f 8e7c 0f75 d366 863f
00000660: 74a6 bbff 140c 5b3f ff4a 164a e60b 79bf
00000670: 512f 5cce 9801 653f 6d6b 8f8d 20a2 763f
00000680: ff9f a31e 6386 633f ed58 0edc 5b9b 83bf
00000690: 9dbe 5ae5 3d6d 8cbf fb43 b29c 3670 7ebf
000006a0: 63e9 7c6f fbc5 81bf f032 5100 7016 883f
000006b0: 18d3 e196 b791 673f af22 1a91 5981 78bf
000006c0: 9230 a18d 9a8a 853f 2a8d 3242 dd0d 7f3f
000006d0: 7c8a e616 72bc 88bf bad4 8304 74a7 70bf
000006e0: b044 2446 17aa 663f ece5 4fe2 e0ad 82bf
000006f0: 6d90 f19a 71ca 87bf ac12 89bd 3aae 87bf
00000700: 2032 965a 25bf 833f 6c78 784b a5fe 8b3f
00000710: 1fc0 338f f4a9 6cbf b97d c1e1 f84f 7fbf
00000720: 11c6 1c90 c25a 66bf f1c0 bb94 a450 873f
00000730: 0494 7766 d7d6 843f d421 c700 b426 4fbf
00000740: f90f 90d6 195f 6bbf 72b5 77bd 1215 803f
00000750: 279d 9305 275d 79bf bcb2 b5ef f068 8bbf
00000760: df3f d590 0976 85bf 3d96 c858 69ee 7ebf
00000770: 4cbf e71b 08b8 853f a25f 51ef 1ca7 873f
00000780: dbe8 6dec 781c 5ebf d758 0b8d d77b 7a3f
00000790: 2640 ddae e3f8 743f 9710 b779 7628 793f
000007a0: bc61 d935 01ed 7ebf b20c df6c 3f55 763f
000007b0: afd5 29e5 aa14 6fbf c6a4 a886 39d7 863f
000007c0: d6d5 f178 b31b 773f 01d5 31a9 bcbe 803f
000007d0: 1dae 5cb4 0641 81bf 5a96 2617 0330 833f
000007e0: e070 7283 ba2a 89bf 77fe 4cd3 659d 813f
000007f0: eaac f168 1009 843f 6299 09db 8530 70bf
-0.007051890176048744 0.006352796717964797 0.00505194826115709 -0.00037286255878767207 0.00770687036276747 -0.0005404861726697311 0.013137873039292229 -0.010476220855808705
-0.0032561352006408037 0.0020683560571082117 0.012449058734947362 0.00825775222937254 0.0046587148681073625 0.009533345841548422 -0.010689292863098112 -0.001251772973383712
-0.00040950637417274923 0.00882615666723741 -0.0023911826916996498 -0.011196473942369925 -0.00995097826080109 0.010768965689403411 -0.012099176997677524 -0.007946810813483474
0.012614339533084768 0.0032743807812614656 0.011605945748077929 0.004297764566622302 -0.008868856883225102 -0.0016502689531546048 -0.011722128851565053 0.01167238254956895
0.0007043825243301692 -0.004710819638940661 -0.008967494627489614 -0.00419140790553998 -0.002719349971377239 -0.007748597742454914 0.013499854630923753 -0.0012161207584587943
0.006995976458844861 0.010535365367362453 0.013407251614495791 0.0037421591222107486 0.013860443928653982 -0.010717549819072778 0.001980244742925077 0.011375406910058153
-0.0068768476197120934 0.0005190550775641377 0.01105724843365519 9.692902361346228e-06 0.009822068331508586 0.009308003842922881 -0.0019747019976714556 0.010941551146301128
0.012137174111566378 0.009790104011449708 -0.005178134023146302 0.007683029391413442 -0.004206857972597313 -0.007209038992443868 -0.01041740989592104 0.0021828632995930237
0.012170490349650067 -0.010318511905053607 -0.00886007923581469 -0.00863317183922942 0.0017063405151876055 -0.007030914275918341 0.010417345261147749 -0.0052259703867055555
-0.013042724985149377 0.013377473599565627 -0.008339639440305696 -0.0036836632445750345 -0.0013771951684416178 0.0015617275676807069 -0.01219736472760683 -0.0009281348538262252
0.008784204646808508 0.011463692226993437 -0.0064539894852096436 0.0004574713074846762 -0.011491731057027312 -0.0015210093750441856 0.002493183403006376 0.013319000215017156
-0.001785069098744105 -0.010333253836596812 -0.007961129472293911 0.013270194063764632 0.0017204998964427264 0.0022434027808613927 -0.0022996454537829313 -0.008841230855164426
0.008695306604166982 -0.011807211575050613 0.008062726446431705 -0.008004661320443137 -0.005901519770629679 0.007102806186548103 -0.00592185588186243 0.0003642989387309307
-0.003418027688728685 -0.005493112924189293 -0.00933623983352518 -0.005015679435913434 0.0037526411388218027 0.012854031825412312 -0.014038920808263198 0.012083617804659703
0.009992010468390378 -0.0118267423581726 0.010539129316759524 -0.008500338144289346 0.012408115267697375 0.01411428522037805 0.00979166552921045 0.006093021491831029
0.0017071480840938744 0.010804945269837673 1.492407858883901e-05 0.007719758541950354 0.006169081527734851 -0.012477925112654964 0.012481943889270401 -0.0038809801905686264
-0.00996082320784061 -0.004103690091316946 0.0013187726125979348 -0.012212659158835855 0.011731762420755708 0.007148011510978507 0.010702724705471503 -0.008577709439765498
0.012161226427914146 0.008370875646326473 0.0023364283923349854 -0.010547977781483716 -0.01292210859886521 -0.01284564628377419 0.0012294490400048528 0.01136681481092483
-0.006848864054715779 0.0020169416326727622 -0.005096736815312394 0.006209699028015102 -0.002284825917243437 -0.011823751700720666 0.007908589595262631 -0.0026192222110302853
0.0029510230360987747 0.011294203388690196 -0.011719538809275152 -0.004112780893188871 -0.0006380162971837139 -0.011844986225152026 -0.01191330914247029 -0.007905306488099603
0.0032766314456496013 -0.0002491623220940097 0.011812388863246854 -0.0019275113307494725 -0.00826125209007266 0.007299427573474438 -0.010518723782452229 -0.003067303518218525
0.002368179895811417 0.0018252402844363513 0.013140584121134186 -0.0031222448441464287 -0.00401689098474875 -0.006520958491691662 -0.006769720326295138 -0.012956186408787516
-0.0037613666821980016 0.012746278163113888 -0.004262486690286437 -0.002503272016080443 0.013070261854577212 0.006746302774159877 0.00036388396669427596 0.002716752001130459
-0.0033397589867775407 0.009529197166598644 -0.005255906680424983 0.0037766930600960885 -0.009333547750547254 -0.0021962468888689357 0.004320660874351296 -0.008273672646004294
0.002796010629348689 -0.006404613977590192 0.013940959615249604 0.011378751776807947 0.008100521786585076 -0.009431183365012419 -0.012888589301638203 -0.0036105828945314096
-0.010911846874340407 0.007089123419497729 0.005850760763469504 0.010938312539961605 0.0016508297985019767 -0.00611486393735805 0.002564238023188205 0.005525710258519873
0.002383416741498223 -0.009573667195394065 -0.013880237161486614 -0.007431233719345616 -0.008678402271119883 0.011761546144179985 0.0028771005373137253 -0.005982732649166308
0.010518271872705296 0.007581581393569162 -0.012078181575650541 -0.004065945810215849 0.002766652543080804 -0.009120709330079323 -0.011616599598888134 -0.011562785061991342
0.0096419256467693 0.01366929184501605 -0.003499009757085516 -0.0076446268031697346 -0.002728824620952926 0.011384282864554925 0.010175402464435386 -0.000950658695324564
-0.0033412460948074566 0.007852693945973075 -0.006192352703897875 -0.013383753123627933 -0.010479044659092494 -0.0075515856847566095 0.01060491881523231 0.011549211553002984
-0.0018378430265487053 0.006465761180797189 0.00512017191597639 0.0061421039530992405 -0.00755024407188681 0.00545239234446908 -0.003794034747722739 0.011152696058234556
0.005641652168482966 0.008176301873599192 -0.008424808863842387 0.00936891950989176 -0.012288529526181369 0.008600993643653283 0.009782913401258548 -0.003952525018212279

linear1.bias f8 [12]
00000000: d76c d893 ade1 8abf 2352 1579 26ce 793f
00000010: 6044 d69f e9d9 60bf e4d4 9304 894c 67bf
00000020: feda 976f fd55 8bbf a651 0356 6305 7fbf
00000030: a7d3 cd46 d6ba 683f b32e 6a84 f667 823f
00000040: 000b eb6a 2edf 693f 62d7 04d1 0ae5 7b3f
00000050: 3037 b611 00b5 583f 0cd6 a5d1 056d 8a3f
-0.013125759195693849 0.0063001158572047215 -0.0020570338226169466 -0.0028441120272143395 -0.01334760662846923 -0.0075734978019749485 0.0030187783326546982 0.008987356105783694
0.0031581789583879916 0.006810228587985497 0.0015079975772524616 0.012903256855433497
