saved_models/decoder_epoch20.pt (torch_old, 480736 bytes, 2 tensors)

linear1.weight f8 [12, 5000]
-0.014983937517268155 -0.0016027649198244712 -0.011395420364395868 -0.009371440384423033 -0.007667922723431705 -0.007832622425332964 -0.0020272021102187717 -0.01446870639191673
-0.0034560429588142236 -0.011685762588215548 -0.009950409175640527 -0.0094720954357824 -0.01675562705637944 0.0024936800022531784 0.002081903824886429 0.012195136112020255
-0.013374305233286891 -0.0010705344921879095 -0.0038950211889237966 0.003771781265034115 -0.00042768102281797495 -0.01050186767930876 -0.0016164595891802352 -0.008330600610305368
-0.010077174517983227 -0.010184145690020982 -0.006610691516443235 0.01330742745695451 0.0020793923687929057 -0.00908124948458088 0.007996554664507724 -0.006658221173376664
0.00853308461789397 -0.0070293192319469625 -0.004496916556365023 0.007184103205360042 -0.008403064691045114 -0.010963850768800873 -0.003489835963208142 -0.00281363515083758
-0.015239680775900644 -0.005955363807474233 -0.0097063951150306 -0.017906859075132925 0.004060187704748494 -0.0042727867096936465 0.006102843313843291 -3.1800999529294036e-05
-0.004964545084367528 -0.00669787333532783 -0.014194560645243928 -0.008217668873714263 -0.018455550851709593 -0.011792736126734028 -0.013619055441287425 0.0037098902130312467
-0.01920281064043135 0.0007139261019332509 -0.008257535639234495 0.011125525620645912 -0.010425088851439421 -0.014990136768958802 0.009663176233360217 0.010421839930775964
0.002910509450965423 -0.008743788607112161 0.009372714756910627 -0.0029225721667104783 -0.0004393632656406751 -0.00917404413744824 0.004918146396499129 -0.006564681177743971
0.006504880972369694 -0.001663007906845154 -0.002210041286753621 -0.014488276973842707 0.013522589805866165 -0.008347420930037888 -0.000378920718724099 -0.005850359942472275
0.0011846555762061366 -0.008833279308943424 -0.012350246170924123 0.01105624518364936 0.006974356319633435 -0.014516396900613444 0.00890442079998099 -0.01201512638259834
0.0012309102565136768 -0.0039934713924748505 0.002314794845900171 -0.008464251207271744 -0.009222700878366522 -0.005747515034228673 0.0027034312382063683 0.008298221636100386
0.007946514366249543 -0.013056903530819253 -0.01060414496419199 0.004255199752122141 0.005518676178834178 -0.0016074376117795478 -0.005624848741809578 -0.007869966241011779
-0.014140837200845427 0.00743827623349023 0.009267469136164629 0.003567693901473958 -0.0043644198104858725 -0.011909245336407304 0.005887328342946832 -0.007090778607038013
-0.01654819270103861 -0.012095767113842876 -0.018598429874169792 0.00013739039413282865 0.00830481115010724 -0.008010705732997975 0.0021298052305517095 -0.004013656952170275
-0.010361252535507463 -0.0006296226312995151 -0.01751273237062052 -0.008284915284417185 -0.01028535234449938 0.004490419396406144 -0.017506051005179882 -0.01805143575765647
-0.009769955879863632 -0.006691993608039464 0.008500769197379854 -0.0021137503215396918 -0.011396754677666314 0.008540363776442166 -0.013163345549839126 0.004913393405318929
0.010902774335774676 -0.01246281406038561 0.010091104979213133 0.007449177065382424 -0.0002760778603171679 -0.011965883903152556 -0.007099512454761525 0.008830755813277675
0.013592289827622148 0.007601333682392251 0.008301518236031098 0.009008215332117861 -0.003851178006912106 -0.016937302952271152 0.006694208151901266 -0.016082320754769022
-0.001968225220375512 -0.002226086569570896 -0.012642768647993458 -0.01322377401531981 -0.008989105920772244 -0.004262804582378066 -0.014493691795261382 -0.0017823633879585372
-0.0016615900568105572 -0.01497000009190009 0.003895355294740817 -0.00897880257380212 -0.00923263954140943 -0.0010169215317593094 -0.01684741514687215 0.0076155661395184045
-0.010353482345680572 -0.00745665648213859 -0.012165337525456454 0.01097264268018403 -0.014573843191768366 0.007176970581137439 -0.011009435705154424 -0.00779976039228312
-0.0031932004652299706 -0.007033578841156702 -0.010146195912780846 -0.004355435187156463 -0.016356169025321228 -0.006077208967130023 -0.00813662035256059 -0.006873491563734153
-0.0008168337807628943 -0.01543163978612872 -0.001862269179436091 -0.013491867159073152 -0.010896936611664349 0.007604748845170515 -0.012590294135683635 -0.008196552832268628
0.0008605070901137716 -0.013235751582405137 -0.01627019746085676 -0.0004038471197552132 0.007035219204176084 0.007378248491288145 -0.003754293752498721 -0.0012261668401008583
-9.508228740351932e-06 -0.012231444595491298 -0.0091521563018469 -0.008367593527266022 -0.0011810700520209416 -0.017899153610412426 0.007222334934655768 0.004084901517558778
0.0032354576048150576 -0.017838783395290273 -0.01934752304855157 -0.017911820543669948 -0.0019145782672340466 -0.011914782858136677 -0.010736309969574536 0.0011957903048813378
-0.01817334783420227 -0.01432888485736955 -0.008127273933453737 -0.01854997740570197 -0.005475176500664251 -0.02299866763568905 -0.004497770174984952 -0.001803363609548198
-0.006584308978421535 -0.024114955966178492 0.0006760532789457189 -0.008616972639061448 -0.003317917292793806 -0.01619868782735253 -0.0025569135553134992 0.0027235410809747698
-0.02293137419886493 -0.025004906582132863 -0.013173036565163075 -0.002106594674641661 -7.235150575933562e-05 -0.005549162273994544 -0.005597900997027496 0.0006417055525033596
-0.009557752187677073 -0.0021977405234639667 -0.015843919049140454 -0.012234082286881182 -0.011252282207285268 -0.01783561351585671 0.00243006601526638 0.0034987787725120063
0.013502340786359568 0.004912198416882403 -0.013715880593376447 -0.005500406454877269 0.0024819536658311175 0.001953665781730336 0.003997651225287252 -0.00017632157072926187
00000000: d4d7 d00c e6af 8ebf f70f 7cba 7b42 5abf
00000010: b263 506e 7b56 87bf 3276 bd6f 5531 83bf
00000020: c9d0 3455 6668 7fbf aa0f 45c9 8c0a 80bf
00000030: e333 81d8 599b 60bf a650 26e6 c4a1 8dbf
00000040: 54e8 69ef d84f 6cbf d061 2981 b4ee 87bf
00000050: 52f7 ed4f e160 84bf b25f f820 1b66 83bf
00000060: 5dab ec18 6328 91bf 58c1 cd41 a06d 643f
00000070: 77f7 eb9a 110e 613f 73d1 2b76 c3f9 883f
00000080: 0f65 abdc fc63 8bbf ee22 86a8 258a 51bf
00000090: cbfa f493 73e8 6fbf 51a5 caa5 ffe5 6e3f
000000a0: 6f47 9101 4c07 3cbf 981e d6d1 0082 85bf
000000b0: 4a8e 8844 ec7b 5abf d71b 6b49 a20f 81bf
000000c0: 5c34 ed77 57a3 84bf ab24 69e5 6cdb 84bf
000000d0: 0d83 dffd cf13 7bbf 1fa8 c5ad ec40 8b3f
000000e0: 9149 0647 cd08 613f 7b40 58ac 3099 82bf
000000f0: 652e 1e66 7f60 803f 7ee9 06a3 a645 7bbf
00000100: 195e f13a cb79 813f 9a00 6e83 c6ca 7cbf
00000110: bbc9 add8 5b6b 72bf acfa 1605 146d 7d3f
00000120: 7910 4640 a035 81bf abfa eb23 3774 86bf
00000130: b080 926a b796 6cbf 4f49 95de 9e0c 67bf
00000140: ba93 4554 fb35 8fbf b244 9fcc a664 78bf
00000150: 4e1d a64c f2e0 83bf 2838 68f8 2c56 92bf
00000160: 962f 8556 6aa1 703f ea09 e572 5780 71bf
00000170: 2b0d 2187 4bff 783f a811 0f06 42ac 00bf
00000180: a015 6eec b355 74bf 3205 d9ae 3a6f 7bbf
00000190: 3bf0 04ae 0912 8dbf d7e4 7ed8 6cd4 80bf
000001a0: 24dd 590d 03e6 92bf fa1a f53f ca26 88bf
000001b0: 162c c8ad 4ee4 8bbf f201 6024 3464 6e3f
000001c0: 358a c4ce e6a9 93bf 4765 39a1 d864 473f
000001d0: 88e7 20ac 53e9 80bf eb28 88c5 fac8 863f
000001e0: 720b 66bd bf59 85bf d161 7b19 26b3 8ebf
000001f0: 41a0 2e8f 49ca 833f cbaa 55ad 0b58 853f
00000200: 5fd4 02dd c7d7 673f 5cae e270 43e8 81bf
00000210: 5368 d87a 0032 833f 6301 0afc 13f1 67bf
00000220: 0fba 63db 4acb 3cbf 30d6 565c d7c9 82bf
00000230: 06e3 e0de 0c25 743f db25 792f 91e3 7abf
00000240: 95b5 a6b0 dca4 7a3f 1938 aa24 293f 5bbf
00000250: 0ad2 94e1 ca1a 62bf 476f 399e 07ac 8dbf
00000260: 778f c947 bbb1 8b3f a823 34df 7318 81bf
00000270: 010d 3e18 3cd5 38bf 6ac5 f609 8cf6 77bf
00000280: 59b1 3c3d ce68 533f 8f9c fcad 2e17 82bf
00000290: e39d 36fb 154b 89bf 0db8 d71b a8a4 863f
000002a0: 340a db84 2491 7c3f 7716 8dcf c5ba 8dbf
000002b0: 3d84 0121 7b3c 823f a6eb f6f6 629b 88bf
000002c0: 1146 f2d2 cf2a 543f 7978 7350 755b 70bf
000002d0: 4f76 1f05 7af6 623f a67f f690 b455 81bf
000002e0: 821c 3af5 59e3 82bf 933a afd1 b48a 77bf
000002f0: eb9f 2998 8125 663f be09 5674 a8fe 803f
00000300: ded7 8f1a 4346 803f 0d15 37ed 93bd 8abf
00000310: e202 963e a0b7 85bf 4d7c 5f7c e66d 713f
00000320: 09f0 485b c09a 763f c4de 44fe 1456 5abf
00000330: 059d 41d6 140a 77bf 8493 01fd 201e 80bf
00000340: 2889 860a dff5 8cbf 6b51 9512 9977 7e3f
00000350: 4c25 daa6 d2fa 823f 3784 2014 ff39 6d3f
00000360: 9600 a205 6de0 71bf e055 ebd9 df63 88bf
00000370: 1daf 19ab 4f1d 783f 14c7 8663 380b 7dbf
00000380: 29e1 d569 02f2 90bf 8a53 6461 aac5 88bf
00000390: d81a 4480 770b 93bf 919c c97f 0e02 223f
000003a0: a736 50e2 1c02 813f 30fc 20b9 ea67 80bf
000003b0: d378 fc79 8672 613f 0d0b 8dd5 9f70 70bf
000003c0: 82e9 48c6 4738 85bf 38c4 1c4e a8a1 44bf
000003d0: 7381 2e93 dbee 91bf aed8 9281 aef7 80bf
000003e0: d566 949f 7c10 85bf f507 3fc7 8b64 723f
000003f0: 418a 3232 1bed 91bf 0861 e658 137c 92bf
00000400: 0526 e647 4502 84bf 45ac 105b 1069 7bbf
00000410: 4079 8ced d968 813f d8f0 1710 db50 61bf
00000420: 7c09 f884 2e57 87bf b614 ed38 9c7d 813f
00000430: 48da 2355 62f5 8abf fbc6 cfff 1020 743f
00000440: b89d a999 3154 863f 35a2 7196 1a86 89bf
00000450: 6906 ee2e a5aa 843f 2101 0c3e 0783 7e3f
00000460: 421a 9761 d117 32bf 3c12 41c0 9181 88bf
00000470: 33d0 f8dc 6014 7dbf 97fe 55fb db15 823f
00000480: 7293 4c42 46d6 8b3f 8b54 2679 9322 7f3f
00000490: 84af a5ea 6200 813f 9863 f931 e672 823f
000004a0: 9f85 e772 818c 6fbf 64bf 0c29 0358 91bf
000004b0: 144b 5cd1 626b 7b3f a4f7 bd46 e277 90bf
000004c0: bd50 7cde aa1f 60bf e8bb 7520 713c 62bf
000004d0: 5d01 feae 73e4 89bf f968 67e7 1015 8bbf
000004e0: e697 995f e168 82bf 1a2f 54e4 df75 71bf
000004f0: fd54 1262 deae 8dbf 88e3 7e1d c633 5dbf
00000500: 30da 03bd 3639 5bbf c5d0 8666 97a8 8ebf
00000510: dd5c 1cf3 26e9 6f3f 3d34 4b7b 7a63 82bf
00000520: cfc0 16e7 8fe8 82bf 0a21 2d2e 47a9 50bf
00000530: 5ed2 4fe4 7240 91bf 74f6 27f8 7f31 7f3f
00000540: 0465 98e0 3434 85bf 2615 a7fb de8a 7ebf
00000550: 0079 88f6 23ea 88bf 3359 b22b d378 863f
00000560: 07de 151f e4d8 8dbf 95ab e25e 9965 7d3f
00000570: 738e 6872 1d8c 86bf 6ae9 d23c a4f2 7fbf
00000580: fbe1 2a72 a028 6abf 54b2 8bf1 3dcf 7cbf
00000590: ef5d fe5c 87c7 84bf 31da 043b 01d7 71bf
000005a0: 62d7 34ec abbf 90bf 698b 3c5c 6ae4 78bf
000005b0: 8983 83b2 eea9 80bf 61ef 9bd7 6027 7cbf
000005c0: 3c5b f42f 19c4 4abf 83fe a3a1 9f9a 8fbf
000005d0: c1af 354e ec82 5ebf 0a7b aec1 9fa1 8bbf
000005e0: bd4d fd12 2251 86bf 244c 5939 2826 7f3f
000005f0: e16e 7aac f0c8 89bf ca13 d6b2 5ac9 80bf
00000600: 6a90 aee7 7432 4c3f 1dac 7981 581b 8bbf
00000610: b9b1 f977 22a9 90bf 9fc3 032c 6e77 3abf
00000620: 2b1d 6f46 f6d0 7c3f 37ac 8c7f a738 7e3f
00000630: 3eb1 5e1c 53c1 6ebf 2331 929e ea16 54bf
00000640: 3b01 e801 b1f0 e3be bdec 29b4 cc0c 89bf
00000650: 1ed5 08a0 5dbe 82bf 84db 5d64 0723 81bf
00000660: dc8f da4f c459 53bf 2bfd 87dd 2754 92bf
00000670: a28c 85c5 2a95 7d3f e302 ce66 54bb 703f
00000680: 4374 3513 3f81 6a3f 11ff 217d 5444 92bf
00000690: bc2f 024b d6cf 93bf cb9b c9ed 7957 92bf
000006a0: 9c1b c7c2 525e 5fbf 5b94 b715 c766 88bf
000006b0: 03a3 9721 ebfc 85bf 6153 2610 8297 533f
000006c0: f04a 6dba 089c 92bf 20ee cd5e 7658 8dbf
000006d0: 19a0 ff3d 08a5 80bf a134 32e9 c3fe 92bf
000006e0: 38b3 2980 236d 76bf c62e 6375 f68c 97bf
000006f0: 5c5c e7fc 406c 72bf 1c9b 73ee da8b 5dbf
00000700: 704f aafb 25f8 7abf 587a e04c 97b1 98bf
00000710: 5534 995c 2527 463f 7301 677d c6a5 81bf
00000720: 9fa0 6d48 2d2e 6bbf f68c d389 6396 90bf
00000730: e420 2983 3cf2 64bf 6c3c e8fb ad4f 663f
00000740: 6023 f278 527b 97bf e807 0ae0 e29a 99bf
00000750: 2c1f e409 77fa 8abf b6f1 7867 d941 61bf
00000760: 0b5c 7a67 6df7 12bf 3ec4 cae7 b7ba 76bf
00000770: f6ed 551b d3ed 76bf abfd 4a2e 0407 453f
00000780: 0105 8ec8 0393 83bf b842 8cf5 fe00 62bf
00000790: 5049 a068 6339 90bf 0ac1 8cba 2e0e 89bf
000007a0: cc6a afc0 6f0b 87bf 1ed0 04c3 7f43 92bf
000007b0: c08e 01c2 37e8 633f bf91 ec8c 78a9 6c3f
000007c0: 335f c680 1da7 8b3f 88e1 d438 d01e 743f
000007d0: 31d6 ac54 1217 8cbf 8a1b 6a1d 9887 76bf
000007e0: b7d7 65ba 0855 643f 769e 7954 2201 603f
000007f0: e0f0 5f54 d75f 703f e635 7dc2 5e1c 27bf

linear1.bias f8 [12]
-0.013352770624232497 -0.002523090288050797 0.0014475451763502776 -0.0012672530436924642 -0.014028346824883789 -0.018695962609966713 0.005427257425067728 -0.007294805496944474
-0.012384283551039061 -0.004483360176409573 0.010534384192838833 0.004611631303719536
00000000: 97f4 2289 b258 8bbf 607f b4c8 4dab 64bf
00000010: 4734 48cc 71b7 573f 09f6 3798 3ec3 54bf
00000020: 5b79 a3d6 e4ba 8cbf b47e e8cf 0825 93bf
00000030: c7ba 5c52 e43a 763f 6113 a470 28e1 7dbf
00000040: 0a57 b066 ee5c 89bf e085 57d5 245d 72bf
00000050: 4ee3 bb1c 0d93 853f 6b49 175a a5e3 723f
