saved_models/decoder_epoch18.pt (torch_old, 480736 bytes, 2 tensors)

linear1.weight f8 [12, 5000]
00000000: 8e41 a214 e6af 8ebf 696f bea9 7b42 5abf
00000010: 9d9d fd71 7b56 87bf a2a2 a874 5531 83bf
00000020: 4f74 825d 6668 7fbf 3b0b fdcc 8c0a 80bf
00000030: 1d94 53dd 599b 60bf 70a1 0ef3 c4a1 8dbf
00000040: 14cc 5604 d94f 6cbf 6797 ab8b b4ee 87bf
00000050: 1c1f 565a e160 84bf b8c7 3329 1b66 83bf
00000060: cef9 4b1f 6328 91bf 6b43 8c3e a06d 643f
00000070: 4f64 168e 110e 613f 1686 d579 c3f9 883f
00000080: 0378 4bea fc63 8bbf cd4e f6d2 258a 51bf
00000090: d61b c4b3 73e8 6fbf e31e 539b ffe5 6e3f
000000a0: 60fc 78a0 4c07 3cbf 6924 aade 0082 85bf
000000b0: 9363 ca7c ec7b 5abf 1093 2856 a20f 81bf
000000c0: 3b86 e784 57a3 84bf c3a4 67f2 6cdb 84bf
000000d0: 59e1 8e11 d013 7bbf 3fe5 d7b2 ec40 8b3f
000000e0: d060 713d cd08 613f e6ce 48b4 3099 82bf
000000f0: 18d0 9a6a 7f60 803f f6a2 96b0 a645 7bbf
00000100: 0e07 7d3f cb79 813f 7bdf 0c90 c6ca 7cbf
00000110: 73c4 1ae0 5b6b 72bf 2493 5410 146d 7d3f
00000120: 80da 2e45 a035 81bf 7ad3 ab29 3774 86bf
00000130: d587 b267 b796 6cbf 98e7 b5d4 9e0c 67bf
00000140: 0c11 625c fb35 8fbf fec3 e8d3 a664 78bf
00000150: f383 8353 f2e0 83bf 7022 58fe 2c56 92bf
00000160: db97 485c 6aa1 703f 7fb5 b678 5780 71bf
00000170: fb65 3293 4bff 783f 31ed 9f11 40ac 00bf
00000180: 2cae b6f2 b355 74bf 1d5e acbb 3a6f 7bbf
00000190: 0a21 a5b9 0912 8dbf 5dc9 afdf 6cd4 80bf
000001a0: 57d1 8614 03e6 92bf f139 df4a ca26 88bf
000001b0: ab0d 6bb9 4ee4 8bbf 999f 6521 3464 6e3f
000001c0: 2df6 f1d7 e6a9 93bf 7340 6f54 d864 473f
000001d0: 2777 95b7 53e9 80bf e28e 45c7 fac8 863f
000001e0: 9999 f7c8 bf59 85bf 71d5 3b27 26b3 8ebf
000001f0: 47b4 1991 49ca 833f 71c1 5fae 0b58 853f
00000200: 85bd 20ca c7d7 673f 5b53 2b7d 43e8 81bf
00000210: aef8 ca7b 0032 833f 2e5a c51a 14f1 67bf
00000220: 347d cf7f 4bcb 3cbf 5cbf a465 d7c9 82bf
00000230: 5e48 fade 0c25 743f 89dd 893f 91e3 7abf
00000240: 6f4a 77b4 dca4 7a3f d64d 154a 293f 5bbf
00000250: f7b7 af03 cb1a 62bf a21a 70af 07ac 8dbf
00000260: 219a 174b bbb1 8b3f 01c5 67e9 7318 81bf
00000270: e996 e17d 3cd5 38bf 719d 1d1a 8cf6 77bf
00000280: 55ee 3333 ce68 533f 7235 1eb5 2e17 82bf
00000290: edc1 3c07 164b 89bf b401 491f a8a4 863f
000002a0: 0d5f 6f87 2491 7c3f 1269 2cdc c5ba 8dbf
000002b0: 9385 9726 7b3c 823f 1de1 4cff 629b 88bf
000002c0: 7382 14e9 cf2a 543f a714 0653 755b 70bf
000002d0: 23a3 0709 7af6 623f e893 c497 b455 81bf
000002e0: 20ec aafc 59e3 82bf 3e45 9ade b48a 77bf
000002f0: 4593 5497 8125 663f f233 1377 a8fe 803f
00000300: e235 b01d 4346 803f f682 96f8 93bd 8abf
00000310: f9a2 f247 a0b7 85bf eee5 107d e66d 713f
00000320: dab5 a958 c09a 763f 1072 e131 1556 5abf
00000330: be00 aae6 140a 77bf 534e 0107 211e 80bf
00000340: f381 5718 dff5 8cbf 0542 df13 9977 7e3f
00000350: c5d5 0ba9 d2fa 823f ff55 9410 ff39 6d3f
00000360: fba8 db12 6de0 71bf 60a4 28e7 df63 88bf
00000370: ccb4 28a9 4f1d 783f da35 5f76 380b 7dbf
00000380: 6e03 7271 02f2 90bf 3407 856b aac5 88bf
00000390: 6a2c 5b87 770b 93bf 247f ea3e 0e02 223f
000003a0: 5312 efe4 1c02 813f 1b6c 12c3 ea67 80bf
000003b0: e4d4 8071 8672 613f 6c2f 84e0 9f70 70bf
000003c0: 4e70 b0cf 4738 85bf aa64 be58 a8a1 44bf
000003d0: 0226 ee98 dbee 91bf 23e0 6a86 aef7 80bf
000003e0: 8f7e 7ea5 7c10 85bf d6bc 41cf 8b64 723f
000003f0: 64c0 3d37 1bed 91bf 326d f05e 137c 92bf
00000400: 6f14 134f 4502 84bf f060 a664 1069 7bbf
00000410: 30d7 caf2 d968 813f b959 fc17 db50 61bf
00000420: acba c58d 2e57 87bf c636 333e 9c7d 813f
00000430: b348 945f 62f5 8abf 7639 2103 1120 743f
00000440: f91b a39e 3154 863f 421d 7aa1 1a86 89bf
00000450: a51e b732 a5aa 843f aee1 a840 0783 7e3f
00000460: a2a6 aaa7 d117 32bf b50f 39cb 9181 88bf
00000470: 0785 46ef 6014 7dbf 9672 7dfd db15 823f
00000480: 838f f645 46d6 8b3f d36a 937a 9322 7f3f
00000490: d153 d1ee 6200 813f 8a90 5536 e672 823f
000004a0: f260 d085 818c 6fbf 893d 4e2f 0358 91bf
000004b0: 9dd2 77d9 626b 7b3f a7ea 194d e277 90bf
000004c0: 3b95 a3f0 aa1f 60bf 4a29 dd30 713c 62bf
000004d0: 8c69 5aba 73e4 89bf 957e b1f2 1015 8bbf
000004e0: 6ec7 ec68 e168 82bf 1bbb 13ec df75 71bf
000004f0: 48ca 8f6d deae 8dbf d9de 4e46 c633 5dbf
00000500: e107 94e1 3639 5bbf 43de 4774 97a8 8ebf
00000510: 0ce8 0cee 26e9 6f3f a34c de85 7a63 82bf
00000520: baf2 e9ef 8fe8 82bf c594 8743 47a9 50bf
00000530: 520b 7dea 7240 91bf c7df 21ff 7f31 7f3f
00000540: 5e0a f6e9 3434 85bf d82d 7907 df8a 7ebf
00000550: c8cc be00 24ea 88bf b215 f82f d378 863f
00000560: 8bb8 712b e4d8 8dbf 356c 946a 9965 7d3f
00000570: 52d0 b376 1d8c 86bf f5cd 693f a4f2 7fbf
00000580: aa25 816f a028 6abf 4ab7 2bf9 3dcf 7cbf
00000590: 65c0 0163 87c7 84bf b2e5 4941 01d7 71bf
000005a0: 52f9 f4f1 abbf 90bf 6691 5a60 6ae4 78bf
000005b0: d1a8 7eb5 eea9 80bf 9bdc cbdc 6027 7cbf
000005c0: 5351 0e35 19c4 4abf c634 6bad 9f9a 8fbf
000005d0: 721f 1f64 ec82 5ebf 34dd 59cc 9fa1 8bbf
000005e0: 9c26 191b 2251 86bf ba49 6844 2826 7f3f
000005f0: f1d2 1ab3 f0c8 89bf 54a6 d0b6 5ac9 80bf
00000600: e3ed 7305 7532 4c3f 593f 7189 581b 8bbf
00000610: dd46 5e7d 22a9 90bf 0ebf ab61 6e77 3abf
00000620: cd68 9050 f6d0 7c3f c39c 3d8c a738 7e3f
00000630: 5037 b923 53c1 6ebf 12d9 6b9a ea16 54bf
00000640: eadc 27f7 acf0 e3be c83e 56bb cc0c 89bf
00000650: 56da bca6 5dbe 82bf b42a 0a6b 0723 81bf
00000660: f945 475c c459 53bf 6b49 a1e4 2754 92bf
00000670: 45c1 eac9 2a95 7d3f 57bb bc69 54bb 703f
00000680: 7054 4b17 3f81 6a3f edf9 0584 5444 92bf
00000690: 26cf ab51 d6cf 93bf ea57 f8f3 7957 92bf
000006a0: 839b e7d2 525e 5fbf efd7 001d c766 88bf
000006b0: 4d58 4927 ebfc 85bf 90c1 9829 8297 533f
000006c0: 58d1 40bf 089c 92bf 3914 f865 7658 8dbf
000006d0: 3de2 4d42 08a5 80bf c588 80ee c3fe 92bf
000006e0: 8535 0681 236d 76bf af9d 6b7b f68c 97bf
000006f0: 38de b8fe 406c 72bf 7f26 39e0 da8b 5dbf
00000700: f4db e5fa 25f8 7abf ed00 8952 97b1 98bf
00000710: 7e9d b2c8 2527 463f 6844 ab7d c6a5 81bf
00000720: bbbe 5546 2d2e 6bbf 3b57 358e 6396 90bf
00000730: dad7 b67e 3cf2 64bf 70c7 f912 ae4f 663f
00000740: b6df ab7d 527b 97bf 08f1 8ee5 e29a 99bf
00000750: 0105 300d 77fa 8abf db96 c15c d941 61bf
00000760: e358 3022 6cf7 12bf 3a5b 5cec b7ba 76bf
00000770: 722b ed21 d3ed 76bf 8279 c84d 0407 453f
00000780: 40c7 0ecc 0393 83bf eed0 8bf3 fe00 62bf
00000790: 0d3d 1d6e 6339 90bf 815d 05c3 2e0e 89bf
000007a0: cb47 b3c7 6f0b 87bf 318a 62c9 7f43 92bf
000007b0: 12cc 66ba 37e8 633f 5814 d580 78a9 6c3f
000007c0: 84e9 8583 1da7 8b3f fc68 ba35 d01e 743f
000007d0: 09bb 7361 1217 8cbf a659 9b2b 9887 76bf
000007e0: 6e3e 29b2 0855 643f f55c 8e47 2201 603f
000007f0: 31d9 4e4e d75f 703f 7c74 096c 601c 27bf
-0.014983937744802469 -0.0016027648589220461 -0.011395420471400903 -0.009371440527574496 -0.0076679228442602795 -0.007832622533560865 -0.0020272021453018444 -0.014468706767573919
-0.0034560431110661847 -0.01168576289405694 -0.009950409478519932 -0.009472095675366762 -0.016755627427295576 0.002493679978563914 0.002081903731504776 0.01219513621862504
-0.013374305629834998 -0.0010705346465770705 -0.003895021420365445 0.0037717811888774307 -0.00042768116734132576 -0.010501868052658918 -0.0016164597938425937 -0.00833060098109109
-0.01007717489568726 -0.010184146068200289 -0.00661069180289816 0.013307427604547171 0.0020793922990770333 -0.00908124971565578 0.007996554795092023 -0.0066582213707213535
0.008533084750186794 -0.0070293194156006945 -0.004496916664423189 0.007184103368932413 -0.0084030648339255 -0.010963850936130493 -0.003489835942290557 -0.0028136350790050717
-0.015239681011970173 -0.005955363913515475 -0.009706395314823956 -0.01790685942072162 0.004060187788615689 -0.004272786794371596 0.006102843489452332 -3.1800942636518017e-05
-0.004964545175805617 -0.006697873521964518 -0.014194560983597632 -0.00821766908299953 -0.018455551269384553 -0.011792736444388803 -0.013619055779947006 0.0037098901913629853
-0.01920281117462801 0.0007139259622537378 -0.008257535972628084 0.011125525671281836 -0.010425089188129276 -0.014990137169187819 0.009663176289189347 0.01042183996102672
0.0029105093135723425 -0.008743788964616852 0.009372714784486948 -0.0029225723903139244 -0.00043936341518065474 -0.00917404440824015 0.004918146397942717 -0.006564681411524894
0.006504881027881922 -0.0016630080429721381 -0.0022100415349006713 -0.014488277474823012 0.013522589902049966 -0.008347421226945874 -0.00037892081116407003 -0.005850360177510936
0.0011846555397018361 -0.008833279516489798 -0.012350246520868214 0.011056245283840173 0.006974356357168932 -0.014516397267972301 0.00890442096255376 -0.012015126625201373
0.0012309103370357316 -0.003993471429912499 0.0023147948743268572 -0.008464251405323212 -0.009222701094918462 -0.005747515222212228 0.00270343123215114 0.0082982217158136
0.007946514457240764 -0.013056903861810448 -0.010604145236656747 0.00425519976220688 0.005518676140679324 -0.001607437799541537 -0.00562484898057408 -0.007869966532019356
-0.014140837602952571 0.0074382762522451394 0.009267469200021314 0.0035676938756619143 -0.004364420002938236 -0.011909245721726858 0.005887328314696915 -0.007090778881275262
-0.016548193143992966 -0.012095767408598947 -0.01859843028686862 0.00013739036463266644 0.008304811226374975 -0.008010706022380678 0.002129805168829978 -0.004013657111737828
-0.010361252809211543 -0.0006296226506378362 -0.017512732705233354 -0.008284915425392175 -0.010285352516631789 0.004490419512975316 -0.01750605129876738 -0.018051436109186976
-0.009769956088698543 -0.0066919937475164865 0.008500769349989307 -0.0021137503789631887 -0.011396754933881446 0.008540363929934524 -0.013163345853659391 0.004913393453604411
0.010902774480554088 -0.012462814381491886 0.01009110508938644 0.007449177103403688 -0.00027607792405124666 -0.011965884222384074 -0.007099512721113094 0.008830755875970635
0.013592289934258655 0.007601333703145047 0.008301518357407918 0.009008215459012332 -0.0038511781444975296 -0.016937303316408445 0.006694208269881455 -0.01608232112492183
-0.0019682253524588 -0.002226086688925798 -0.012642768978641049 -0.013223774343884368 -0.008989106192163834 -0.004262804695129653 -0.01449369212966646 -0.0017823635364332872
-0.0016615901898266938 -0.014970000492197438 0.003895355257921734 -0.008978802881563224 -0.009232639798250165 -0.0010169216094422656 -0.016847415506400516 0.0076155662410357155
-0.010353482618261352 -0.007456656654152259 -0.012165337822671055 0.010972642804527453 -0.014573843551456874 0.007176970751312563 -0.011009435830125511 -0.00779976042996421
-0.003193200445853879 -0.007033578952116157 -0.010146196087788615 -0.004355435278392704 -0.01635616936004542 -0.0060772090270443165 -0.008136620439320204 -0.006873491639218045
-0.0008168337900423074 -0.015431640128918633 -0.0018622692591509751 -0.013491867469595499 -0.010896936847660847 0.007604749006093698 -0.012590294328540948 -0.008196552948066906
0.0008605071442668279 -0.013235751814277984 -0.016270197774764895 -0.00040384716855522494 0.007035219351587863 0.007378248675968982 -0.003754293806003263 -0.001226166825004042
-9.50819933097235e-06 -0.012231444804256766 -0.00915215649693583 -0.008367593721478307 -0.001181070097221569 -0.01789915402361812 0.007222334998616302 0.004084901560232299
0.0032354576345406325 -0.01783878379637287 -0.019347523436365276 -0.017911820903542187 -0.001914578325903555 -0.01191478307019264 -0.010736310135296767 0.0011957903974569618
-0.018173348115128135 -0.01432888506588813 -0.008127274058766005 -0.018549977714550154 -0.005475176513198736 -0.022998667986852513 -0.004497770201445976 -0.0018033635577857918
-0.0065843089672545825 -0.024114956295535107 0.0006760534755771289 -0.008616972646821888 -0.0033179172775631128 -0.01619868808241807 -0.002556913522961485 0.0027235412488203978
-0.02293137447392698 -0.02500490690339155 -0.013173036661103145 -0.002106594596670825 -7.235143179715494e-05 -0.005549162340478026 -0.005597901092935996 0.0006417056097836468
-0.009557752289626742 -0.0021977405088994184 -0.015843919368589577 -0.01223408253342373 -0.011252282411451283 -0.017835613886413696 0.0024300659599361197 0.003498778684532893
0.01350234086634284 0.004912198371721962 -0.013715880965234033 -0.005500406661403201 0.002481953605901136 0.0019536656877324706 0.003997651137004164 -0.00017632176424601023

linear1.bias f8 [12]
00000000: 69a0 a91c 815d 8bbf 1deb 5bf5 5fb3 64bf
00000010: 6cc4 8ece 9c34 583f 1874 ab82 4d16 55bf
00000020: 2f19 3fca 06cc 8cbf d861 5bf0 ea25 93bf
00000030: ecba 14fd 0842 763f b5b8 a8ae 8d09 7ebf
00000040: 0673 dda9 3152 89bf 1eb5 2612 f625 72bf
00000050: 1baa 9a37 4c87 853f 30ce c3d3 aaf8 723f
-0.01336193913194013 -0.00252693883782963 0.0014773875538874005 -0.0012870556772022253 -0.014061024710724538 -0.018699332161164012 0.005434069740018126 -0.007333329626403697
-0.012363803860063093 -0.004430733885255193 0.010511966177849044 0.004631678861403851
