saved_models/decoder_epoch10.pt (torch_old, 480736 bytes, 2 tensors)

linear1.weight f8 [12, 5000]
000000 ae b7 bf 5a 70 e2 7c bf 24 24 a3 84 64 05 7a 3f
       -0.007051886448591489 0.00635279908073819
000010 28 2e a8 bb 5a b1 74 3f c3 5a d9 ce 8a 6f 38 bf
       0.005051950860898859 -0.0003728593718269996
000020 08 28 a8 e9 3d 91 7f 3f 54 69 3d 86 e6 b5 41 bf
       0.007706872793741944 -0.0005404830558107068
000030 56 81 75 b4 07 e8 8a 3f 33 bb ea f3 8d 74 85 bf
       0.013137874788924957 -0.01047621632218707
000040 69 cc 8d 3f 9a ac 6a bf ff fa 20 09 aa f1 60 3f
       -0.003256131425979404 0.0020683594712233018
000050 43 f3 d9 bb e4 7e 89 3f 6b 18 72 21 71 e9 80 3f
       0.012449061377304843 0.008257755120450313
000060 4a a2 00 0f 05 15 73 3f e2 70 63 5f 38 86 83 3f
       0.004658717880410787 0.009533348475479323
000070 95 a4 81 f5 43 e4 85 bf e8 98 90 bc 4c 82 54 bf
       -0.010689288072358397 -0.0012517690067937407
000080 02 31 0e 9e 4f d6 3a bf 36 34 4f 22 73 13 82 3f
       -0.00040950244697836324 0.008826159939326766
000090 e7 8f 48 17 aa 96 63 bf 66 88 c5 95 2c ee 86 bf
       -0.0023911783303152026 -0.011196468659083258
0000a0 9b 7b 16 05 2d 61 84 bf 7b 1e e4 7e 0a 0e 86 3f
       -0.009950973241584829 0.010768968579682117
0000b0 a8 2d ed 5c 73 c7 88 bf 5e 86 55 45 6a 46 80 bf
       -0.012099171899214792 -0.007946806183727503
0000c0 73 0c 4b 57 8c d5 89 3f 68 51 fa d3 e1 d2 6a 3f
       0.012614342130637923 0.003274384565722755
0000d0 1c b8 34 12 dc c4 87 3f 4a 8c 7c 4c 89 9a 71 3f
       0.011605948739624998 0.0042977679475227435
0000e0 c2 b4 ee 2d d5 29 82 bf be c5 23 98 b6 09 5b bf
       -0.008868852104422568 -0.0016502650401516296
0000f0 f6 71 2b d8 c4 01 88 bf 3c fc 57 fa b0 e7 87 3f
       -0.011722123953796331 0.01167238487232513
000100 6e 43 c1 a0 d0 14 47 3f cd 9a a8 01 a6 4b 73 bf
       0.0007043856326252992 -0.004710815871055996
000110 3b da f7 32 8c 5d 82 bf 54 c1 61 7a 01 2b 71 bf
       -0.008967490487504217 -0.004191404126786164
000120 9a d9 d3 dd e1 46 66 bf b4 86 55 40 fd bc 7f bf
       -0.0027193461852405678 -0.007748593581114061
000130 5d fd bf 02 d0 a5 8b 3f 4e 34 57 e5 c4 ec 53 bf
       0.013499856075212585 -0.001216118126978988
000140 fe e4 1c ba d0 a7 7c 3f 1f 3f 1e 1d 91 93 85 3f
       0.0069959786795206185 0.010535367680659711
000150 3e 67 86 21 43 75 8b 3f cd fa ec f3 e1 a7 6e 3f
       0.013407253704645346 0.003742162050371567
000160 ed 38 db 97 dd 62 8c 3f 1b c8 ea 95 14 f3 85 bf
       0.013860446163928642 -0.010717545342547699
000170 75 9b 60 38 e1 38 60 3f 23 cd 9a 7e fd 4b 87 3f
       0.0019802473862173217 0.011375408579033469
000180 8a ae a0 a4 e4 2a 7c bf 44 08 06 18 2e 02 41 3f
       -0.006876843583124912 0.0005190587108219254
000190 00 56 cb 11 2f a5 86 3f 5b 35 32 58 8f 55 e4 3e
       0.011057250719583855 9.696110970370644e-06
0001a0 9a b1 09 06 98 1d 84 3f 5b 13 08 7f 13 10 83 3f
       0.00982207077432733 0.0093080065862609
0001b0 85 fa 5b 07 3e 2d 60 bf 71 f7 ad 72 86 68 86 3f
       -0.001974698209664285 0.010941553473226869
0001c0 af b9 cb 37 60 db 88 3f b4 55 b0 e0 d5 0c 84 3f
       0.012137176230194805 0.00979010669656586
0001d0 56 46 b3 9b a9 35 75 bf dd 65 7c 51 3e 78 7f 3f
       -0.005178129703567421 0.00768303244674359
0001e0 7b b7 7c bb 34 3b 71 bf 92 10 37 7d 38 87 7d bf
       -0.004206853853060961 -0.0072090345960910285
0001f0 7c 9b 11 72 b8 55 85 bf 46 a2 69 c5 cd e1 61 3f
       -0.010417405110457294 0.002182866951717241
000200 c5 76 74 eb d7 ec 88 3f 15 59 1c 94 de 21 85 bf
       0.012170493004812663 -0.010318507094365029
000210 1d d0 ca 15 3b 25 82 bf cc 83 1d 14 44 ae 81 bf
       -0.008860074617906883 -0.008633167137022023
000220 06 fe ea 2f ed f4 5b 3f 2c 01 76 7e 71 cc 7c bf
       0.0017063442498254102 -0.007030909858599704
000230 ad db 52 c7 b0 55 85 3f db fb 80 a4 d2 67 75 bf
       0.010417347987056258 -0.005225966284398499
000240 eb ba b8 3f 24 b6 8a bf 8b 52 c5 62 a6 65 8b 3f
       -0.01304272002661607 0.0133774756329015
000250 df 4b 84 e7 5e 14 81 bf 62 30 f5 88 31 2d 6e bf
       -0.008339635315257552 -0.003683659313230379
000260 d1 6a 49 22 5c 90 56 bf 16 c6 a7 28 60 96 59 3f
       -0.001377191519302091 0.0015617312479857585
000270 f5 42 8d ed ed fa 88 bf 61 b1 ee cb b9 69 4e bf
       -0.012197359859471993 -0.0009281308374418478
000280 ba 5b ee 5a 74 fd 81 3f ea 2c fa fc 46 7a 87 3f
       0.008784207367893749 0.01146369418645184
000290 68 5d 21 7f 7e 6f 7a bf 44 be eb 39 27 fb 3d 3f
       -0.006453985335688507 0.00045747478172495173
0002a0 54 42 3c 6b f9 88 87 bf 5e 75 14 77 8f eb 58 bf
       -0.011491726479591659 -0.0015210057284272475
0002b0 42 06 b8 54 97 6c 64 3f 73 37 11 39 fe 46 8b 3f
       0.0024931865389142003 0.01331900226264413
0002c0 06 ec 33 9d 1b 3f 5d bf d1 eb a4 45 99 29 85 bf
       -0.0017850656193434413 -0.010333249509690308
0002d0 e0 0f b5 2b ec 4d 80 bf 63 d5 5e 89 67 2d 8b 3f
       -0.007961125453796514 0.013270195846284144
0002e0 bc 5f 90 0d 50 30 5c 3f 14 c6 e0 59 c3 60 62 3f
       0.0017205030219482461 0.0022434058619402817
0002f0 7d 55 a5 d5 b2 d6 62 bf 3f cd 0b 53 59 1b 82 bf
       -0.002299641882170077 -0.008841226431718694
000300 7f fb 2a a6 d8 ce 81 3f 1f ca 27 80 60 2e 88 bf
       0.0086953092298907 -0.011807207022660525
000310 09 90 38 24 31 83 80 3f 7f 6b a7 eb be 64 80 bf
       0.00806272880351601 -0.008004657332028263
000320 a6 36 a2 01 30 2c 78 bf 7e 14 7b c4 d5 17 7d 3f
       -0.005901515507628885 0.007102808980282592
000330 3c 12 07 0c 83 41 78 bf be 0b f6 2a fb df 37 3f
       -0.00592185201862044 0.0003643024637868772
000340 12 69 67 7f 1d 00 6c bf e8 d8 d7 1b f1 7f 76 bf
       -0.003418023693695046 -0.005493108588316732
000350 db 88 f9 49 e0 1e 83 bf 12 ed 78 39 51 8b 74 bf
       -0.009336235291986508 -0.005015675814827663
000360 a9 03 ad 5b dd bd 6e 3f 07 71 f0 3c 37 53 8a 3f
       0.0037526439095078756 0.012854033992021131
000370 1d d7 8d 66 6f c0 8c bf 3a b6 f4 04 4c bf 88 3f
       -0.014038915936662339 0.012083619977228389
000380 0d b8 93 45 b1 76 84 3f 68 53 12 e7 9d 38 88 bf
       0.009992012916395532 -0.011826737989659455
000390 5b 32 31 39 8a 95 85 3f b7 fe 43 96 9f 68 81 bf
       0.010539131040922791 -0.008500334523432114
0003a0 e2 34 f3 3e 6d 69 89 3f d7 3b ce 83 f3 e7 8c 3f
       0.012408116801817252 0.014114286861312593
0003b0 00 ac de 62 a7 0d 84 3f 23 f4 fb a3 ff f4 78 3f
       0.009791667656676495 0.006093023868513322
0003c0 d8 b9 34 52 4f f8 5b 3f 16 a6 45 79 e7 20 86 3f
       0.0017071508999141252 0.010804947269849523
0003d0 95 2d 3c 36 dc 4d ef 3e 32 45 74 66 c1 9e 7f 3f
       1.4926977832916194e-05 0.007719760388924345
0003e0 df 7f a4 c4 c0 44 79 3f 81 7f f9 31 06 8e 89 bf
       0.006169083595779028 -0.012477920913795295
0003f0 36 b5 2c 5b 22 90 89 3f e4 e9 32 a4 ff ca 6f bf
       0.012481945426396562 -0.0038809769626741864
000400 02 9e 4e 83 56 66 84 bf 72 7f f0 fc 06 cf 70 bf
       -0.009960819132017743 -0.004103686615991241
000410 83 c1 0d 72 58 9b 55 3f bf 65 0f d1 f2 02 89 bf
       0.0013187755323223755 -0.012212655072221133
000420 2f f9 7a c2 d2 06 88 3f e7 73 61 53 3c 47 7d 3f
       0.011731764373845792 0.0071480137322312625
000430 ea 9f a0 9a 4f eb 85 3f 26 b3 4d 2f 30 91 81 bf
       0.010702726274828895 -0.00857770580633994
000440 8f 2e 4b 76 fc e7 88 3f 70 08 50 41 c0 24 81 3f
       0.012161228523289295 0.008370878213103533
000450 1d f9 48 06 da 23 63 3f 96 10 14 04 2d 9a 85 bf
       0.0023364313404094076 -0.01054797333427641
000460 fb f8 bd 6b e7 76 8a bf 2d f8 3c d6 d0 4e 8a bf
       -0.012922103858497005 -0.012845641649274675
000470 a4 b4 7f e6 b1 24 54 3f 37 e8 b9 48 7c 47 87 3f
       0.001229451876493295 0.011366816491534688
000480 5f b9 90 e2 8c 0d 7c bf ab 04 2f d0 d6 85 60 3f
       -0.0068488601037145205 0.0020169444628384734
000490 59 67 84 f3 4f e0 74 bf 21 0d 95 10 58 6f 79 3f
       -0.005096733388450258 0.006209701540970587
0004a0 51 7f 76 f4 9e b7 62 bf e0 b7 69 90 0c 37 88 bf
       -0.002284822901586305 -0.011823747784742211
0004b0 6e 3d 6a 2e 61 32 80 3f ee c0 41 88 e6 74 65 bf
       0.007908591488812813 -0.0026192190726349518
0004c0 b0 52 28 e2 bf 2c 68 3f 6d 32 55 92 6a 21 87 3f
       0.00295102574569691 0.011294205275271108
0004d0 a0 33 a1 4b 69 00 88 bf 25 36 c3 3e 8f d8 70 bf
       -0.011719534512076468 -0.004112777282171663
0004e0 87 06 18 fc 09 e8 44 bf 69 4d bd 8a 2e 42 88 bf
       -0.0006380127671834081 -0.011844981774322876
0004f0 49 ef f4 b8 00 66 88 bf fc fe 4c bf a7 30 80 bf
       -0.011913304943497531 -0.007905302548919739
000500 8d 77 1e c1 99 d7 6a 3f 9c dc 65 c4 30 54 30 bf
       0.003276634503847248 -0.0002491587696548754
000510 26 18 4d 58 18 31 88 3f a4 bd 13 42 8d 94 5f bf
       0.01181239146684383 -0.0019275073503271867
000520 43 6e f6 e4 45 eb 80 bf f6 e6 7c e6 01 e6 7d 3f
       -0.008261247682461397 0.007299430297104106
000530 07 6f d7 a2 d6 8a 85 bf 3c af 3d 04 98 20 69 bf
       -0.010518719524888377 -0.0030672997544821928
000540 25 52 a3 b0 70 66 63 3f 24 0c b3 05 a0 e7 5d 3f
       0.0023681832291038312 0.0018252432553687104
000550 9d b1 be 93 73 e9 8a 3f d4 33 1f 5b d0 93 69 bf
       0.013140585848156411 -0.0031222409679458694
000560 0f ab fc cf 02 74 70 bf 7a 16 1e 62 b7 b5 7a bf
       -0.004016886697892698 -0.0065209544571921355
000570 50 d1 67 0b 90 ba 7b bf 3d 97 30 67 c5 88 8a bf
       -0.006769716905626957 -0.012956182681658763
000580 12 66 eb d8 26 d0 6e bf a1 d8 50 b4 b8 1a 8a 3f
       -0.0037613638627191992 0.01274627971916359
000590 ae b8 85 a4 89 75 71 bf dc 0e e1 1c bc 81 64 bf
       -0.0042624832789057 -0.002503268630819606
0005a0 89 14 77 16 95 c4 8a 3f 79 d0 43 60 03 a2 7b 3f
       0.013070263622362315 0.006746304690967369
0005b0 f4 c1 5d ea 00 d9 37 3f fb 72 c0 70 72 41 66 3f
       0.000363886569508614 0.002716754452207202
0005c0 48 fd 0c a6 f9 5b 6b bf e3 40 fa 76 0b 84 83 3f
       -0.0033397556257167872 0.009529199188620335
0005d0 2a 52 e0 c8 36 87 75 bf 5a 91 a7 15 4e f0 6e 3f
       -0.005255903246525176 0.0037766957368480627
0005e0 46 b3 4b 0a 77 1d 83 bf 53 8c 55 4b db fd 61 bf
       -0.009333543779087027 -0.0021962435809413177
0005f0 9e 70 d6 3c 8b b2 71 3f d1 c1 b2 0a c9 f1 80 bf
       0.00432066335397621 -0.008273668898568428
000600 04 f5 87 2b aa e7 66 3f 4b cb c9 9e b8 3b 7a bf
       0.0027960132249506015 -0.006404610798756159
000610 b5 99 59 12 14 8d 8c 3f eb 30 36 78 be 4d 87 3f
       0.013940960702893837 0.011378753703660446
000620 1e 0b 45 ea 01 97 80 3f a3 1a 4f 79 a7 50 83 bf
       0.00810052391228094 -0.00943117941814126
000630 2c 9a 55 99 54 65 8a bf d1 6a e5 3b ef 93 6d bf
       -0.012888585023302111 -0.0036105797327484553
000640 fd ac 82 c7 f2 58 86 bf df 3c e9 94 7c 09 7d 3f
       -0.010911843026710328 0.007089125296786152
000650 dd 76 55 31 f8 f6 77 3f 75 17 7d a3 d3 66 86 3f
       0.005850762846731886 0.010938313891198462
000660 41 76 ad 85 17 0c 5b 3f 2b c0 bd 60 e5 0b 79 bf
       0.0016508321484346585 -0.0061148605417287545
000670 86 f3 8a 26 9a 01 65 3f 92 1e 45 21 21 a2 76 3f
       0.0025642405274468065 0.005525712407979848
000680 52 98 e3 74 64 86 63 3f 6e 5c 87 64 5b 9b 83 bf
       0.002383419231693864 -0.009573663716692073
000690 4f cb 34 61 3d 6d 8c bf 2e 43 bd c9 35 70 7e bf
       -0.013880233315466532 -0.0074312306495166024
0006a0 6e 03 71 fb fa c5 81 bf 51 ea b2 31 70 16 88 3f
       -0.008678398893722874 0.011761547581376737
0006b0 c4 fd 04 ab b8 91 67 3f f6 f2 9f c3 58 81 78 bf
       0.002877102546477524 -0.005982729659078192
0006c0 51 0a 83 c2 9a 8a 85 3f 1c d8 92 bc dd 0d 7f 3f
       0.010518273411780717 0.007581583174376429
0006d0 c2 a7 de 96 71 bc 88 bf fa 64 bd 41 73 a7 70 bf
       -0.012078177849463748 -0.004065942975864484
0006e0 1a 94 8b 63 18 aa 66 3f 78 2f 18 6b e0 ad 82 bf
       0.002766654619664977 -0.009120705860389697
0006f0 b2 49 a2 0e 71 ca 87 bf 70 2c 22 3f 3a ae 87 bf
       -0.011616595515339199 -0.011562781383210402
000700 24 0c ed 8c 25 bf 83 3f c8 06 52 6e a5 fe 8b 3f
       0.00964192711183471 0.01366929285927955
000710 f5 e9 5d 15 f3 a9 6c bf f1 10 45 0d f8 4f 7f bf
       -0.0034990070079718946 -0.007644623711090968
000720 b2 e4 60 0d c1 5a 66 bf da ed 5f cb a4 50 87 3f
       -0.002728821807093406 0.011384284454826355
000730 04 10 88 a6 d7 d6 84 3f 1f 3d 8b 92 ad 26 4f bf
       0.010175404328954592 -0.0009506557008424377
000740 d7 77 25 66 18 5f 6b bf bc 72 55 f3 12 15 80 3f
       -0.003341243414225463 0.007852695513684942
000750 55 6b 6b 35 26 5d 79 bf 23 06 79 6b f0 68 8b bf
       -0.006192349674814708 -0.013383749275024453
000760 01 1b 57 0e 09 76 85 bf 1d e0 dc 65 68 ee 7e bf
       -0.01047904086125362 -0.007551582149794481
000770 c7 e4 d8 5d 08 b8 85 3f 71 2b c3 30 1d a7 87 3f
       0.010604920734396462 0.011549213457689085
000780 d4 09 15 8f 75 1c 5e bf a8 26 c2 40 d8 7b 7a 3f
       -0.0018378398929860167 0.006465763795981218
000790 8e 28 e0 74 e4 f8 74 3f 84 b7 7b 1d 77 28 79 3f
       0.005120174797420897 0.006142106336239798
0007a0 ed fd 57 3a 00 ed 7e bf 20 9f 9d 10 40 55 76 3f
       -0.007550240412001125 0.005452394727264026
0007b0 da 3c 00 06 a9 14 6f bf a9 0a 4c d5 39 d7 86 3f
       -0.003794031261356784 0.011152698346909533
0007c0 c6 c9 cf 4d b4 1b 77 3f 03 73 83 ff bc be 80 3f
       0.005641655266105555 0.008176304385807414
0007d0 20 14 13 2b 06 41 81 bf 43 69 ab 5e 03 30 83 3f
       -0.008424804868250091 0.009368921591364049
0007e0 3c f4 9a f1 b9 2a 89 bf 29 d8 d5 24 66 9d 81 3f
       -0.01228852528162793 0.008600996016621636
0007f0 40 67 24 bc 10 09 84 3f c9 eb 20 d0 84 30 70 bf
       0.009782915822643568 -0.003952521134176609

linear1.bias f8 [12]
000000 f7 5d 1d 93 5a 1d 8b bf 3f b3 56 41 e3 6e 7a 3f
       -0.01323958169420701 0.006453407016505263
000010 52 68 a2 fb af db 61 bf 2d 9f e4 6e 2a de 66 bf
       -0.0021799504439288598 -0.002791483762070521
000020 5b 80 fa 85 a5 1b 8b bf c6 5a 9c a7 98 b8 7e bf
       -0.013236325408172591 -0.0075002635074016884
000030 b8 1b 59 b4 18 b0 67 3f 4f 18 df 50 5a 7e 82 3f
       0.0028915865430323116 0.009030061333657495
000040 bf 05 ec da 65 71 69 3f 73 1f f4 c2 4d 7f 7b 3f
       0.0031058301314039467 0.006713203197484907
000050 5b e6 76 76 35 bd 5a 3f 04 e3 40 a7 06 56 8a 3f
       0.0016320249650178173 0.012859394053621916
