saved_models/decoder.pt (torch_old, 480736 bytes, 2 tensors)

linear1.weight f8 [12, 5000]
00000000: 301c 5e58 70e2 7cbf 3968 8484 6405 7a3f
00000010: 90d8 debb 5ab1 743f 9658 dfb4 8a6f 38bf
00000020: 8baa cde9 3d91 7f3f 7ed0 e37b e6b5 41bf
00000030: 4cde f7b3 07e8 8a3f 5a16 eef1 8d74 85bf
00000040: af6e e239 9aac 6abf 956a fc0c aaf1 603f
00000050: 0111 ffbb e47e 893f c071 9c21 71e9 803f
00000060: 3444 8e0f 0515 733f 5a94 895f 3886 833f
00000070: 1050 61f3 43e4 85bf 6a66 8cb1 4c82 54bf
00000080: 1b15 3d74 4fd6 3abf 2672 dc22 7313 823f
00000090: 7cce 0511 aa96 63bf 1074 7b93 2cee 86bf
000000a0: f56c dd02 2d61 84bf b631 797f 0a0e 863f
000000b0: 7fa8 7b5a 73c7 88bf ffaf 4943 6a46 80bf
000000c0: f402 9657 8cd5 893f bb57 20d9 e1d2 6a3f
000000d0: 3612 cf12 dcc4 873f 3da0 794e 899a 713f
000000e0: c269 d62b d529 82bf 7dce 1b8d b609 5bbf
000000f0: 6d10 f1d5 c401 88bf 632f 73fa b0e7 873f
00000100: 7d61 d2ad d014 473f bdd4 86fe a54b 73bf
00000110: f693 3231 8c5d 82bf de1d dd77 012b 71bf
00000120: 88e2 b8d8 e146 66bf ca95 743d fdbc 7fbf
00000130: c892 0602 d0a5 8b3f c66f 6ce2 c4ec 53bf
00000140: 56f6 f7b9 d0a7 7c3f 0013 181d 9193 853f
00000150: 0c9c 3621 4375 8b3f 944a 92f5 e1a7 6e3f
00000160: 7706 9197 dd62 8c3f 967f 1d94 14f3 85bf
00000170: 60ae 9139 e138 603f 4b6c d87d fd4b 873f
00000180: a764 eca1 e42a 7cbf 9d25 e226 2e02 413f
00000190: 2c1f 9d11 2fa5 863f abb7 7830 9255 e43e
000001a0: b95a fb05 981d 843f 6588 2f7f 1310 833f
000001b0: 6ca3 2103 3e2d 60bf 1e03 7772 8668 863f
000001c0: 89a2 8837 60db 883f 6ac4 e7e0 d50c 843f
000001d0: c419 8e98 a935 75bf 7161 4852 3e78 7f3f
000001e0: 1ca6 e8b8 343b 71bf b493 1f7a 3887 7dbf
000001f0: 734e 0d70 b855 85bf de71 a6c9 cde1 613f
00000200: c51a 96eb d7ec 883f 5f59 0892 de21 85bf
00000210: f5f2 bd13 3b25 82bf c605 0812 44ae 81bf
00000220: fd63 4939 edf4 5b3f 7281 d77a 71cc 7cbf
00000230: 7c4b 7fc7 b055 853f 658d ada1 d267 75bf
00000240: 4118 933d 24b6 8abf 0021 ae62 a665 8b3f
00000250: 6622 75e5 5e14 81bf b46e c581 312d 6ebf
00000260: f4e3 2d16 5c90 56bf 34ca 7233 6096 593f
00000270: 6c0e 6ceb edfa 88bf cc0b 2db3 b969 4ebf
00000280: cf41 605b 74fd 813f ed07 eefc 467a 873f
00000290: 9030 177b 7e6f 7abf cb8b 4066 27fb 3d3f
000002a0: a914 d468 f988 87bf 695b dd6a 8feb 58bf
000002b0: fff1 9658 976c 643f 3846 3139 fe46 8b3f
000002c0: 08b2 9d93 1b3f 5dbf bab4 c543 9929 85bf
000002d0: ebfb fa29 ec4d 80bf f62e 3689 672d 8b3f
000002e0: 4e74 4e15 5030 5c3f 0997 d05d c360 623f
000002f0: 9109 4dd0 b2d6 62bf 4178 2e51 591b 82bf
00000300: 22b6 80a6 d8ce 813f 6953 f47d 602e 88bf
00000310: 750f 7624 3183 803f 4204 07ea be64 80bf
00000320: e0e7 d7fd 2f2c 78bf aa48 c9c5 d517 7d3f
00000330: eab0 7c08 8341 78bf caf2 0556 fbdf 373f
00000340: bf21 3779 1d00 6cbf 065e 5d18 f17f 76bf
00000350: 0f8d 0748 e01e 83bf ea37 a836 518b 74bf
00000360: 49bc 2c5e ddbd 6e3f 9c88 093d 3753 8a3f
00000370: fe2e 1c64 6fc0 8cbf b736 1005 4cbf 883f
00000380: f687 db45 b176 843f 646b 10e5 9d38 88bf
00000390: f048 2d39 8a95 853f 984e bf94 9f68 81bf
000003a0: 2cab c73e 6d69 893f dced be83 f3e7 8c3f
000003b0: 8810 4463 a70d 843f a123 1ca5 fff4 783f
000003c0: 7051 c758 4ff8 5b3f 87ea 5279 e720 863f
000003d0: 7ee7 88ce df4d ef3e dfaf b366 c19e 7f3f
000003e0: c1ab f7c4 c044 793f 588d 0830 068e 89bf
000003f0: a4be eb5a 2290 893f 8ca9 689e ffca 6fbf
00000400: 13a9 3381 5666 84bf a90f 02fa 06cf 70bf
00000410: b8b4 f77a 589b 553f e300 03cf f202 89bf
00000420: 5e5b 7cc2 d206 883f a396 0054 3c47 7d3f
00000430: 82d8 889a 4feb 853f 1c53 992d 3091 81bf
00000440: 42e5 ac76 fce7 883f d831 2342 c024 813f
00000450: 79fa 180a da23 633f c914 0202 2d9a 85bf
00000460: afbf a069 e776 8abf 9c97 29d4 d04e 8abf
00000470: 85be a6ee b124 543f be72 cf48 7c47 873f
00000480: 78e1 95de 8c0d 7cbf e139 d9d3 d685 603f
00000490: c6e0 f9f0 4fe0 74bf 8fd5 4911 586f 793f
000004a0: 5ce4 fbf0 9eb7 62bf bdb2 d08e 0c37 88bf
000004b0: 2c7b 5f2e 6132 803f 918e 1784 e674 65bf
000004c0: e357 3be5 bf2c 683f 1a55 4f92 6a21 873f
000004d0: 5ce2 b149 6900 88bf 5974 423c 8fd8 70bf
000004e0: a000 17ec 09e8 44bf 11ba 1789 2e42 88bf
000004f0: b8c7 54b7 0066 88bf dbc1 b3bd a730 80bf
00000500: 6426 fcc3 99d7 6a3f bc2c 7a9f 3054 30bf
00000510: 1385 6a58 1831 883f 8195 c537 8d94 5fbf
00000520: a4d5 4be3 45eb 80bf d2c4 e4e6 01e6 7d3f
00000530: 4c7d 43a1 d68a 85bf e83a 6fff 9720 69bf
00000540: 0bca d1b3 7066 633f 2fbe c40a a0e7 5d3f
00000550: 2e7c 8693 73e9 8a3f aed9 4a55 d093 69bf
00000560: 21f9 edcc 0274 70bf 007a 845f b7b5 7abf
00000570: 1f7a 6609 90ba 7bbf f5ef e865 c588 8abf
00000580: 19e2 f7d5 26d0 6ebf c51e 0fb4 b81a 8a3f
00000590: 6ee5 03a2 8975 71bf 27df aa17 bc81 64bf
000005a0: ce46 7216 95c4 8a3f 3147 7c60 03a2 7b3f
000005b0: ccdf 5aff 00d9 373f b0fc e972 7241 663f
000005c0: 66e0 aaa0 f95b 6bbf e0b2 2e77 0b84 833f
000005d0: 49fd 04c6 3687 75bf 0f8a fe18 4ef0 6e3f
000005e0: b643 4a08 771d 83bf fbf8 5d46 dbfd 61bf
000005f0: dc6a 7a3d 8bb2 713f 2308 5709 c9f1 80bf
00000600: a942 ae2d aae7 663f 80d7 869c b83b 7abf
00000610: fbbe a311 148d 8c3f bbb5 2378 be4d 873f
00000620: cd8b 4aea 0197 803f 09d1 bc77 a750 83bf
00000630: 7dfa 9b97 5465 8abf 8d66 8938 ef93 6dbf
00000640: 3651 f9c5 f258 86bf de29 b694 7c09 7d3f
00000650: a1ae a031 f8f6 773f fdc8 3fa3 d366 863f
00000660: 3623 6a8a 170c 5b3f a8a2 ee5d e50b 79bf
00000670: 709a 5329 9a01 653f 3244 fe21 21a2 763f
00000680: 46e6 6177 6486 633f daa7 fb62 5b9b 83bf
00000690: 86f4 4a5f 3d6d 8cbf b447 24c7 3570 7ebf
000006a0: 0c20 c6f9 fac5 81bf 778e 7931 7016 883f
000006b0: 3f6a b1ab b891 673f e5de f5c1 5881 78bf
000006c0: 3007 f4c1 9a8a 853f b558 09bc dd0d 7f3f
000006d0: 8828 6195 71bc 88bf 737d 4a40 73a7 70bf
000006e0: 915f 2264 18aa 663f 8a32 ed69 e0ad 82bf
000006f0: 0175 fb0c 71ca 87bf b8a9 a23d 3aae 87bf
00000700: 0cba 648c 25bf 833f d2ec 396d a5fe 8b3f
00000710: 3d5c d713 f3a9 6cbf 9d08 8b0b f84f 7fbf
00000720: 3ad0 230a c15a 66bf fd48 2dcb a450 873f
00000730: ea27 8ea6 d7d6 843f 07c3 cc84 ad26 4fbf
00000740: 4ef9 9264 185f 6bbf 9cb8 c2f2 1215 803f
00000750: e66c 1e34 265d 79bf e9cc ee69 f068 8bbf
00000760: e3d3 d70c 0976 85bf b848 2463 68ee 7ebf
00000770: 20e1 bf5d 08b8 853f 0d67 9c30 1da7 873f
00000780: 4139 ff88 751c 5ebf e87a 0941 d87b 7a3f
00000790: 4d3e ae75 e4f8 743f 92f4 c21d 7728 793f
000007a0: f2d4 e037 00ed 7ebf 5910 2311 4055 763f
000007b0: 4451 8f00 a914 6fbf 6530 aad5 39d7 863f
000007c0: 0d55 e14f b41b 773f a9bd f7ff bcbe 803f
000007d0: d32c 8029 0641 81bf 87e9 925e 0330 833f
000007e0: 9c37 aeef b92a 89bf 8677 3725 669d 813f
000007f0: 8313 80bc 1009 843f 5c7e fbcc 8430 70bf
-0.007051886413939321 0.006352799078991161 0.005051950864006241 -0.00037285934820142344 0.00770687279587413 -0.0005404830369841877 0.013137874774641699 -0.01047621626436095
-0.0032561313847290978 0.0020683594992879175 0.012449061381524464 0.008257755125264832 0.004658717888461662 0.009533348479815174 -0.010689288010475223 -0.0012517689667163275
-0.0004095024089461761 0.008826159955384116 -0.0023911782847621504 -0.01119646859245374 -0.009950973176890513 0.010768968596629996 -0.012099171828101383 -0.007946806124174087
0.012614342139160219 0.0032743846031832702 0.011605948757172784 0.004297767976460473 -0.008868852043453116 -0.0016502650000206614 -0.01172212388895152 0.01167238487541739
0.000704385656393788 -0.0047108158254804385 -0.008967490435972874 -0.004191404090142707 -0.002719346148094385 -0.007748593539223811 0.013499856054133189 -0.0012161181163667808
0.006995978677421263 0.010535367679957997 0.01340725369557385 0.0037421620623459637 0.013860446155493407 -0.010717545290105861 0.0019802473948880434 0.011375408556935215
-0.00687684354377286 0.0005190587378517856 0.011057250714329912 9.696131669203184e-06 0.009822070772697132 0.009308006590746662 -0.0019746981789023257 0.010941553466979278
0.012137176222567507 0.009790106702867802 -0.005178129657798573 0.007683032458338666 -0.004206853815540448 -0.007209034551100158 -0.010417405051760675 0.0021828669825494215
0.01217049300863716 -0.01031850703388376 -0.008860074558236767 -0.008633167076370973 0.0017063442839087 -0.007030909805934337 0.010417347992108132 -0.00522596624327618
-0.013042719964129758 0.013377475630264701 -0.008339635255326171 -0.0036836592609413524 -0.0013771914752551658 0.0015617312872505786 -0.012197359797489336 -0.0009281307924101589
0.008784207380842539 0.011463694185071172 -0.006453985276902455 0.0004574748220439988 -0.011491726409540286 -0.001521005683988464 0.002493186567077865 0.013319002266288668
-0.0017850655844667846 -0.010333249455209848 -0.007961125403538069 0.013270195841662762 0.001720503050115302 0.002243405890584142 -0.0022996418432807493 -0.008841226377452329
0.008695309239636965 -0.011807206958602117 0.008062728810507494 -0.008004657284688691 -0.005901515452473277 0.007102808999279878 -0.005921851967098693 0.0003643025029516465
-0.0034180236486671396 -0.005493108537698804 -0.00933623523537233 -0.005015675773860176 0.0037526439276898455 0.012854033994873774 -0.014038915865533404 0.012083619980354994
0.009992012924559628 -0.011826737931235072 0.010539131040478072 -0.008500334479243407 0.012408116796867562 0.01411428685957266 0.00979166766820351 0.006093023884894772
0.001707150923825198 0.010804947271357846 1.4927003989407191e-05 0.007719760392529167 0.006169083600506776 -0.012477920857299082 0.012481945419011105 -0.0038809769205460695
-0.009960819070745452 -0.004103686573333856 0.0013187755647508358 -0.01221265501260444 0.01173176437400308 0.007148013741277079 0.010702726272125544 -0.00857770575672983
0.012161228534398053 0.008370878237109844 0.002336431368149147 -0.010547973274024252 -0.012922103796966981 -0.01284564158886408 0.0012294519061518971 0.01136681649398363
-0.00684886004579998 0.0020169444895039444 -0.005096733351472154 0.006209701551246906 -0.00228482287627378 -0.011823747738242013 0.007908591487589677 -0.002619219042331818
0.0029510257680653725 0.011294205274604386 -0.011719534455765394 -0.004112777245748844 -0.0006380127380723084 -0.011844981726395283 -0.011913304896186236 -0.007905302502394676
0.003276634524699772 -0.00024915873607573766 0.01181239147018912 -0.001927507312836724 -0.008261247633963027 0.007299430303008241 -0.010518719478965231 -0.003067299719510575
0.002368183252252414 0.0018252432738100723 0.013140585841766219 -0.0031222409255306704 -0.0040168866534016365 -0.006520954419356517 -0.006769716876446923 -0.012956182644408879
-0.0037613638412461567 0.012746279711691408 -0.004262483242422161 -0.002503268592899749 0.013070263621816205 0.006746304694176961 0.00036388658859775875 0.0027167544679396957
-0.003339755586548465 0.009529199194582672 -0.00525590320495379 0.0037766957611478145 -0.009333543720716136 -0.0021962435448009666 0.004320663363297252 -0.008273668859036637
0.002796013240591162 -0.00640461076584653 0.013940960682219386 0.011378753701559377 0.008100523912906521 -0.009431179372406466 -0.012888584973095302 -0.0036105797083053116
-0.010911842981990643 0.007089125293882918 0.005850762851007525 0.010938313884228718 0.0016508321656678155 -0.006114860500851783 0.0025642405477015948 0.005525712418504235
0.0023834192498355692 -0.00957366367170558 -0.013880233259778284 -0.007431230611716733 -0.008678398845191303 0.011761547574855797 0.002877102551378102 -0.00598272963485844
0.01051827339552211 0.007581583166560592 -0.012078177806092563 -0.00406594295478101 0.0027666546239508223 -0.009120705826398696 -0.0116165954672689 -0.011562781339610292
0.009641927096336843 0.013669292827435706 -0.003499006996871694 -0.007644623685964328 -0.0027288217835295366 0.0113842844490688 0.010175404329647326 -0.0009506556758421555
-0.003341243402785888 0.007852695497004007 -0.0061923496558861976 -0.013383749230206425 -0.01047904081767998 -0.007551582110197845 0.01060492073155267 0.01154921345328177
-0.0018378398708481377 0.006465763800035808 0.0051201748091354695 0.006142106340289237 -0.007550240376123828 0.005452394734849341 -0.0037940312217676093 0.011152698357612853
0.005641655296206649 0.008176304399028238 -0.008424804822445264 0.009368921588578839 -0.01228852522561024 0.00860099602772003 0.00978291583306557 -0.003952521088393359

linear1.bias f8 [12]
00000000: 2ca3 bf98 611d 8bbf 8631 798f a56a 7a3f
00000010: 9091 8eec ccdc 61bf e026 3c43 6ddf 66bf
00000020: 958a 350e 811c 8bbf a125 50d5 cdb5 7ebf
00000030: 4edb 12dc 89ad 673f 95bc 404c 0180 823f
00000040: 6026 fb8e 876f 693f 475d 71ed 8f80 7b3f
00000050: 2f1a c535 e4bf 5a3f b950 69f6 b756 8a3f
-0.013239634012238342 0.0064493624882512365 -0.002180481188093171 -0.0027920850787993418 -0.013237961050156325 -0.007497600589894488 0.002890366799501199 0.009033212794831416
0.003104939234479784 0.006714403359260607 0.0016326645482692794 0.01286071511018637
