saved_models/decoder_epoch24.pt (torch_old, 562881 bytes, 20 tensors)

feature_extractor.spatial_conv.weight f8 [64, 1, 64, 1]
0	0xbfbece6f4aaed21f	-0.12033744405091128
1	0x3fc2720bda88cb58	0.1441054169714231
2	0xbfbab330e859088b	-0.10429673836282143
3	0x3f7e8f6f27c9ea4c	0.0074610082634714685
4	0xbfc29636d98a7610	-0.1452091753207445
5	0x3face279e7ff05f1	0.05641537625298188
6	0x3fae5d6d9b147231	0.059306550198219184
7	0xbfa4dab98af44f43	-0.040731237613867786
8	0xbfb84ffb8d47efa1	-0.09497043799632233
9	0xbfb6ad0fc6166992	-0.08857821069833552
10	0xbfad3072ddf1ec73	-0.05701025924005245
11	0x3f636066b6aed7be	0.002365303623686337
12	0xbf9af80a62cd1e17	-0.026336824684476037
13	0x3fa4756997abf454	0.039958286060916365
14	0xbfa7e1db6d1ffe0d	-0.04664502818195269
15	0x3fc2b8d9f03c83c7	0.14626621465961717
16	0xbfb175df049e40b0	-0.06820482123134997
17	0xbf9ab65f703988d0	-0.026086322044997
18	0xbfc04cba6bb62d29	-0.12734155902249114
19	0x3f79dc042ea19989	0.0063133395543445514
20	0xbfc4a9a5ec853a63	-0.16142725037430514
21	0x3fbe2524957fa684	0.11775425577038773
22	0x3fbdc77dd4f1f389	0.11632524918418431
23	0x3fb961fe3cf6e63f	0.09915150631322776
24	0x3fc896e446b7007d	0.19210484936593622
25	0x3f8171d4243b185e	0.008517892223050601
26	0xbfa07e52a46e8a47	-0.03221376664375391
27	0xbfa73adaf35a6049	-0.04537090511911452
28	0xbfa40b60201b021d	-0.0391492881003652
29	0x3fa206d74da74fa2	0.0352084429065649
30	0xbfc13f72db4df478	-0.13474879940250495
31	0xbfc4d7bedca88568	-0.16283403181391098
32	0x3fb6cb99f4956267	0.08904421063687949
33	0xbfb595c165fa8cd6	-0.08431633701052318
34	0x3facc2b1887b7360	0.05617289343874776
35	0xbfbd211428fe5dc8	-0.11378599167652859
36	0xbfc560d3734e1cad	-0.16701739435322818
37	0xbfbd6681e2198017	-0.11484538812646893
38	0xbfb00a7fef0e1bb2	-0.06266021333986663
39	0xbf96398629b2dec0	-0.021703811926925054
40	0xbfb985173e66c87b	-0.09968705438112295
41	0xbfa16b1921990dd4	-0.03402021918420997
42	0x3fc19591715209d5	0.13737695725656232
43	0xbfa20484f86dfdcf	-0.035190730405698305
44	0x3f965e3e2daf8232	0.02184388307421354
45	0xbfa2be29c90fd676	-0.03660708026283725
46	0xbfb0bfa8adc921b3	-0.06542448275388928
47	0xbfc2617fec008202	-0.14360045455488551
48	0xbfcc15ab70d083b9	-0.2194113064624881
49	0x3fa814ac88802abf	0.047032729780843045
50	0x3f79b968b18866ec	0.00628033538716875
51	0x3fbfdb934a499316	0.12444420398385278
52	0x3fc0f60a75df5702	0.132508571200269
53	0x3fbba5aa68c64fc0	0.10799660737967454
54	0xbf8e8be01791e018	-0.014915228575986858
55	0x3fa86fc832f367c0	0.047727829188900284
56	0xbf8eddab84ac9365	-0.01507123945845885
57	0xbfb8a6a4c80d499f	-0.09629278072433188
58	0xbfa5fa59c7f89dcd	-0.0429256493192117
59	0x3fc76f48a16634f9	0.18308360939810323
60	0x3fcb592f31103552	0.21365919013661966
61	0x3fbe69bcd627eec0	0.11880092838685652
62	0xbfaea8faab62118a	-0.05988295881346335
63	0xbfb07c5e933a7b04	-0.06439772695965124
64	0x3fbaadb53ecadd22	0.1042130735685203
65	0x3f91aae03b15c7e6	0.01725340233446806
66	0x3fd49bb3d85a042c	0.3220033276375627
67	0x3fc92ebed9357136	0.19673905950447484
68	0x3fd5497cb79b6829	0.33261030130745667
69	0x3f9ed59e48ca5cca	0.030111764138010234
70	0x3f7d0585e3dffcbb	0.007085345276208683
71	0x3fae24c949aa4ca4	0.05887440704568661
72	0xbfa4a2d9aa92f83f	-0.04030494887545943
73	0xbfcf4b785edc25a6	-0.24449066764672728
74	0x3fa16d2d770827d8	0.03403608396554575
75	0x3fc59ce7426dad1b	0.16885081046653103
76	0x3fc2e2e94562d64a	0.14754978073112773
77	0xbfcddea46a615357	-0.23335700220436692
78	0xbfcb53286d366ade	-0.2134752782120221
79	0xbfb687fd45d3ff5b	-0.08801253275669067
80	0xbfc50450594f427d	-0.16419414864369122
81	0xbfbb26ddda87ab4b	-0.10606180749134102
82	0x3fbc5833c09bad14	0.1107208581194537
83	0xbfa75f308ab9b8c7	-0.04564811414171426
84	0xbfbf8de720403149	-0.12325901543971897
85	0xbfc68fc04f0e071b	-0.1762619386682268
86	0xbfc9a3088be15feb	-0.2002878840455645
87	0xbfd05d1f417e2da0	-0.2556837215022032
88	0xbfd975da30a38751	-0.39781813382989123
89	0xbfde4c6efa375fd6	-0.47341513095079557
90	0xbfded41a7ed70211	-0.48169577013689585
91	0xbfcac554bad7470f	-0.20914706347553433
92	0xbfb6e6dc1bc0ca64	-0.08946014096799498
93	0xbfd05d750f3a7e25	-0.2557041786876389
94	0xbfcbb2e166c8d508	-0.2163964988591618
95	0xbf80b8bffc7f2b60	-0.008164882557954278
96	0x3fc5cb7207a28e37	0.17027116177369958
97	0x3fd1a6808afaa027	0.2757874829499109
98	0x3fc514a646ec348f	0.1646926733305105
99	0x3fdbc5a462539a98	0.4339381180019841
100	0x3fc56274c5c5884f	0.16706714302842093
101	0x3fd130e21d1027b5	0.26860859716600355
102	0xbf5458abbb537f2e	-0.0012418438976097945
103	0x3fb92a7c3aac9d60	0.09830452377774668
104	0x3fc3c09f8f2d93f1	0.15431589594950837
105	0x3fd0fb128885f18d	0.2653242429003278
106	0xbfd166611a458db9	-0.27187373700709433
107	0x3fb1b19cfbd85e2c	0.06911641262592444
108	0x3faa4e104b48bafb	0.05137682837481879
109	0x3fb79b5402030dcf	0.09221386956328746
110	0x3fc9908802208af3	0.19972324470389644
111	0x3fa01d8385692761	0.031475172076695264
112	0x3fcf57df20f60dd9	0.2448691283171758
113	0xbfc0c3795a9596af	-0.1309653942400266
114	0xbfb3b1d3b8a127b0	-0.07693217523151819
115	0xbfca3a0aa2646d55	-0.20489628724394984
116	0xbfe1b92c4bfa7d48	-0.5538541301683972
117	0xbfba915b2df088d3	-0.10378045913288085
118	0xbfd70badbf135814	-0.3600878110859196
119	0xbfbf2a30673cd594	-0.12173750420045898
120	0x3fa75897bd95cf5b	0.04559778394005206
121	0xbfe1803b087421a8	-0.5469031491384628
122	0xbfd9d6d83250523e	-0.4037380687089217
123	0xbfdc2d5616281fa6	-0.4402671066641183
124	0xbfce0ba0bb3adfbf	-0.23472985403145505
125	0xbfd3314a044a2cad	-0.2998833696262391
126	0xbfe2641ae1df4c9c	-0.5747198497359878
127	0xbfb6ad0b539af62a	-0.08857794562478519
128	0xbfa73d80a8e7d378	-0.045391102426868224
129	0xbfa8cd1ef3b17e91	-0.04843994831821619
130	0xbfd026f501feb530	-0.2523777503473239
131	0xbfa03816a49e21ed	-0.031677920908865655
132	0xbfd5c64eb8eb41a4	-0.3402287298058815
133	0xbfb384f7566b4d6b	-0.07624765262453585
134	0x3f128ffc09ac62c0	7.081008736199278e-05
135	0xbfa7c62a21d6d849	-0.046433750754133536
136	0x3f9d8742ca7e612c	0.028836291894181063
137	0x3fcb678c95615c26	0.21409756940804064
138	0xbfc66de07eeaf911	-0.17522817799721982
139	0xbfc2429da9be9b34	-0.1426579550581778
140	0xbfaf681dd243f3f6	-0.06134122077671826
141	0x3fc99a7246e470c1	0.20002582990207965
142	0x3f6e9a8b8a7180c0	0.0037358022123471224
143	0x3fb57f12b787b479	0.0839702318259742
144	0x3fce8dcde7ac7568	0.23870252430144068
145	0xbfa71b545924aecb	-0.04513038242506936
146	0xbfd0e84329f66eaa	-0.2641761693755408
147	0x3fc01af58157ee1b	0.12582272353743992
148	0x3fa9e6a7b78b08f8	0.05058788409725595
149	0xbfbc057a5233f13b	-0.10945858485132913
150	0x3fbbe052c2682af5	0.10889165159475651
151	0x3fbf85f37d579f6a	0.12313768205751577
152	0x3fe15645d0c66c5b	0.5417813375128263
153	0x3fe4a38123a05382	0.6449590392900151
154	0x3fe15dbe6ae7a6f8	0.5426933372484362
155	0x3fc5e899f1bda3d9	0.17116092971562472
156	0x3fbf37df19bb1453	0.12194628122513622
157	0x3fd5ef2fa720c5fc	0.3427237636670666
158	0x3fd106909cff40b4	0.26602568942781635
159	0xbfa2e728c8173cde	-0.036919855523245934
160	0xbfca964fb7b4f43d	-0.2077121397977936
161	0xbfd3b4e2bd10e811	-0.3079153868053491
162	0xbfdd7fd6dc2727f5	-0.46092769145309315
163	0xbfd91877acee3d6d	-0.3921183766151078
164	0xbfc15cb6d5464d1f	-0.13564191259192968
165	0xbfa3c6663d9c389d	-0.03862304212644683
166	0x3fc6e4a047a7b931	0.17885211466586662
167	0xbfb115780c6c856e	-0.06673384002035274
168	0xbfaf6ef8a2f5691a	-0.06139351834527158
169	0x3f9c2fcda331fa6c	0.027526105008741572
170	0x3fcd4256425965ad	0.22858694305140884
171	0xbf8bcada75b1f259	-0.013570505825776612
172	0x3f88c74761210ba5	0.01209884419598046
173	0xbfc66acd2bc1ad2a	-0.17513432156133862
174	0xbfd39c77d85c2e9c	-0.3064250576869456
175	0xbfc00da6e3772603	-0.12541662317953248
176	0xbfcaa1a7ae51774b	-0.20805831920272974
177	0xbfa6802c88297864	-0.043946639653527325
178	0x3fb9176abb611e06	0.0980135638684417
179	0x3fae70f3b0f00588	0.05945550475008604
180	0x3fde9213692c44a9	0.47766576071542005
181	0x3fc2add0f448e39b	0.14592945030179014
182	0x3fcef282135aea34	0.24177576012682922
183	0x3fb89c635359f2f6	0.09613629136033439
184	0x3fb681e2914b6563	0.08791938826779737
185	0x3fe81c07a1b233a9	0.7534216077925652
186	0x3fdf9e27708575e6	0.49402795780573994
187	0x3fd7f63ce113260d	0.3744041631694877
188	0xbfa7721557b768f2	-0.045792262036870826
189	0x3fa2268dc640c65f	0.035450392199334095
190	0x3fe09cce8c070373	0.5191414580259405
191	0xbfc3544e576aed2f	-0.15101031559411512
192	0xbfb96d9d1cf93c85	-0.09932882268297945
193	0x3fa9934b47a86f96	0.04995188951235645
194	0xbfa59673541bfb08	-0.04216347123837322
195	0x3f74c5acbb133391	0.005071329812562989
196	0xbf9783974acc03e4	-0.02296291727089174
197	0x3fb8b007c60d0ef5	0.09643601021985744
198	0xbfbed7d5c2b0e967	-0.1204808807678198
199	0x3fa6435bb970fe46	0.04348265303314895
200	0xbf94a1540721aa6b	-0.020146668372414227
201	0xbfa19e5fe7443351	-0.03441142747951765
202	0x3fc56f7c00e268b7	0.16746473353561495
203	0x3fbeb3f670bb0bd7	0.11993351223195191
204	0x3fae99071ee84878	0.059761259577627734
205	0xbfb6f0121c6e6028	-0.08960068887825001
206	0xbfac94afe048f271	-0.05582189190724741
207	0xbfc89bf694c3f4ff	-0.19225961936891875
208	0x3f88f2355b7d33e7	0.012180725912594738
209	0xbfa6aae2e0c4a6e1	-0.044272508561631126
210	0xbfb448a7364e7a9b	-0.07923359943240842
211	0xbfb5b62879aa15e0	-0.08481076212236571
212	0xbfa3a5f2668cfe2d	-0.038375449198153035
213	0xbfb9fa2c8feb559b	-0.10147360337881255
214	0xbfd3d3ea79a79623	-0.3098093212159673
215	0xbfca8801993f49f6	-0.20727558119558837
216	0xbfdbba36377debe5	-0.4332404653466127
217	0xbfb588c9c8c49ccb	-0.08411847259104659
218	0xbfad8943bc7236ac	-0.057687870744400044
219	0xbf9a8d41830c6940	-0.02592947351795627
220	0x3f873257f13f6d16	0.011326491403386412
221	0x3f818158efc0b994	0.008547491852451107
222	0xbfc32a2a1cf5462c	-0.14972425855607818
223	0x3fbe5fb67b83270a	0.11864796176373829
224	0x3f732808a377bad0	0.0046768510287466675
225	0xbf95158a633ba9a6	-0.02058998327894703
226	0xbfa5df63fbec434e	-0.04271995973807084
227	0xbfaba421d035cd3e	-0.05398660341861693
228	0x3fb0b59500dbcd46	0.06527072211229265
229	0xbfa36e39c1d423b4	-0.03795032969544057
230	0xbf9a64e2729049b2	-0.025775469057472918
231	0x3fa83a1a7d449c74	0.047318294326310545
232	0x3f9e4b2341ce40ea	0.02958350266595825
233	0x3fb5690202c38478	0.08363354270433543
234	0xbfc42444e62a6d83	-0.15735684622346122
235	0xbfbd21daf531407b	-0.11379784093992555
236	0xbfb4b23523f0113e	-0.08084423186671061
237	0x3faf3173892ce64c	0.0609241585684229
238	0xbf9f5e7798051832	-0.030633801129873635
239	0x3fb9fc25b32b0f93	0.1015037119314555
240	0x3fc38b2d651094f8	0.15268485483935712
241	0xbfc541437262011b	-0.16605418286418047
242	0xbfc85318a46bc1cf	-0.1900358965717843
243	0xbfc98565cf93abef	-0.1993834746893692
244	0xbf80d4986175c3eb	-0.008217993234866902
245	0xbfc6dbe8e11af3cc	-0.17858611098736643
246	0xbfc84c21c5790924	-0.18982336179949144
247	0xbfaa90fe81758f40	-0.05188746767342289
248	0xbfb160abb59ab5a0	-0.06788132842731054
249	0xbfd49ff2827fb2d6	-0.322262408676392
250	0xbfb5e24dfcc7f3f4	-0.08548438474095105
251	0xbfb5a5f96b7e898d	-0.08456381677982545
252	0xbfd120097aeb2df7	-0.26758038524414424
253	0xbfbdf4c942c9702e	-0.11701639061487931
254	0xbfcc06860c6513b3	-0.21894908528534315
255	0x3f78cde220f7f35e	0.006055720630226384

feature_extractor.spatial_conv.bias f8 [64]
0	0x3fa9de2c879e5275	0.05052317767618756
1	0xbf9da44819720130	-0.028946997216281634
2	0x3fb01f3de32c4712	0.06297671123709517
3	0x3fa3dba3de384fce	0.038785096050702
4	0xbfb622a64ad463d5	-0.0864662106217929
5	0xbf6cc996430ae9b6	-0.003514092903370537
6	0x3f8080801a7243a2	0.008057595069006333
7	0x3fb769da1d9b81c9	0.09145892355764497
8	0xbfa19dac3b917c70	-0.03440607287552033
9	0x3fa62fe7c1ab2f80	0.043334238425443594
10	0xbfaabbc9f22fa3b6	-0.05221396523831549
11	0xbfb52d88f286a996	-0.0827260582069925
12	0xbf856850eeab087e	-0.010452873500416123
13	0xbfb0fac1543ce0f1	-0.06632622057520955
14	0x3facaa4ee43e4c08	0.05598684822248151
15	0xbfb5d4cfebeb4ab9	-0.08527850637191649
16	0x3f9fcc3cb2a74a2e	0.031052540210860062
17	0xbfbf12d2fedffcb0	-0.12138098452122636
18	0xbfb216460052776b	-0.0706523657595121
19	0xbfb782bb48b30ec2	-0.09183855557335632
20	0xbf800aa3eeac7f63	-0.00783279487728778
21	0x3faa89061d8d6055	0.051826659305050406
22	0x3fa694ad54e95b4a	0.0441030660774034
23	0x3fad1189b15642ac	0.05677442826993703
24	0xbfaae3543113c61d	-0.052515631667017205
25	0xbfb6b441c7be0ef8	-0.08868800283931566
26	0x3fa640eeb709c819	0.04346414551118034
27	0x3fb01ba49f1fea69	0.06292179951553013
28	0xbfb63dbfd3d9aa2e	-0.08687971994519536
29	0x3fa74d59e9a49af4	0.04551201798522256
30	0xbf8c7a784ced3b07	-0.013905467841735865
31	0x3fb1e6915c664b77	0.06992443567132321
32	0xbfa39606d7495c5b	-0.03825398805627663
33	0x3faf82ae1b0d4d2e	0.06154388504242046
34	0x3fb5d630ebd896c2	0.08529954679451193
35	0xbfa5d4c1b1e10ff8	-0.04263882919670431
36	0x3fa2aaed61be55dc	0.036460321599559115
37	0xbf9fe643e8c8faaa	-0.03115182979876844
38	0x3fa98196b7f8a2ec	0.04981680865996005
39	0x3fb379dbe2115441	0.07607816952925452
40	0xbfb7d6707866cdf5	-0.09311583461276725
41	0x3fb3a4571b004e23	0.07672638329705044
42	0xbfad616f715d6d1b	-0.057383997524732965
43	0xbfb6c4946df06aad	-0.08893706974087463
44	0xbfa063206ec4b47b	-0.032006276628046636
45	0x3fbcae4534ce69e4	0.11203415431229008
46	0x3f91674110045378	0.01699544582614318
47	0x3fa3e8b90b333915	0.03888490926475378
48	0x3faef5bfd06d39f9	0.06046866816778968
49	0x3fb2ba41cdfb4416	0.07315455702634241
50	0x3fb1614a32414b6d	0.06789077498369318
51	0xbfb0bd5c428dfba0	-0.06538941025608702
52	0xbf9d1dc507a06ed4	-0.028433874693390163
53	0x3fb1150480feabc1	0.06672695302283584
54	0xbfb61cbdc52c4ac0	-0.08637605727953268
55	0xbfb40fec6418675b	-0.07836797183736392
56	0xbfa42e79b8e3220f	-0.039417079753153776
57	0x3fb5a08bb31b53ad	0.08448098299716263
58	0x3fa66735f170c418	0.043756185267177894
59	0x3fb16c2296c2be71	0.06805626087838747
60	0xbf9c62f028e55866	-0.027721168991171295
61	0x3f9f52517ab6e7d5	0.0305874568127605
62	0xbfb529eac921052a	-0.08267085466743099
63	0x3f74d5de99143de9	0.005086774371434435

feature_extractor.temp_conv1.weight f8 [16, 1, 1, 51]
0	0xbfb178072e68301f	-0.06823773272498145
1	0xbfb94a188c9e3fe8	-0.09878686364231692
2	0xbf91ceffc6261ac3	-0.01739120146660401
3	0x3f8d77e3ccb85b7a	0.014388827977240604
4	0xbfc1d4a0eb26c54f	-0.1393014095497542
5	0x3f9b73d9ae008e84	0.026809121365785518
6	0xbfc2ec5523bf4799	-0.14783729787319258
7	0xbfa237fb51209773	-0.03558335652660007
8	0xbfaf89bf14cd3216	-0.061597796715975914
9	0x3fa6585d1caffc41	0.043642911674389946
10	0x3fa1235811e40006	0.033472778495706776
11	0x3fb1a583229af18c	0.06893176646094029
12	0x3fa1390318bf8c79	0.03363809277632241
13	0x3fa6b21b323c0d4a	0.044327592737341506
14	0x3f6a1e620fec6172	0.0031883158948284246
15	0xbfc1227d34eea995	-0.13386502346595522
16	0x3f8387b98a001b03	0.009536218189180717
17	0x3fa0fe508da349a4	0.03319026688554352
18	0x3f8abfd9bd4d9eb8	0.013061238374305048
19	0xbfbd1a358f045965	-0.11368117086053571
20	0x3f85a791c1501215	0.010573519432008497
21	0xbfa83ce5115cd6ec	-0.04733959042498079
22	0x3f8da14d8fa6ea2d	0.014467817255412541
23	0x3fa3d85d10e4f800	0.03876009780150014
24	0xbfbbd7f970abb629	-0.10876425743818942
25	0xbfbc332f427f114e	-0.11015601514288173
26	0x3f90b7d1f306138e	0.0163262180881421
27	0xbfbb40b78995cf56	-0.10645625218404339
28	0xbfbc00b54794c7ba	-0.10938580510699483
29	0xbfc38e73be05ecb3	-0.15278479364846972
30	0x3f8234a00c58b260	0.00888943708113138
31	0xbfbd02e2df3459ca	-0.11332529019669049
32	0xbfa466d405995bbc	-0.0398470169863496
33	0xbfa2a1a3b96b5f2c	-0.03638946188374201
34	0x3fb64386d59e5262	0.08696787562650735
35	0xbf88ad8807c8c683	-0.012049734818990082
36	0x3fb6805c3fb299af	0.08789612345808594
37	0xbfa254a8957005aa	-0.03580214332761085
38	0xbfc14b1a436e8212	-0.1351044492012226
39	0xbfa79295a2d9bd2c	-0.046040226105896614
40	0xbf6d484d8d4f1280	-0.0035745157897245083
41	0x3fb281f8493f622d	0.07229568279525074
42	0x3f91d4ccc7c30f6c	0.01741332978487213
43	0x3fa9ca0be6634b1b	0.05036961734153619
44	0xbfbc658fb2fdcbaf	-0.11092470283419574
45	0x3f961ae7fac9b599	0.021587013894920657
46	0x3fb2b52681dbbe43	0.07307663603182228
47	0x3fb95f2eeb005b72	0.0991086314901233
48	0xbfbc0a7057b06ab0	-0.10953428402755594
49	0x3fb9db3bdf012b00	0.10100149340102504
50	0xbfb4c60e3e814c01	-0.0811470892524966
51	0xbfc221f5be6520bf	-0.14166137501366013
52	0xbf7fa691ce941b74	-0.007727212484730173
53	0x3fb2411a630ed8dc	0.07130589407356375
54	0xbf9bcf9f10177567	-0.02715920005527064
55	0xbfa2de05b409320b	-0.03685014555648899
56	0xbfa5fac2602f4b48	-0.04292876648073346
57	0xbfb48074ae0be7c8	-0.08008507966215384
58	0xbfbf8678494ab119	-0.12314559735631682
59	0xbf70fe4f9c0485a2	-0.004148779844656588
60	0xbf9d436888cab0ce	-0.028577454899889436
61	0x3fb49cbceed7d1ab	0.08051663237694721
62	0x3fa323490aaf04fb	0.037378580621870904
63	0xbfb377ef081490f7	-0.07604879328988888
64	0xbfb128401860940a	-0.0670204219355385
65	0x3fae35c957540177	0.059004108343290555
66	0xbfc0b50508339fbe	-0.13052428150626655
67	0x3fb883df97ad967c	0.09576222851827682
68	0xbfbbc1043cbfe03c	-0.10841394885199035
69	0x3fbc98f6a10506e5	0.11170903617042034
70	0xbf8b0126de0fea91	-0.013185790683555328
71	0x3fba999434e77f58	0.10390592853172842
72	0x3fb0b9ca0a21a03c	0.06533491847369616
73	0x3fb3e3057e3747c2	0.07768282252734962
74	0xbfb4a40417c07d5f	-0.0806276853550023
75	0xbf68c01819ff2a12	-0.0030212851270097285
76	0x3fb506456a720f7f	0.08212694023865018
77	0x3fb5a5fdf7248ab7	0.08456408771284428
78	0x3f75e1d2adb61d38	0.005342314684987408
79	0x3fb7228d61a102a9	0.09037097581404886
80	0xbf8424b03c4983d7	-0.009835602607553824
81	0x3fa1278b73b83968	0.033504827381068136
82	0xbfa2c9f45a1c5ce0	-0.03669704055772072
83	0xbf9d249459226192	-0.028459852161718376
84	0x3fb54335c7a237c6	0.08305679439419497
85	0x3fae3614fd42914f	0.05900636283448312
86	0x3fa9e1f58e35a1bf	0.05055205689388086
87	0x3fb080b5d70cdad9	0.06446396351098417
88	0x3fbf0db3ea5e1008	0.12130283805714737
89	0xbfb4b498c1e768ff	-0.08088068708403638
90	0x3fa9ca063819fee6	0.05036944804032632
91	0x3fb067e4db1702ee	0.06408529614328604
92	0x3fa0a3dc684309b2	0.03250015995719781
93	0x3fa2d93bf9dec4f7	0.03681361603902105
94	0xbfacff4924b2daa8	-0.05663517544728808
95	0xbfbc28c01a4f61c1	-0.10999680178009098
96	0xbfc17d6a64bb5dbb	-0.13663988035726313
97	0xbfbb11562c327603	-0.1057332857039555
98	0xbfc0b28dd6f14379	-0.130449037506448
99	0x3f84d1d46a6d494e	0.010165843484774808
100	0x3fba4898e6c4a76a	0.10267024644840964
101	0xbfc159762c0e85b3	-0.13554265166480448
102	0xbfc0853dbd5e8d2c	-0.129066197839259
103	0x3f433bce7b6bec03	0.0005869634831862095
104	0xbf49161cc9ac65eb	-0.0007655754628529942
105	0xbfa3f2bc5658622f	-0.03896130136508124
106	0xbfc1459fe330d2d3	-0.13493727296158528
107	0x3fb80697b1e2f283	0.09385059445316739
108	0x3f8ea4cbd33a89da	0.014962761291205707
109	0x3fb334c6d6492dfa	0.07502405864322972
110	0xbfae99cf3f80f7cc	-0.059767223836828615
111	0xbfb4aa028af1e107	-0.08071914570053106
112	0xbfbea4d8ddf6989f	-0.11970286768937165
113	0x3f9f694dfd45caa1	0.030675142844709517
114	0xbfb741e61115ee69	-0.09084928433542817
115	0xbfc41fff5dc56c88	-0.15722648695632224
116	0xbfb82f1faeabf806	-0.09446905149886228
117	0x3fbcfac4067efa62	0.11320138128847071
118	0xbfc0e72885e9b857	-0.1320543912765426
119	0x3fb205bc0b8e40dc	0.07040000230904603
120	0xbfc26cb1c3809129	-0.14394208951956358
121	0xbf99d0f0c0dbdccd	-0.025211107035798364
122	0x3fbcea7380f896e7	0.11295244120318736
123	0xbfb5fe1fdcbd5c44	-0.08590888156082693
124	0x3fa05a5290133948	0.031939106070796586
125	0x3fb46e890c3b85ea	0.0798116354813129
126	0x3fb7ba9d1f994209	0.09269125005199198
127	0x3fbcee080bffc18b	0.11300707142777904
128	0x3f940c80594b772a	0.019578938913461
129	0x3fb36c1a745f9882	0.07586827603481264
130	0x3fb9e4aebc7b9e20	0.10114566899903155
131	0xbf90a00708ac4b0c	-0.01623545637546457
132	0xbf92e1f7f0bd3923	-0.018440126484443497
133	0x3fa82635b70f3d03	0.04716651782620753
134	0xbfa6c4ae3cc34cf5	-0.044469304005952205
135	0x3fa59623e4a099db	0.042161103876697324
136	0x3fbb0e8bd95efebf	0.105690708703146
137	0xbf8b0bc637bb2c1a	-0.013206051421908827
138	0xbfc366114c7a3a20	-0.1515523551392599
139	0xbfb259902b6778b9	-0.07167912540123468
140	0x3fb601e78488b661	0.0859665583199898
141	0xbfbb499b0f26f003	-0.10659188384937583
142	0x3fb3b44b11a7a6ce	0.07696980649020732
143	0xbfbe05fd2227963f	-0.11727888187268663
144	0x3fba0f42636c72a3	0.1017953388913591
145	0xbfb4e27a6a77dd4c	-0.0815807828838519
146	0x3fa59360099fef64	0.04214000813951094
147	0xbf93c1aff4f4f97b	-0.01929354603384457
148	0xbfb962803ab8b8a7	-0.09915925439483662
149	0xbfbca41e53a08d43	-0.1118792490165577
150	0x3fb28eba05c36477	0.07249033585266483
151	0xbfb277d58e57134c	-0.07214102482892065
152	0x3fbe06e8df5efe73	0.11729293301959291
153	0x3f87f9c8f2609cc3	0.01170689572980022
154	0x3fafd906f60d7abc	0.06220266107151448
155	0x3fb2a43572694cb5	0.07281812709088593
156	0xbf9f184f161061aa	-0.030366168710402576
157	0xbfb1456c568ffaaa	-0.06746556390133188
158	0x3fc01ae09740684e	0.1258202303441202
159	0xbfa8d22375865797	-0.04847822961453046
160	0xbfb6a0d4e29e99a6	-0.08839159519866388
161	0xbfc04121f505d874	-0.1269876905823285
162	0xbfbceb691379c8b5	-0.11296707845193306
163	0x3fafee69e2414035	0.06236582648182357
164	0xbfa23aadbea9320e	-0.035603932880437936
165	0x3fae3e2773e12d91	0.059067948241671726
166	0xbfa666fe7e24be45	-0.043754532717113416
167	0x3fa6c44859a6a42e	0.04446626753208026
168	0x3f624efd238d2536	0.002234930431232708
169	0x3fb6d1b2b4f3b380	0.0891372386719933
170	0x3fc038173ff3a4cf	0.12671175596850623
171	0xbfac176a004a1965	-0.05486613515408826
172	0xbf86f7829f62a5d8	-0.01121427582650629
173	0x3f94144383aa2222	0.01960854998699991
174	0xbf9cddef7930695b	-0.028190366527362936
175	0x3fb7391cdc75dc51	0.09071522123655142
176	0xbf7c0f221c687cdb	-0.006850369688009307
177	0xbf70169a3ee17dd2	-0.003927805444703352
178	0xbfbbf3c99b24c926	-0.10918865239799355
179	0xbfbde88aa7e4136c	-0.11682955359363029
180	0xbfb91309fa2df6df	-0.09794676168345572
181	0xbf86164d820ba636	-0.010784726649450165
182	0x3fbd7132afb13200	0.1150085143028221
183	0xbfa0f484d0beeaab	-0.033115530473385967
184	0xbfae80b83943277c	-0.05957580279353089
185	0xbf8d57706e5a9971	-0.01432693325780285
186	0xbfa99a9853560496	-0.05000759141240356
187	0x3f85cc4d4a757a15	0.010643581232838742
188	0xbfa6c02b8425a81d	-0.04443489063380943
189	0x3f78be7517285663	0.006041009316069076
190	0x3fba27ed903296ae	0.10217175264787201
191	0xbf85fd7a2175460a	-0.010737375398693256
192	0x3f87516d4f86cdb0	0.011385778417070863
193	0x3fa5a3a604ba9d2d	0.0422641640446336
194	0xbf6e939f16cd4b5f	-0.003732500763740473
195	0xbfb83076c20d63f1	-0.09448950040440686
196	0x3fc188d010834092	0.13698769384655357
197	0x3fb40294843697da	0.07816436984884892
198	0xbf9e547e03d621b3	-0.029619187339933805
199	0xbfb8cbe1584c25e7	-0.09686096578311486
200	0xbfbc472868139160	-0.11046078244141233
201	0xbfb65c231fc24942	-0.08734340215076933
202	0xbfbb0977d74972bc	-0.10561322217967989
203	0x3f6e598d6bf99df6	0.0037048113006681272
204	0xbf9096170154b02e	-0.016197547394014737
205	0xbfc23ff27b9db508	-0.14257651363315227
206	0x3fa6a4c72679e5cc	0.04422590584449501
207	0xbf9e0bfa3c9de2aa	-0.029342565488578977
208	0xbfa1e8bb16b796cc	-0.034978720210160213
209	0x3f9b742d9455bc6f	0.026810371569294163
210	0x3faad18759c6bd04	0.052379827221892966
211	0xbfa021f8139ae936	-0.03150916327781987
212	0xbfc14659ee6388b8	-0.1349594511039578
213	0x3fb6d5fced863a83	0.08920269774373861
214	0xbfbb551c846296a8	-0.10676744682367689
215	0xbfb9b500c8fb520e	-0.10041813761501592
216	0xbfb9bfccdb6caf62	-0.10058288914723115
217	0x3fa2c7dddce8552a	0.0366811115419899
218	0x3fba748a6bce189d	0.10334077007255123
219	0xbfbe7275b4a558d8	-0.11893401775646184
220	0xbfab2859a5765cd4	-0.05304222245029569
221	0xbfb2550aef62cd9d	-0.07161014885314505
222	0x3fb03b3c8d97c5e4	0.06340387780053153
223	0xbf7867476fa43878	-0.005957869574798484
224	0x3f9a7b51d193eba2	0.025861051956762922
225	0xbfa29e0add4c4b48	-0.036362018121642026
226	0xbf8e2ce446755e6a	-0.014734061622831269
227	0x3fa961a00b907864	0.0495729459873793
228	0x3fb68bc1806a41d2	0.08807000527509182
229	0x3fb2bb23c939ead3	0.07316802656888947
230	0x3f75ae9420a954e0	0.005293444274305531
231	0xbfc0b98b5323fcce	-0.13066236075972032
232	0x3fb774e9c6000271	0.09162770351395878
233	0x3faac720d17b6adf	0.05230047757296118
234	0x3fb60dc16ad2ce47	0.08614739282602911
235	0x3fb93670c11ef74e	0.09848694529406751
236	0x3fb4b81e3343db39	0.08093441726292107
237	0x3fa87cc90aec9fef	0.04782703646043262
238	0x3fa86c98df34d276	0.04770353054701541
239	0xbfb3ea0329b5b435	-0.07778949516587448
240	0x3fb962c11d9dcbba	0.09916312192016977
241	0xbf982b8419de642f	-0.023603500441456923
242	0xbf8cb959fde3ef48	-0.014025404987925719
243	0x3fbbac383fd1111c	0.10809661443733315
244	0xbfbf8cf3f26d132e	-0.12324452084164925
245	0xbf4bd490ad3e479e	-0.000849314349112829
246	0x3faa856f32b2e020	0.05179927343255053
247	0xbfb22400f83053a4	-0.07086187419220252
248	0xbfb0fffa632b0715	-0.0664059154614985
249	0xbfa3ff6db6e92280	-0.039058140352215
250	0x3f849838fa1e1a1e	0.010055966504080745
251	0xbfb8a047556586a2	-0.09619565806272104
252	0x3fb286da0dfb7b4e	0.07237017480245564
253	0xbfb93102d4b134f2	-0.09840409939461717
254	0x3f9c8f5c88ffc667	0.027890630590212597
255	0xbfb1a9e425932b20	-0.06899858395915404

feature_extractor.temp_conv1.bias f8 [16]
0	0x3fc24893ee4a3d1e	0.14283990035298982
1	0xbfc07494ebb14ddb	-0.12855779179027035
2	0xbfb8b0cf6efdb0ca	-0.09644791087856955
3	0xbfbf3453081d88fc	-0.12189215610627352
4	0xbfb431a0f86a75b3	-0.07888227524605078
5	0xbfc61f718b233b09	-0.17283458036259727
6	0xbfb0996840000000	-0.06484080851078033
7	0xbfc4adad8174a837	-0.16155022450522136
8	0xbfc208a1b9cc7bc8	-0.14088841983990918
9	0x3fc34d2543646ef7	0.15079179564133202
10	0xbfb782d8292a1f93	-0.09184027676576383
11	0xbfb9af8abfae7c87	-0.10033480815626393
12	0x3fcfd0573989d1d9	0.2485455542515769
13	0xbfb44daa7926ccc5	-0.07931008775522048
14	0xbfb114da260ba589	-0.06672442845196803
15	0xbfbc011b40000000	-0.10939188301563263

feature_extractor.batch_norm1.weight f8 [16]
0	0x3fe7335f00c86840	0.7250208869256838
1	0x3fee2e62f59107b6	0.9431624218197985
2	0x3feed45946432f39	0.9634214756310718
3	0x3ff0092ebf822c37	1.002241848068264
4	0x3ff0857afa0f60c4	1.0325879829379554
5	0x3ff3f818416fd4e4	1.2480700069548272
6	0x3ff0000000000000	1.0
7	0x3fef7f3d6158cbfc	0.9842821980768117
8	0x3fe8f34fd925c710	0.7797011605418636
9	0x3fe6a69ab929dd4d	0.7078374496913199
10	0x3ff055b79ae59fb1	1.0209270525610743
11	0x3ff0255c390b67bf	1.0091211536696247
12	0x3fe7803791b7cb67	0.7344014974645291
13	0x3fefcb752b91cece	0.9935861445396428
14	0x3fef8a72ad24ed9e	0.9856503850673339
15	0x3ff0000000000000	1.0

feature_extractor.batch_norm1.bias f8 [16]
0	0xbfc6eea50be1384c	-0.17915785865847267
1	0xbfc3daa52519489b	-0.15511001883948414
2	0xbf9d4534309f2664	-0.02858430430186444
3	0xbf91c9aa8f83ee62	-0.017370858201486768
4	0xbfb3e0a5ee94ee19	-0.07764660906553224
5	0xbfd943c149a12dc7	-0.39476043882742967
6	0x0000000000000000	0.0
7	0xbfbc9fff78ba6540	-0.11181637475455819
8	0xbfd976fdd4a0188d	-0.397887666360824
9	0xbfc7bfcf171935d5	-0.18554104450087885
10	0xbfb45bea5e0ae59f	-0.07952751918755617
11	0xbf779f1909434b46	-0.0057669618583585155
12	0xbfc39e1330fe43c6	-0.15326156513449812
13	0xbf7fca2dde01b6fc	-0.007761172455600148
14	0xbfa8388354ab7404	-0.047306160054837704
15	0x0000000000000000	0.0

feature_extractor.batch_norm1.running_mean f8 [16]
0	0x3fc233dd259f064f	0.1422077592560975
1	0x0000000000000005	2.5e-323
2	0x0000000000000005	2.5e-323
3	0x0000000000000005	2.5e-323
4	0x0000000000000005	2.5e-323
5	0x3f817072ba37984a	0.00851525908269592
6	0x0000000000000000	0.0
7	0x0000000000000005	2.5e-323
8	0x3f820af0eefceea2	0.008809931081138093
9	0x3fc337745d20a79d	0.15012983844036124
10	0x0000000000000005	2.5e-323
11	0x0000000000000005	2.5e-323
12	0x3fcfada68ad505cb	0.24748689440643398
13	0x0000000000000005	2.5e-323
14	0x0000000000000005	2.5e-323
15	0x0000000000000000	0.0

feature_extractor.batch_norm1.running_var f8 [16]
0	0x3f74ac6ae2dba348	0.005047242664411318
1	0x0000000000000005	2.5e-323
2	0x0000000000000005	2.5e-323
3	0x0000000000000005	2.5e-323
4	0x0000000000000005	2.5e-323
5	0x3f3d2e8f72a5f332	0.00044528009552617924
6	0x0000000000000005	2.5e-323
7	0x0000000000000005	2.5e-323
8	0x3f406be81a6b308d	0.0005011447254559418
9	0x3f76a40b745920f2	0.005527539009172454
10	0x0000000000000005	2.5e-323
11	0x0000000000000005	2.5e-323
12	0x3f8cf74430a56850	0.014143498167573793
13	0x0000000000000005	2.5e-323
14	0x0000000000000005	2.5e-323
15	0x0000000000000005	2.5e-323

feature_extractor.temp_conv2.weight f8 [16, 16, 1, 51]
0	0xbfa09d7bca31151f	-0.032451504165275084
1	0xbfa45a125e407abc	-0.03974969292197758
2	0xbf93a4e3569bf0f0	-0.019183685456469257
3	0xbfb1c6e7490f5509	-0.06944127591789963
4	0xbfa0e17982bfa924	-0.0329702350716892
5	0xbfa1cef249f2b57c	-0.034782001044145056
6	0xbf5a3ed4726df78b	-0.001601893871082424
7	0xbf96e799e34007b2	-0.02236786317371981
8	0xbf81a14091f9b985	-0.008608345465486842
9	0xbf998154c264164d	-0.0249074214598493
10	0xbfa2083d676faaac	-0.03521911513947393
11	0xbf995e5b41751772	-0.024774003858758893
12	0xbfb3ca6a65ec402a	-0.0773073672137349
13	0xbfb25a28e31a7c76	-0.07168822807806116
14	0xbf9ed6f95e02491d	-0.03011693607602083
15	0xbfb271f9c1370de4	-0.07205162970699736
16	0xbf989f77a5e618d7	-0.0240458197599985
17	0xbfb244a2e3d60070	-0.07135980665589314
18	0xbf96211c0fb639da	-0.021610678156827358
19	0xbfb16f3deafd3eeb	-0.0681036661819651
20	0xbfb3c0b294137538	-0.07715908160340212
21	0xbfb0716568c4b7ea	-0.06423028762648611
22	0xbfb0adb51cf008ac	-0.0651505656860844
23	0xbfa3af2e1ad98d6f	-0.03844589307552836
24	0xbfb2d43d8bdb0861	-0.07355103172724987
25	0xbfa14d83602c61ab	-0.03379450367919231
26	0xbf83e9a3144fc25c	-0.009722971017226793
27	0xbfa2ef701c077f62	-0.03698301641611469
28	0xbf8e74673f2f3563	-0.014870459190116042
29	0xbfb044a6ed3967df	-0.06354754726035548
30	0xbfaf4eb98f4be814	-0.06114749788498855
31	0xbfa6d6a51d89b9a9	-0.04460636125155599
32	0xbfa89dfd5b07426c	-0.048080365526065844
33	0xbfabff2db9c332d3	-0.05468123333557675
34	0xbfac0eb80a258364	-0.0547997963319691
35	0xbfad04652bf8eb89	-0.05667415773174073
36	0xbfaf98203a24921f	-0.06170750341178554
37	0xbfaa49f95cef4c89	-0.051345627398085965
38	0xbfb32f4d57ee79ca	-0.07494052311674362
39	0xbfa7bfa6cc59248d	-0.0463840603302482
40	0xbf959829dc7b3aef	-0.021088270265688654
41	0xbfa430e89c8e51ad	-0.03943564330180336
42	0xbfab6fb8dee62028	-0.05358674736913854
43	0xbfb26872a56dd0a1	-0.07190624750893672
44	0xbfaffafa86a4695a	-0.062461689887828256
45	0xbfaad976cb3b44f5	-0.052440368946585915
46	0xbfa1386e9c83bb33	-0.03363366756990729
47	0xbf973a24086656b0	-0.022682726872139625
48	0xbf8521a43edbf2e6	-0.010318072479543482
49	0xbf8160194d6ce8e7	-0.008484075236641476
50	0xbf917858fddc5482	-0.017060652250695536
51	0x3f9aefe92503f4d9	0.026305811771625585
52	0xbf8141035ffd748d	-0.008424784056553026
53	0xbf8fd206886273b3	-0.01553731063568784
54	0x3f91ee78f98d25c3	0.017511263114362807
55	0x3f985534809186e1	0.02376253161162978
56	0x3f988448214536d5	0.02394211485925875
57	0xbf47fc28a0a0e399	-0.0007319639564747792
58	0x3f91f170d58ff0c2	0.017522585902029382
59	0xbf90f9a9bb0bc176	-0.016577388802887914
60	0xbf95dccf1d45da78	-0.021350132142709616
61	0x3f08d74e8168df30	4.738052682678876e-05
62	0xbf89f27c88abf6b3	-0.012669537468805591
63	0x3f68cfee6848a335	0.0030288368600576384
64	0xbfa1caa5711ef8b2	-0.03474919324752203
65	0xbf8a5ce8705fb3f4	-0.012872520379426412
66	0xbf9b509c189df0f8	-0.026674689295291792
67	0xbf9013ef6634fa57	-0.015701046574799395
68	0xbf87abc10de92a25	-0.011558063733123689
69	0x3f91584edcb83d89	0.01693843099752493
70	0xbf95c7dc0b8b042d	-0.02127021618321494
71	0xbf986eb59a622121	-0.02385982279568666
72	0x3f85922a7ef8abc6	0.010532695770128952
73	0xbf8abb59a804c490	-0.013052654685994619
74	0x3f714cd3ba92bbcb	0.0042236586242969205
75	0xbf8c1bbbc10450e8	-0.013724772289187517
76	0x3f92d731e36911fe	0.018399028306037117
77	0xbf90e8ab6707d8a5	-0.016512563861362257
78	0xbfa356a1f8e8d035	-0.03777033008046297
79	0xbf95d61d3bc76ec2	-0.0213245933281161
80	0xbf6aeaeb706d01a2	-0.003285846559635001
81	0xbfa3e16724518bbf	-0.03882906263677154
82	0x3f9065b000e72d8f	0.016012907080762025
83	0x3f9859c47ee0685d	0.02377993606942429
84	0xbf6c83684613f6b8	-0.003480628642704566
85	0x3f8db85e5b47470f	0.014511811409565504
86	0xbfa5338aa4092b7f	-0.04140885593786602
87	0xbefb227ef5cecf66	-2.5877713926993928e-05
88	0xbf9dbf0e646a126c	-0.02904913413887515
89	0xbfa4ba4772fd32bd	-0.040483696734189924
90	0x3f92ffda3787d950	0.018554124488184442
91	0x3f99370f8cdc7bf3	0.024624102566232108
92	0xbfa36bfc45f5ff6e	-0.03793323854460949
93	0xbfa2a50587ae4f2c	-0.03641526490460331
94	0xbfa0426a8f880e34	-0.031756715794497486
95	0x3f9c278bc7330f21	0.027494606049699336
96	0xbf9af94a9efe58dd	-0.026341596559711234
97	0x3f5ff47981025e9b	0.0019503771364152492
98	0x3f7e6eb67ed8c398	0.007429802773501935
99	0x3f96c2a5d4c2b9d9	0.022226897345427907
100	0x3f97c1ee052e14a8	0.0232007208501456
101	0x3f8969f6513bdd43	0.012409138063488206
102	0x3f9fdf1ba604bf95	0.031124526985137974
103	0xbf66cfc5bcc476a1	-0.0027846204813063023
104	0x3f8535fe60a56d1d	0.01035689098778519
105	0x3f9505fe6bc41be7	0.020530677154081103
106	0x3f84d3af6fe18b74	0.010169382669294548
107	0x3f802b3d2a991542	0.007894971716391756
108	0x3f41ebed69f74a4e	0.0005469235656455158
109	0xbf93900f0f206f76	-0.019104228304157776
110	0xbf7cc214cf3ac996	-0.007021027838776913
111	0x3f826563be60f1a5	0.008982447860142193
112	0x3fa39df87845a9cb	0.0383145949188762
113	0xbf7b36838765df1a	-0.006643785271414316
114	0x3f98bbc3ea265722	0.024153767744414918
115	0x3f8b6e9581d555cd	0.013394516014765845
116	0x3fa26000f3382f3a	0.03588870018947295
117	0x3fa1826eb2fe1fad	0.034198245382014526
118	0x3f90b87f54ba3f87	0.016328801676138063
119	0x3fa33b4a6b1ec749	0.0375617271196363
120	0xbf8c75ec27a9a479	-0.01389679428139544
121	0xbf96901604ba9b0c	-0.02203401950705612
122	0x3f93df4b811bf224	0.019406490092466325
123	0x3f9bb74c5ff62c3f	0.027066415173561117
124	0x3fa3c2c0a8f95a0c	0.03859521925612705
125	0x3fa0cb054d13d52c	0.03279892507445434
126	0x3f8291f06e4291ab	0.009067419400090445
127	0x3f9ead0a7113df12	0.029956973220548973
128	0xbf886362bcc4b7c0	-0.011908313165431283
129	0x3f70971bc13aaaca	0.004050358216469882
130	0x3f8c85552cc64c98	0.01392618697062735
131	0xbf9c1ee018e5ab49	-0.027461530227280737
132	0xbf98c67e235afdb4	-0.02419468966286127
133	0x3f87a4a329e37e69	0.011544489589538647
134	0x3f91064df3902b91	0.016625612250247782
135	0x3fa06f9a9cecc397	0.03210147061907447
136	0x3f8874251c697aa8	0.011940278939787177
137	0x3f9239974845c414	0.017797817026295418
138	0xbf8e1a7b65c00de3	-0.014698947947187463
139	0x3f9baaa6725afde7	0.027018166284276914
140	0x3f9246ba0d25f841	0.017847926189908717
141	0x3f92b31b43ff7ec4	0.018261362099905268
142	0xbf84811481d66daa	-0.010011825764016564
143	0x3f7afbd19533f933	0.006587809260280064
144	0xbf9c96e0dedef9dc	-0.02791930542275077
145	0x3f9bdf60121ab3f6	0.027219296555518434
146	0x3fa04e60086832b7	0.031847954775093106
147	0x3fa10f133a899b0b	0.03331813897675858
148	0x3f8b6d461a25389d	0.013392017052549493
149	0x3fa268650fe5d419	0.03595271891655489
150	0xbf88f8cad1ab86bb	-0.012193283580418926
151	0xbf864103a2c1476f	-0.01086619224966842
152	0x3f8390acf3da66c8	0.009553290550047847
153	0xbf95789a551cd7ae	-0.020967875904908055
154	0xbf918af013d2309b	-0.017131568155079973
155	0xbf707a47586400f3	-0.004022864048465846
156	0x3f96306113e7ca1e	0.021668927040034196
157	0xbf906b8d6e6499f2	-0.016035280096867006
158	0x3fa1f9e8111f8306	0.03510976037046558
159	0xbf81e07fe8513041	-0.008728980328804538
160	0xbf6ed8063737c6f0	-0.0037651177788057197
161	0xbf6c66523cc18658	-0.0034667593190967176
162	0x3f5a4894024fe603	0.001604218044347739
163	0x3f910c7a02f0f611	0.016649156980056704
164	0x3f8bd45826daad28	0.013588608442054964
165	0xbf90b8c1d7b0b7a9	-0.0163297927758134
166	0xbf92a8e26bf7af06	-0.018222368087591277
167	0xbf8f1206475c3b0a	-0.015171097805731577
168	0x3fa141e32e1c303a	0.033705806139636654
169	0xbf9b0f20f1d8bacf	-0.02642489887346749
170	0x3f7137e986ac6b64	0.0042037126647994395
171	0x3f6c6a86a861ac40	0.003468764308356437
172	0xbf88b6079d179b4f	-0.012065944177221203
173	0xbf63185399d3e2e0	-0.002330935748087945
174	0x3f79aca69be62f13	0.006268168274242719
175	0x3f9105883373d889	0.01662266553918149
176	0x3f9fba6f24ee3ac1	0.03098462736994168
177	0x3f947087cf46eca4	0.019960519815623315
178	0xbf8e04af93d82caa	-0.01465737504897498
179	0x3f6fd4201b146d12	0.003885328966715237
180	0x3fa31ba473670d14	0.03732026966783955
181	0x3fa16dd372264eea	0.03404103058269732
182	0x3fa1e26b8c295ebb	0.034930573329515956
183	0x3f9303bd19fd1ce1	0.018568949424005225
184	0xbf96a355dca31e13	-0.022107450095772373
185	0x3f99cde8c969419e	0.025199544232522457
186	0xbf90f9e6f1f3767e	-0.016578300969618535
187	0xbf4fc96c1a7d1545	-0.0009700563286762295
188	0x3f9aad18af1c5e00	0.02605093544761239
189	0x3f9b7d58493a5dd4	0.02684534022281844
190	0x3f859052621f4869	0.010529178256465781
191	0xbf5f8da84479e988	-0.0019258635747108916
192	0x3f9d299dbd2de2d3	0.028479065581879247
193	0xbf809bafbf564440	-0.008109448458329394
194	0x3f79fb64017f0240	0.006343260429219344
195	0xbf99299505b43689	-0.02457268569292251
196	0xbf8f1ffb80442652	-0.015197720386385036
197	0x3f9757e917e28b1c	0.022796289522953747
198	0x3fa18d53bbac4260	0.03428136506966406
199	0xbf39dad754aa3057	-0.00039451367471410786
200	0x3f5eca83d18f2741	0.0018793380061076922
201	0xbf7ba29a4c37f184	-0.006746866918089348
202	0x3f601193b6329593	0.0019615063661883674
203	0x3f9b6a8a9bbd2fb0	0.026773610835604422
204	0x3f9c52acf6e24510	0.027659132546038967
205	0xbf84b3c924600186	-0.010108539030625929
206	0x3f85164a7f6d7f65	0.010296422971520955
207	0xbf9c93ecabc14bc4	-0.027908037169549052
208	0xbf5213bd19631ae8	-0.0011033388778273704
209	0xbfa2596d5baba560	-0.03583852523827136
210	0x3f87a6a182a5f47c	0.01154829196888784
211	0xbf892dd7500ebfd5	-0.012294466143288144
212	0xbf99578d17b5a693	-0.02474804360591649
213	0xbf6ec2df7401d578	-0.0037550319976228895
214	0x3f62a98cb5f1cd7b	0.0022781131988779935
215	0xbfa13fddbcb6e63c	-0.03369038513796993
216	0xbf93ac9e29e81ad3	-0.019213172252444743
217	0xbf78611537886196	-0.005951960447895385
218	0x3f972f80dd8a86e2	0.022642148515507617
219	0xbfa413c669b993e8	-0.0392133716639263
220	0xbf866feb40dcf028	-0.010955655972445369
221	0x3f93e394ebb9a947	0.019422842872168358
222	0xbf6c20832fffa70c	-0.003433471894813139
223	0x3f92a124a3d33ce1	0.01819283723744725
224	0xbf860e126b9addef	-0.01076902762302631
225	0xbf75cb14fa1ee21a	-0.005320627156770752
226	0xbf8b4db08e68853a	-0.013331775041538142
227	0x3f50401acbe4529b	0.0009918462452037982
228	0x3f99612099adee53	0.024784573917243268
229	0x3f946ad03a034e07	0.019938710728480327
230	0x3f9440e2a1f884f3	0.01977876771536997
231	0xbf775e933268061c	-0.005705428111924895
232	0xbf79c450851c0844	-0.006290735751237678
233	0xbf9ba0069f62f27a	-0.02697763774698323
234	0xbf89d8c26fcb6701	-0.012620467220972655
235	0xbfa064f9bc7cc172	-0.03202038217421234
236	0xbf9a5c0f5b65d63f	-0.02574180598590758
237	0xbf8bd0f1ff23af78	-0.013582125281082588
238	0x3f95cf86e0ab4db1	0.021299464667050298
239	0xbf71d7236d3ae30e	-0.004355562577693884
240	0x3f73a48e057d78f3	0.004795603534004866
241	0x3f8be4059ed0db30	0.013618511113333648
242	0xbf94e0a44d462f64	-0.02038819047588393
243	0xbf9ba57052052a84	-0.02699828625308466
244	0xbf960da31f6dd611	-0.02153639678313907
245	0x3f9709efc7c70760	0.022498842781494388
246	0x3f84ce602013b219	0.010159255007658395
247	0x3f81387225702837	0.008408443229218061
248	0xbfa02ecd15cc062a	-0.031607064162028145
249	0x3f83562b7610983b	0.00944169954352613
250	0x3f85463c2b5ac1a6	0.010387868950915213
251	0xbf8bc54555f17cde	-0.013559858022004819
252	0xbf8926e7bcb22ef5	-0.012281237073942
253	0xbf7ce38e8073ea72	-0.0070529524302808
254	0xbf96b087ff28f354	-0.022157788227775768
255	0x3fa0333d52dda916	0.03164092670961531

feature_extractor.temp_conv2.bias f8 [16]
0	0xbfb19f69feaaad2e	-0.06883871524285176
1	0xbfbec81c8e4cc318	-0.12024095987431982
2	0xbfc4e0f59559b9cd	-0.163115213322682
3	0xbfadb8ab887313f4	-0.058049545675693454
4	0xbfb66376b54ff699	-0.08745519568034367
5	0xbfc3c590dfe61c8c	-0.15446673328935778
6	0xbfa47205a80f3d09	-0.039932419552878136
7	0x3f83144f2955f157	0.009316080521551013
8	0xbfc1a156c3da14c4	-0.13773617327766463
9	0xbfb85b370f7196fa	-0.09514183165591908
10	0xbfba2d9b5a13ca36	-0.10225840520050941
11	0xbfbe070c28af3294	-0.11729503625174181
12	0xbfb477f30ead429b	-0.07995528324432614
13	0x3fb4873b3fd49ec3	0.08018846805918671
14	0xbfbc6aec36a9647c	-0.11100651106370835
15	0x3fb562ea4277e396	0.08354057429086334

feature_extractor.batch_norm2.weight f8 [16]
0	0x3fefbfe71982aa2b	0.9921756265878846
1	0x3fe9fe942ba8802c	0.8123265125941592
2	0x3fea9bfc5403dfed	0.831541217891752
3	0x3fef085329ca0e4a	0.9697662178227315
4	0x3fec09ef2f2398e3	0.8762126846966364
5	0x3fec04ed3eac4a2d	0.8756014083940663
6	0x3ff146344228dbc5	1.0796396812781819
7	0x3feaf23af7024688	0.8420691322700842
8	0x3feb71cd60100776	0.8576418758604933
9	0x3fedef0fe15b775c	0.9354323770055362
10	0x3fed5f14b8b0c40c	0.917856560443512
11	0x3fedf9004cf224e0	0.9366456511353611
12	0x3ff00b3dafb5a225	1.0027443755772165
13	0x3fe788bfcf0b44d0	0.735443024046754
14	0x3fef30c3e5b24232	0.9747027860885906
15	0x3fe51f4332f15c2b	0.6600662226654824

feature_extractor.batch_norm2.bias f8 [16]
0	0xbfca11123fa01592	-0.20364597422318959
1	0xbfceb4ddcc79c59f	-0.23989460453189523
2	0xbfd05e3a28be8628	-0.2557511709111133
3	0xbf694d0f021bd209	-0.003088502228701499
4	0xbfcc82a2f0ae4a2f	-0.22273670913689744
5	0xbfca051d63b9af8f	-0.20328109139824987
6	0xbf65f31ca17120c8	-0.0026794013206520063
7	0xbfd37404b9a0a469	-0.30395620467840573
8	0xbfcc932de39c80eb	-0.22324155439219537
9	0xbf9f1aef00b0976a	-0.03037618104658383
10	0xbfd17469fd1a255b	-0.27273034779553534
11	0xbfc9ff7517f00cc4	-0.2031084410556102
12	0xbfca88284bfcd537	-0.2072801943810789
13	0xbfd3b08b099896d7	-0.30765033661951463
14	0xbfcb653dd0bd08ff	-0.21402714435868828
15	0xbfd052a554f6448e	-0.25504430100506503

feature_extractor.batch_norm2.running_mean f8 [16]
0	0x3fecab0ddd2bc3bf	0.8958806342835642
1	0x3fe2158e44b198cd	0.5651313153910223
2	0x3fe296e9461372a0	0.5809217804595228
3	0x0000000000000005	2.5e-323
4	0x3fefbc5b1106601c	0.9917426426427514
5	0x3fe25a11555317dc	0.5734945932861097
6	0x3ffa7fb73cb80a70	1.656180607970466
7	0x3ff0a9342ee39c58	1.0413095313649787
8	0x3fe2823034408a37	0.5783921261357311
9	0x0000000000000005	2.5e-323
10	0x3ff0a5609647ca3e	1.0403753156976019
11	0x3fee95400aee034c	0.9557190144988481
12	0x3fe459569c270c3b	0.6359055566648587
13	0x3fe1bd52ef646aed	0.5543608356122981
14	0x3feeba666ae237a2	0.9602539146014701
15	0x3fee9e2dc9f9d1cc	0.9568089432564704

feature_extractor.batch_norm2.running_var f8 [16]
0	0x402959d65cb2712e	12.675463578016743
1	0x400ea5d5b0854269	3.8309739866893335
2	0x40106be66dfacf6d	4.105371206696742
3	0x0000000000000005	2.5e-323
4	0x402a4fba4169ea5b	13.155717891863949
5	0x400ff035e9071fbd	3.992290325670153
6	0x40314eaee067386d	17.30735590477018
7	0x402a4af8fdd07a2e	13.146430904101262
8	0x4010152c0a995d07	4.0206758171182235
9	0x0000000000000005	2.5e-323
10	0x402be970be0add94	13.955938280893669
11	0x402976712e447481	12.731332250458083
12	0x401f53cac5265bb9	7.831828194109158
13	0x3fef4c5971c4781d	0.9780699941654835
14	0x402ad05c5e331f8c	13.406954711666707
15	0x4000c2d0d699074d	2.095124889893589
