saved_models/decoder_epoch16.pt (torch_old, 480736 bytes, 2 tensors)

linear1.weight f8 [12, 5000]
000000 e0 f1 40 14 e6 af 8e bf 15 96 52 46 7b 42 5a bf
       -0.01498393773373946 -0.0016027644972295186
000010 ec 0f b9 6b 7b 56 87 bf 5e 31 a9 6e 55 31 83 bf
       -0.011395420288984291 -0.0093714403530149
000020 35 6e 70 4d 66 68 7f bf fa 94 f0 c4 8c 0a 80 bf
       -0.0076679226104050995 -0.007832622299313464
000030 5c 03 c7 b4 59 9b 60 bf 2b c7 cf f5 c4 a1 8d bf
       -0.0020272018502684296 -0.014468706847739895
000040 15 5d 37 f1 d8 4f 6c bf 63 a2 47 8b b4 ee 87 bf
       -0.003456042971929594 -0.011685762882693134
000050 5b 4d 1c 56 e1 60 84 bf 2f 18 53 23 1b 66 83 bf
       -0.009950409355531311 -0.009472095504303805
000060 21 d2 d3 1e 63 28 91 bf a7 26 a0 74 a0 6d 64 3f
       -0.016755627399975496 0.0024936803720308656
000070 1c 54 08 b9 11 0e 61 3f ad 2c ba 89 c3 f9 88 3f
       0.002081904043971251 0.012195136681177077
000080 8f f3 e2 ed fc 63 8b bf ba 7f 0b a7 25 8a 51 bf
       -0.013374305734368068 -0.0010705344868071468
000090 ff 92 cb a6 73 e8 6f bf 63 14 8d c5 ff e5 6e 3f
       -0.0038950213259901774 0.003771781496114944
0000a0 24 49 b7 95 4b 07 3c bf 1a e5 dc de 00 82 85 bf
       -0.00042768092472757397 -0.010501868058428832
0000b0 56 9b 16 49 ec 7b 5a bf 98 b5 e6 54 a2 0f 81 bf
       -0.001616459605750816 -0.008330600944499264
0000c0 1d 67 e9 85 57 a3 84 bf 4e 3f ce f5 6c db 84 bf
       -0.010077174925004645 -0.010184146167176469
0000d0 76 45 0a 13 d0 13 7b bf 4d 91 7a c3 ec 40 8b 3f
       -0.006610691824464046 0.013307428088702134
0000e0 48 c1 8d 67 cd 08 61 3f b2 13 50 b0 30 99 82 bf
       0.002079392605473771 -0.009081249600066819
0000f0 09 5a c4 78 7f 60 80 3f f0 67 f5 a7 a6 45 7b bf
       0.007996555207268068 -0.0066582212451411354
000100 2f df 93 50 cb 79 81 3f 25 26 0a 8b c6 ca 7c bf
       0.008533085247549003 -0.007029319342686279
000110 e6 dc 22 d4 5b 6b 72 bf 35 0d cc 2e 14 6d 7d 3f
       -0.004496916490260383 0.007184103812281341
000120 e9 17 1b 42 a0 35 81 bf c2 a2 40 25 37 74 86 bf
       -0.008403064744367543 -0.010963850807529044
000130 2e bf 88 37 b7 96 6c bf 63 ea 2f a1 9e 0c 67 bf
       -0.0034898355918570245 -0.0028136347041230344
000140 db 69 b6 5a fb 35 8f bf 21 54 47 c9 a6 64 78 bf
       -0.015239680963351645 -0.005955363758819694
000150 6b dc 51 50 f2 e0 83 bf 0a 16 1c ff 2c 56 92 bf
       -0.009706395221867411 -0.01790685946527585
000160 fe 4a 49 73 6a a1 70 3f 01 4e 11 6b 57 80 71 bf
       0.004060188123349516 -0.004272786595794554
000170 f0 a2 e5 b6 4b ff 78 3f ff 38 be a9 31 ac 00 bf
       0.006102844008957872 -3.1800523372914676e-05
000180 44 92 06 e6 b3 55 74 bf 6c f0 6b b3 3a 6f 7b bf
       -0.0049645449911719965 -0.006697873401886861
000190 07 ba 2d bb 09 12 8d bf 12 80 52 dd 6c d4 80 bf
       -0.014194561028230813 -0.008217669014186444
0001a0 f3 60 3c 16 03 e6 92 bf f4 cc 9c 49 ca 26 88 bf
       -0.0184555513688744 -0.011792736407733241
0001b0 94 53 38 b8 4e e4 8b bf 53 18 fe 5b 34 64 6e 3f
       -0.013619055745076193 0.00370989061770203
0001c0 37 52 d2 d8 e6 a9 93 bf 5d b6 f1 db d8 64 47 3f
       -0.01920281122564146 0.0007139262087442856
0001d0 03 2b 0c b5 53 e9 80 bf b8 5b 78 d6 fa c8 86 3f
       -0.008257535898811513 0.0111255261136146
0001e0 e5 7f 65 c8 bf 59 85 bf 1f d0 e0 28 26 b3 8e bf
       -0.010425089171519583 -0.014990137217047615
0001f0 34 43 6e 9f 49 ca 83 3f 5d 8d 5d bd 0b 58 85 3f
       0.00966317670625614 0.010421840397333676
000200 fc 05 a9 f3 c7 d7 67 3f 75 3d 7f 79 43 e8 81 bf
       0.0029105096157600024 -0.0087437888577415
000210 48 e5 63 8a 00 32 83 3f f5 79 f0 06 14 f1 67 bf
       0.009372715209326046 -0.0029225722460204336
000220 18 c8 ee 94 4a cb 3c bf 47 90 39 63 d7 c9 82 bf
       -0.00043936320156057326 -0.009174044337847088
000230 a8 75 71 f9 0c 25 74 3f d6 87 b2 31 91 e3 7a bf
       0.004918146783066936 -0.006564681210109632
000240 0b d2 e4 d2 dc a4 7a 3f 77 ff 22 06 29 3f 5b bf
       0.006504881470665423 -0.0016630077957841807
000250 83 1a d1 ec ca 1a 62 bf 5c fe 6b b4 07 ac 8d bf
       -0.0022100413685025035 -0.01448827761987486
000260 c1 b6 74 59 bb b1 8b 3f c2 06 fb e9 73 18 81 bf
       0.01352259032008918 -0.00834742124368704
000270 7b e2 e9 5e 3b d5 38 bf a9 c7 7b 11 8c f6 77 bf
       -0.0003789205501685611 -0.005850360051896355
000280 a8 e2 77 8f ce 68 53 3f e0 93 26 b0 2e 17 82 bf
       0.0011846558753615764 -0.008833279371922076
000290 0e 9f 1c 08 16 4b 89 bf 67 79 94 2e a8 a4 86 3f
       -0.01235024654631858 0.0110562457289773
0002a0 1f 25 57 9f 24 91 7c 3f 8f f6 6e de c5 ba 8d bf
       0.006974356705037792 -0.014516397333746127
0002b0 52 4e 31 36 7b 3c 82 3f bd e7 0d ff 62 9b 88 bf
       0.008904421416594453 -0.012015126618042044
0002c0 cf ed c4 4d d0 2a 54 3f ea 91 84 3f 75 5b 70 bf
       0.0012309107033406823 -0.003993471146064279
0002d0 15 52 7a 37 7a f6 62 3f 6b fe fe 93 b4 55 81 bf
       0.002314795212280405 -0.008464251295549027
0002e0 36 91 6f fa 59 e3 82 bf 9d 43 00 d6 b4 8a 77 bf
       -0.009222701029962904 -0.005747515097042658
0002f0 47 a8 33 c0 81 25 66 3f 09 cc 0c 85 a8 fe 80 3f
       0.002703431529529818 0.00829822212253896
000300 ef 16 0c 2c 43 46 80 3f 48 e4 38 f8 93 bd 8a bf
       0.007946514875139836 -0.013056903851167104
000310 1c ec ae 44 a0 b7 85 bf a4 c8 74 97 e6 6d 71 3f
       -0.01060414514164703 0.004255200146234515
000320 78 d2 ba 6f c0 9a 76 3f 7c 2d 01 03 15 56 5a bf
       0.005518676476346067 -0.0016074376290074735
000330 84 7a fa e0 14 0a 77 bf e1 19 eb 05 21 1e 80 bf
       -0.0056248488978371015 -0.007869966500391125
000340 89 da 15 1b df f5 8c bf ce 12 ac 2a 99 77 7e 3f
       -0.014140837682800072 0.0074382765840296915
000350 ab 52 b3 b6 d2 fa 82 3f cf 0c 94 3d ff 39 6d 3f
       0.009267469597412278 0.0035676942030718815
000360 0f f5 44 08 6d e0 71 bf dd 80 02 e9 df 63 88 bf
       -0.004364419848852621 -0.011909245775598648
000370 49 9d ae bb 4f 1d 78 3f 50 38 d7 75 38 0b 7d bf
       0.005887328584243187 -0.007090778873545103
000380 f5 46 f3 74 02 f2 90 bf 1f 4e 8b 6b aa c5 88 bf
       -0.01654819334800713 -0.012095767409312562
000390 72 fb d1 88 77 0b 93 bf 91 ab 51 bc 10 02 22 3f
       -0.018598430372090254 0.00013739065449000197
0003a0 e8 e7 86 f3 1c 02 81 3f 10 f8 8d c2 ea 67 80 bf
       0.008304811651090163 -0.008010706007322482
0003b0 2c 3c fe 88 86 72 61 3f f7 34 d7 d9 9f 70 70 bf
       0.0021298053397411833 -0.004013657014593656
0003c0 3c 84 f3 cf 47 38 85 bf 8f 8a 62 e6 a7 a1 44 bf
       -0.010361252816837412 -0.0006296224426203966
0003d0 2b d0 1f 99 db ee 91 bf 45 15 be 7f ae f7 80 bf
       -0.017512732716525797 -0.008284915231124965
0003e0 7c 08 23 a0 7c 10 85 bf 59 32 19 ec 8b 64 72 3f
       -0.010285352360714699 0.00449041993267637
0003f0 de 61 8f 38 1b ed 91 bf 9a ae 1a 62 13 7c 92 bf
       -0.01750605137553573 -0.018051436293417746
000400 12 74 9e 4e 45 02 84 bf 38 19 6c 5c 10 69 7b bf
       -0.009769956075439654 -0.006691993627788322
000410 31 b9 23 00 da 68 81 3f 20 04 38 f5 da 50 61 bf
       0.00850076973844391 -0.0021137501260004715
000420 23 5d cb 8a 2e 57 87 bf aa 75 2a 4f 9c 7d 81 3f
       -0.011396754847210538 0.00854036442370439
000430 a8 fb 16 5f 62 f5 8a bf 57 8a a0 19 11 20 74 3f
       -0.013163345839414323 0.004913393780983619
000440 33 0a 51 ab 31 54 86 3f 92 c1 4b a6 1a 86 89 bf
       0.01090277484957367 -0.012462814521740726
000450 e7 77 33 41 a5 aa 84 3f e1 93 4d 5b 07 83 7e 3f
       0.010091105510976873 0.007449177491115373
000460 e0 53 8d 45 d0 17 32 bf 47 15 53 ca 91 81 88 bf
       -0.00027607760198594504 -0.011965884196238575
000470 bf 06 1f eb 60 14 7d bf 57 43 de 09 dc 15 82 3f
       -0.0070995126606605 0.008830756236223243
000480 1c d9 13 55 46 d6 8b 3f a1 fa a4 93 93 22 7f 3f
       0.013592290374145714 0.0076013340679411965
000490 2b 14 22 fc 62 00 81 3f 5f e7 2b 46 e6 72 82 3f
       0.008301518744938082 0.009008215919937333
0004a0 8e f9 7e 67 81 8c 6f bf d0 75 96 2e 03 58 91 bf
       -0.003851177923905164 -0.016937303274621673
0004b0 c1 51 c7 fa 62 6b 7b 3f e4 fa 06 4e e2 77 90 bf
       0.0066942087546135185 -0.016082321178823814
0004c0 9b 86 90 cf aa 1f 60 bf 7a cd 55 14 71 3c 62 bf
       -0.0019682251118105626 -0.0022260864813518607
0004d0 d3 7d e9 ba 73 e4 89 bf 68 b0 68 f1 10 15 8b bf
       -0.012642768994907272 -0.013223774306503525
0004e0 55 0b 5c 64 e1 68 82 bf 2a 70 fb d5 df 75 71 bf
       -0.008989106059294075 -0.0042628043736066355
0004f0 bd 7c 9a 69 de ae 8d bf 20 37 33 f1 c5 33 5d bf
       -0.014493692014467258 -0.001782363226812085
000500 7c 34 3d 91 36 39 5b bf 3a fd c4 76 97 a8 8e bf
       -0.001661589897554521 -0.014970000564629705
000510 51 1c 88 15 27 e9 6f 3f cd b0 79 84 7a 63 82 bf
       0.0038953555451857543 -0.008978802841021505
000520 48 f3 14 ec 8f e8 82 bf 70 17 33 ee 46 a9 50 bf
       -0.009232639686723623 -0.0010169212990133979
000530 74 1f 1d eb 72 40 91 bf d1 58 f6 1e 80 31 7f 3f
       -0.016847415542798186 0.0076155667042227685
000540 b7 eb b7 e7 34 34 85 bf 04 8e c7 00 df 8a 7e bf
       -0.010353482552991495 -0.007456656556743994
000550 49 85 02 01 24 ea 88 bf 2e e0 69 3d d3 78 86 3f
       -0.012165337830370009 0.010972643195813783
000560 ac 65 23 2c e4 d8 8d bf 72 24 c4 8f 99 65 7d 3f
       -0.01457384357165633 0.007176971292445976
000570 a5 10 54 6e 1d 8c 86 bf 1c 86 53 26 a4 f2 7f bf
       -0.011009435586409497 -0.007799760064899821
000580 90 b5 0f 3c a0 28 6a bf 5d e2 8f ea 3d cf 7c bf
       -0.003193200071555942 -0.007033578739531335
000590 c2 0f a8 5f 87 c7 84 bf bb a4 49 37 01 d7 71 bf
       -0.010146195990280552 -0.004355435132859127
0005a0 50 ea 3e f3 ab bf 90 bf 74 83 85 4e 6a e4 78 bf
       -0.016356169435065404 -0.006077208767551013
0005b0 67 25 46 ad ee a9 80 bf 3e 6d a5 cc 60 27 7c bf
       -0.008136620200064738 -0.006873491404202623
0005c0 35 35 9a 81 18 c4 4a bf dc 66 4c ac 9f 9a 8f bf
       -0.0008168334636181942 -0.015431640096312753
0005d0 d1 62 4c 23 ec 82 5e bf 50 22 52 cd 9f a1 8b bf
       -0.001862269023325581 -0.013491867497820526
0005e0 e2 53 ce 1a 22 51 86 bf d7 bf 94 5e 28 26 7f 3f
       -0.01089693683915444 0.0076047493869708304
0005f0 1e fd 37 af f0 c8 89 bf 4d 99 2a af 5a c9 80 bf
       -0.012590294215441274 -0.008196552725462292
000600 51 a5 60 dd 75 32 4c 3f cd 77 08 84 58 1b 8b bf
       0.0008605075370315217 -0.013235751656846784
000610 02 4e 7d 7b 22 a9 90 bf f4 58 2c 25 6d 77 3a bf
       -0.016270197665404502 -0.0004038468807022876
000620 51 f0 31 6f f6 d0 7c 3f 0a b8 fc b1 a7 38 7e 3f
       0.0070352197973272005 0.007378249225252995
000630 9a f6 8d f1 52 c1 6e bf c2 b9 4e 2c ea 16 54 bf
       -0.0037542934409760644 -0.0012261664244125202
000640 4a 52 2d 3f 77 f0 e3 be 28 69 98 b6 cc 0c 89 bf
       -9.507808476230277e-06 -0.012231444666259764
000650 e3 f7 84 a0 5d be 82 bf 8a 52 13 65 07 23 81 bf
       -0.009152156315959508 -0.008367593547896197
000660 21 e5 0e 15 c4 59 53 bf 58 f5 9a e6 27 54 92 bf
       -0.0011810698381238898 -0.017899154138594525
000670 88 37 83 e7 2a 95 7d 3f b7 1d 14 87 54 bb 70 3f
       0.007222335429288303 0.004084901987205062
000680 06 97 0e 55 3f 81 6a 3f 56 e8 ca 83 54 44 92 bf
       0.0032354580839236728 -0.0178387837829422
000690 3e 5b f6 51 d6 cf 93 bf cc 64 7b f4 79 57 92 bf
       -0.019347523453315356 -0.01791182093333958
0006a0 69 e2 1a 9f 52 5e 5f bf 5b 92 77 19 c7 66 88 bf
       -0.0019145781374573462 -0.011914782967275153
0006b0 6a b6 1e 22 eb fc 85 bf e4 3b 05 9d 82 97 53 3f
       -0.010736309984930876 0.0011957908173660875
0006c0 ee 27 3a be 08 9c 92 bf 9a 47 a8 62 76 58 8d bf
       -0.018173348055405762 -0.014328884969504508
0006d0 8b 4f ff 3a 08 a5 80 bf 57 21 b1 ed c3 fe 92 bf
       -0.008127273846106472 -0.01854997766739194
0006e0 f6 58 3d 6c 23 6d 76 bf 85 0a f3 7c f6 8c 97 bf
       -0.005475176210742774 -0.022998668075852286
0006f0 c1 c9 01 f1 40 6c 72 bf 51 97 14 95 da 8b 5d bf
       -0.004497770001864188 -0.0018033632844178425
000700 7f 7f 40 e7 25 f8 7a bf 5c 69 d3 52 97 b1 98 bf
       -0.0065843086813684995 -0.024114956312453514
000710 a3 59 e1 d3 26 27 46 3f a4 68 3c 74 c6 a5 81 bf
       0.0006760539615793714 -0.008616972372284266
000720 9b 1d c9 1d 2d 2e 6b bf 14 ff 17 8e 63 96 90 bf
       -0.0033179169825278804 -0.01619868807574594
000730 08 b2 49 5e 3c f2 64 bf ae b4 e2 41 ae 4f 66 3f
       -0.002556913287028676 0.002723541590134624
000740 76 fa 94 7d 52 7b 97 bf f4 43 a6 e5 e2 9a 99 bf
       -0.022931374468721143 -0.025004906908694793
000750 88 df 6d 05 77 fa 8a bf 56 89 2f 23 d9 41 61 bf
       -0.013173036435304444 -0.0021065941777901704
000760 5a b3 d4 95 64 f7 12 bf f4 e7 11 db b7 ba 76 bf
       -7.235099242981543e-05 -0.005549162088863458
000770 2a 55 d9 16 d3 ed 76 bf a7 cd 22 f7 04 07 45 3f
       -0.005597900931737324 0.0006417059178346799
000780 4f df 67 c5 03 93 83 bf f7 ef 94 c2 fe 00 62 bf
       -0.009557752096028741 -0.0021977401526367363
000790 4b 93 25 6e 63 39 90 bf 16 14 94 c0 2e 0e 89 bf
       -0.015843919370485165 -0.012234082462336853
0007a0 09 74 a3 c2 6f 0b 87 bf 8d 54 04 ca 7f 43 92 bf
       -0.01125228226413279 -0.01783561392320059
0007b0 0b 54 c5 e6 37 e8 63 3f 32 52 2b a4 78 a9 6c 3f
       0.0024300662827649914 0.0034987789416425436
0007c0 c5 ff 26 90 1d a7 8b 3f c9 36 6d 49 d0 1e 74 3f
       0.013502341233902268 0.004912198658372177
0007d0 f5 30 e9 60 12 17 8c bf 93 fd 19 1c 98 87 76 bf
       -0.01371588094948393 -0.005500406435771227
0007e0 17 b6 82 dd 08 55 64 3f 3c cd cc 6a 22 01 60 3f
       0.0024819539213101305 0.0019536659441655984
0007f0 f6 a5 bc 61 d7 5f 70 3f 62 42 f3 1b 5f 1c 27 bf
       0.003997651419731954 -0.00017632161141147284

linear1.bias f8 [12]
000000 e2 b4 e6 12 16 4f 8b bf ca 90 da 79 8e 98 64 bf
       -0.013334438754862569 -0.0025141508802609446
000010 fe b2 a8 86 09 e0 57 3f d3 ca 51 1f cc 69 55 bf
       0.0014572232272584413 -0.0013069623358005669
000020 91 26 f8 38 ee c9 8c bf ce 99 77 51 49 31 93 bf
       -0.014057026971403349 -0.018742700192797383
000030 4c 6e 0b 80 a7 76 76 3f 45 8a 68 ac e6 46 7e bf
       0.005484251306110698 -0.007391835277788921
000040 58 12 14 46 e4 5f 89 bf ac a7 37 c6 d0 ee 71 bf
       -0.012389930142043301 -0.0043781428571296015
000050 33 86 67 26 4e 7d 85 3f 7b e6 b5 1f af 22 73 3f
       0.01049290709210302 0.004671749189009251
