saved_models/decoder_epoch6.pt (torch_old, 480736 bytes, 2 tensors)

linear1.weight f8 [12, 5000]
00000000: 16e9 4986 72e2 7cbf 25df 7513 6305 7a3f
00000010: e30f 1e2f 59b1 743f 9da0 73a9 a96f 38bf
00000020: a22d 0c62 3c91 7f3f d150 5efb f5b5 41bf
00000030: 60e3 fd16 07e8 8a3f 7fe6 a54d 8f74 85bf
00000040: 4943 3ad4 9eac 6abf 69a2 10c8 a5f1 603f
00000050: 80b5 96df e37e 893f f727 443d 70e9 803f
00000060: 0cda 1437 0315 733f 0cf4 e787 3786 833f
00000070: 964b 1265 45e4 85bf e1e9 948d 5682 54bf
00000080: 3716 9d7d 76d6 3abf 7376 c41a 7213 823f
00000090: a28c da70 af96 63bf f5c1 242a 2eee 86bf
000000a0: 48b5 358c 2e61 84bf 0c88 3883 090e 863f
000000b0: 6636 32f4 74c7 88bf c2a2 55c0 6b46 80bf
000000c0: 79a4 366d 8bd5 893f adb6 f0fc dcd2 6a3f
000000d0: 6e36 ab19 dbc4 873f fe8f 3a18 879a 713f
000000e0: 3091 60a9 d629 82bf 8931 c58e c009 5bbf
000000f0: a205 ee50 c601 88bf 5341 4a2b b0e7 873f
00000100: 9891 b57f bf14 473f 7960 c68b a84b 73bf
00000110: 3ae3 9992 8d5d 82bf 24c1 b9e2 032b 71bf
00000120: 1ed7 2c7e e646 66bf 06fd 9cb8 ffbc 7fbf
00000130: 2313 427a cfa5 8b3f 805d 2bc4 cbec 53bf
00000140: a9b0 fb3b cfa7 7c3f 3f69 ef5c 9093 853f
00000150: fb51 2e70 4275 8b3f 75cc ac41 dea7 6e3f
00000160: 2297 efe5 dc62 8c3f 8b5c 6be4 15f3 85bf
00000170: cd46 bebc dd38 603f c104 07ea fc4b 873f
00000180: 4146 23f2 e62a 7cbf 10e9 e6d8 1c02 413f
00000190: 74d1 6f4e 2ea5 863f ae7c a2b4 6e51 e43e
000001a0: ac24 1038 971d 843f 8d58 e69d 1210 833f
000001b0: 2c65 2bb0 422d 60bf 5a72 10ac 8568 863f
000001c0: f275 8675 5fdb 883f abda 31fe d40c 843f
000001d0: b60c 7746 ac35 75bf 8e84 a051 3c78 7f3f
000001e0: 58e6 da49 373b 71bf 6fcc 1136 3b87 7dbf
000001f0: f62c 7fed b955 85bf d19d 2914 c9e1 613f
00000200: 7d33 560a d7ec 883f 950b a00e e021 85bf
00000210: 48cd d085 3c25 82bf bb53 9783 45ae 81bf
00000220: 1bb1 4a07 e4f4 5b3f 27a6 f92d 74cc 7cbf
00000230: 9d01 1de5 af55 853f 2173 b137 d567 75bf
00000240: 74af 4aba 25b6 8abf 1ec4 e5a8 a565 8b3f
00000250: 0ced 433f 6014 81bf 9521 d89c 362d 6ebf
00000260: 1455 49d7 6590 56bf 86f2 ccd3 5696 593f
00000270: 2d78 1167 effa 88bf bb4b 3ded cd69 4ebf
00000280: c76b eb6c 73fd 813f 6251 f53e 467a 873f
00000290: 73a6 fa20 816f 7abf 7753 ebf0 02fb 3d3f
000002a0: 5eb6 09e1 fa88 87bf cc80 9e15 99eb 58bf
000002b0: 024e 1124 936c 643f 0be8 bc7b fd46 8b3f
000002c0: 835a 9a77 243f 5dbf 8a2e 9d9b 9a29 85bf
000002d0: a7e4 646f ed4d 80bf 6617 c3de 662d 8b3f
000002e0: 08ba 43d8 4730 5c3f c18e 4b36 bf60 623f
000002f0: 4408 546b b7d6 62bf bba3 2ab4 5a1b 82bf
00000300: 129e d9bc d7ce 813f 3112 fbec 612e 88bf
00000310: 4f19 494f 3083 803f 6c34 1732 c064 80bf
00000320: 3030 dbaf 322c 78bf fe33 a4d7 d317 7d3f
00000330: e634 f395 8541 78bf 8e93 7f5f d6df 373f
00000340: 15b1 dd69 2200 6cbf e887 73b8 f37f 76bf
00000350: ec84 d6a6 e11e 83bf 0cd7 a689 538b 74bf
00000360: d3d7 899c d9bd 6e3f 84f1 e37a 3653 8a3f
00000370: 7a23 abe1 70c0 8cbf 7d83 0342 4bbf 883f
00000380: e077 4578 b076 843f 4025 193c 9f38 88bf
00000390: e1df 9d8c 8995 853f d64c f2be a068 81bf
000003a0: ddc1 5ea1 6c69 893f 2110 a7e4 f2e7 8c3f
000003b0: b28d c7a4 a60d 843f 75f4 f6fc fdf4 783f
000003c0: 5b23 88cb 47f8 5b3f d079 abc5 e620 863f
000003d0: 6d2d 8bb7 f549 ef3e 0bb7 91f5 bf9e 7f3f
000003e0: b930 bc4e bf44 793f 8e2e 4778 078e 89bf
000003f0: 5acf 12cd 2190 893f 8ae0 95bc 03cb 6fbf
00000400: 2257 42ca 5766 84bf 762b 753c 09cf 70bf
00000410: 1950 cbad 509b 553f 2326 5f1b f402 89bf
00000420: f6c0 7b13 d206 883f c2d6 fbc7 3a47 7d3f
00000430: bb3d e1fc 4eeb 853f 81b8 695f 3191 81bf
00000440: a69c 92af fbe7 883f 03bd 5459 bf24 813f
00000450: cdd0 01e1 d523 633f f575 4768 2e9a 85bf
00000460: ce04 b5d6 e876 8abf ae6a e53a d24e 8abf
00000470: ce18 51c8 a924 543f 32b0 b893 7b47 873f
00000480: aa91 077d 8f0d 7cbf 1468 4bd6 d285 603f
00000490: b390 f232 52e0 74bf 2125 6e4a 566f 793f
000004a0: 9a01 c91a a3b7 62bf b309 f0d0 0d37 88bf
000004b0: 1963 ea78 6032 803f 4d23 a4ae ea74 65bf
000004c0: 4952 9301 bc2c 683f 02bf 1fd6 6921 873f
000004d0: 867c 019f 6a00 88bf 7e20 2a7e 91d8 70bf
000004e0: 47e6 5142 1be8 44bf df0a eedf 2f42 88bf
000004f0: 30e0 2e07 0266 88bf f3b3 a3ff a830 80bf
00000500: 541a 5ecb 95d7 6a3f 615d 31c8 5454 30bf
00000510: 7fc6 9579 1731 883f 52d5 4326 9794 5fbf
00000520: d30e 7541 47eb 80bf 62a6 1818 00e6 7d3f
00000530: e056 17ed d78a 85bf f544 a8b0 9c20 69bf
00000540: 0000 c58a 6c66 633f 85c4 f157 98e7 5d3f
00000550: 4a4b eee6 72e9 8a3f 862b 303b d593 69bf
00000560: 34b2 9c6d 0574 70bf f7fd 37df b9b5 7abf
00000570: a11e 193e 92ba 7bbf 346e 8e96 c688 8abf
00000580: 5195 c4bc 2ad0 6ebf 2d09 a70e b81a 8a3f
00000590: aeb7 6ce0 8b75 71bf 4cf8 f289 c081 64bf
000005a0: eb89 f864 94c4 8a3f 1dca 74dc 01a2 7b3f
000005b0: 6713 89f2 e2d8 373f 4ab6 02f3 6e41 663f
000005c0: 56df 3524 fe5b 6bbf 4cda ddae 0a84 833f
000005d0: f4e8 1518 3987 75bf 0748 0e38 4af0 6e3f
000005e0: 1c31 0055 781d 83bf fee8 75b0 dffd 61bf
000005f0: bc46 e07e 89b2 713f 5799 bc3a caf1 80bf
00000600: 2ad0 f3a4 a6e7 663f 2338 4abe ba3b 7abf
00000610: 2ef0 968f 138d 8c3f 354a c3c5 bd4d 873f
00000620: 185f a92d 0197 803f 8f24 d5b3 a850 83bf
00000630: ba00 00e8 5565 8abf e461 1f3c f393 6dbf
00000640: 4b48 c4f2 f358 86bf 60d5 a14a 7b09 7d3f
00000650: 8edf a9bd f6f6 773f 1ce5 850f d366 863f
00000660: 5c4b efe2 100c 5b3f 0ef9 7a95 e70b 79bf
00000670: 5147 d983 9601 653f 648c f682 1fa2 763f
00000680: a1ba 07da 6086 633f a0fb 648c 5c9b 83bf
00000690: ee0a 0da0 3e6d 8cbf 69aa 75e1 3770 7ebf
000006a0: af0f a41f fcc5 81bf ec3c 9c90 6f16 883f
000006b0: 7a1c 468a b591 673f a00b c2d7 5a81 78bf
000006c0: ea7a 0a20 9a8a 853f c4b8 5f5b dc0d 7f3f
000006d0: 34a1 36d3 72bc 88bf e9ce 9940 75a7 70bf
000006e0: ee97 6c3d 15aa 663f d593 ad8a e1ad 82bf
000006f0: 39c9 2456 72ca 87bf 3db5 bb74 3bae 87bf
00000700: 8a24 5cf4 24bf 833f 0f8d 9bfc a4fe 8b3f
00000710: df67 af9e f6a9 6cbf bb1f e515 fa4f 7fbf
00000720: 2357 efe4 c45a 66bf 8959 be27 a450 873f
00000730: 1f42 57f6 d6d6 843f 6d9d 4246 bd26 4fbf
00000740: 6d08 230a 1c5f 6bbf 62ab 695d 1215 803f
00000750: d41d a521 285d 79bf 54ad 83a0 f168 8bbf
00000760: f5a7 bf42 0a76 85bf 75e5 ccaf 6aee 7ebf
00000770: 96bb d1ae 07b8 853f f6d9 e77e 1ca7 873f
00000780: ff69 c5be 7d1c 5ebf 05c6 e886 d67b 7a3f
00000790: 9bc7 779d e2f8 743f fffb b384 7528 793f
000007a0: 2e8f 5e8e 02ed 7ebf cf16 5e68 3e55 763f
000007b0: b01d d2a4 ad14 6fbf a0c7 3005 39d7 863f
000007c0: 33d1 bc49 b21b 773f 004b 0221 bcbe 803f
000007d0: c769 ce6f 0741 81bf a431 b89c 0230 833f
000007e0: 2dec 6d46 bb2a 89bf 2a22 9b4f 659d 813f
000007f0: a30a 46e0 0f09 843f 0ef6 054c 8730 70bf
-0.007051894532759803 0.006352793708508196 0.005051945090489315 -0.0003728665555642415 0.00770686709507676 -0.0005404902537855754 0.013137870206024693 -0.010476226384287244
-0.0032561399583034595 0.0020683515472408776 0.012449054966817696 0.008257748479554279 0.004658711013056049 0.009533342204116856 -0.010689298769909244 -0.0012517781490958212
-0.0004095114978678068 0.008826152269246301 -0.002391188295250383 -0.011196480427856573 -0.009950984624732442 0.010768961255113417 -0.012099183752322062 -0.007946817214091854
0.012614335318021684 0.003274375550538297 0.011605941506242359 0.004297759736491711 -0.008868863147718814 -0.001650274319291519 -0.011722134918957409 0.011672378846271292
0.000704377656273669 -0.004710825331493245 -0.00896750072136997 -0.004191413095768124 -0.0027193548025036393 -0.007748602781986641 0.013499852102776771 -0.001216124525560719
0.006995973118801548 0.01053536208739969 0.013407248543253472 0.0037421551654915294 0.013860440985762394 -0.010717555077844906 0.0019802408987253718 0.011375404254865608
-0.006876852161626313 0.0005190506797625744 0.011057245033932551 9.68842291043515e-06 0.009822064779671479 0.009308000034064423 -0.001974706888500896 0.010941547692760501
0.012137170576177223 0.009790100104720997 -0.005178139639102122 0.007683024998216171 -0.004206863375367208 -0.007209044736657607 -0.010417416153265507 0.002182858211472662
0.012170486453010327 -0.010318518110585187 -0.008860085328797354 -0.008633177831976249 0.0017063357201250798 -0.007030919863248586 0.010417341403468333 -0.005225975876865603
-0.013042731044457169 0.013377470223277451 -0.008339645319657162 -0.0036836687711494045 -0.0013772005596782199 0.0015617225573826567 -0.012197370846646372 -0.0009281402112527518
0.008784200440848168 0.011463688656171814 -0.0064539951414786965 0.0004574663334271848 -0.011491737358677753 -0.001521014687092803 0.0024931787343491782 0.013318996752435216
-0.0017850738644590587 -0.01033325946232046 -0.00796113487432344 0.013270190880927134 0.001720495377465549 0.0022433981524601914 -0.002299650421833584 -0.008841236708876701
0.00869530243944808 -0.01180721764047474 0.008062722606280074 -0.00800466683258546 -0.0059015254934813716 0.007102801808525959 -0.005921861476236167 0.0003642938968353931
-0.003418032850211481 -0.005493118317845692 -0.009336245445242551 -0.005015684432171385 0.003752636930864897 0.012854028344457154 -0.014038926970344912 0.01208361430366422
0.009992006941214215 -0.011826747914840952 0.01053912601831536 -0.008500343157982131 0.01240811221563914 0.014114282229350352 0.009791662124320453 0.006093017712769035
0.001707143890714322 0.010804942042736437 1.4919712826430836e-05 0.007719755020941364 0.0061690781547094 -0.012477930410475648 0.012481941290708388 -0.003880984590690477
-0.009960828647574586 -0.004103694990884024 0.0013187682990762949 -0.012212664685551882 0.01173175928076418 0.007148007978448669 0.010702721683769725 -0.00857771465709001
0.01216122273974769 0.008370871461549806 0.002336423618595962 -0.0105479837010831 -0.01292211442216953 -0.012845652029388557 0.0012294443161109839 0.01136681122360281
-0.006848869802045613 0.0020169370567204668 -0.005096741762063472 0.006209694932189509 -0.002284830630998336 -0.011823757113238331 0.007908586206484313 -0.002619226802498187
0.0029510185237120773 0.011294199797674324 -0.011719544389221303 -0.004112785655372984 -0.0006380208111657703 -0.011844991704270167 -0.011913314670764036 -0.007905311872002918
0.0032766271278348667 -0.00024916715500951896 0.011812384984952516 -0.0019275165623729618 -0.008261257824990242 0.0072994235684205894 -0.01051872913641766 -0.003067308459556823
0.002368175502994063 0.0018252361039936837 0.01314058081860527 -0.003122250048823219 -0.00401689644222052 -0.006520963728234622 -0.0067697250938817686 -0.01295619151078773
-0.0037613711084697817 0.012746274897726362 -0.004262491601179903 -0.002503276874988669 0.013070258456598224 0.006746299047608176 0.000363879592019159 0.0027167479493844003
-0.003339763994230009 0.009529193364625453 -0.005255911849753259 0.00377668853656932 -0.009333553403870591 -0.0021962517673134166 0.004320656864381153 -0.00827367774725178
0.002796006657826329 -0.006404618707746254 0.013940956897265346 0.011378748510115869 0.00810051842306296 -0.009431188571982467 -0.01288859476335379 -0.0036105871849765204
-0.010911851736214248 0.007089120490595263 0.005850757438217514 0.010938309584832377 0.0016508259684442006 -0.006114868759764981 0.002564233755756464 0.0055257063790206985
0.0023834125170119768 -0.009573672327517546 -0.013880242595069228 -0.0074312384452733605 -0.008678407397844838 0.01176154289308192 0.002877096720286296 -0.0059827374026352464
0.010518268683254079 0.00758157803464438 -0.012078187056275703 -0.004065950409870325 0.0027666487543624918 -0.009120714230172947 -0.01161660504712768 -0.011562790393748851
0.009641922671578724 0.013669289549801648 -0.003499013595029673 -0.0076446312871851175 -0.0027288289634083292 0.011384279692532544 0.010175399201132028 -0.0009506630126638167
-0.0033412501953487468 0.007852691150409267 -0.0061923568376367095 -0.01338375826931918 -0.010479049837119428 -0.007551590676308497 0.010604915640412032 0.011549208281377493
-0.0018378475170580664 0.0064657573662301225 0.005120167937535581 0.0061421003877049065 -0.007550249085315914 0.0054523885536405655 -0.003794039867503783 0.011152692290213484
0.005641647756238921 0.008176297910073682 -0.008424814319188635 0.009368915946674168 -0.01228853520091463 0.00860098981083109 0.009782909423625091 -0.003952530387662202

linear1.bias f8 [12]
00000000: 5d01 ff65 5ffd 8abf b8a5 7138 9aed 793f
00000010: 39fc 2d6d 0424 61bf 46b0 c32b 4517 66bf
00000020: 7df1 0683 f17e 8bbf 9691 3d59 5bc6 7ebf
00000030: 32be 750d c084 673f 2f4f 2a87 1a93 823f
00000040: 4b8a bccd fa4c 6a3f 55fe f302 7039 7c3f
00000050: e83d 8379 3ac4 573f b991 1430 7842 8a3f
-0.013178582477735895 0.0063301109540616005 -0.0020923696951622686 -0.00269664297058195 -0.013425719081049387 -0.007513386564685828 0.0028709174181853698 0.009069640397946081
0.003210534907240691 0.006890714211521838 0.001450593094023728 0.012822092978759568
