saved_models/decoder_epoch14.pt (torch_old, 480736 bytes, 2 tensors)

linear1.weight f8 [12, 5000]
00000000: ad5b f656 70e2 7cbf e710 7686 6405 7a3f
00000010: 3a5e a7bd 5ab1 743f 7ba4 1a9c 8a6f 38bf
00000020: 6f05 baeb 3d91 7f3f 76c4 726e e6b5 41bf
00000030: 4f5b 10b5 07e8 8a3f 3402 4bf1 8d74 85bf
00000040: 54ac f136 9aac 6abf d1a8 7710 aaf1 603f
00000050: d04b 13bd e47e 893f abc6 9e22 71e9 803f
00000060: 33ab 7311 0515 733f 091a 8c60 3886 833f
00000070: ed9a c2f2 43e4 85bf 8db0 57ab 4c82 54bf
00000080: 1730 145c 4fd6 3abf 4689 c323 7313 823f
00000090: a371 1a0e aa96 63bf e7a7 dd92 2cee 86bf
000000a0: c409 4202 2d61 84bf 209c 6880 0a0e 863f
000000b0: c38b ea59 73c7 88bf 6345 9c42 6a46 80bf
000000c0: 97a9 9058 8cd5 893f d6eb 1ddc e1d2 6a3f
000000d0: 2349 b013 dcc4 873f 6323 2050 899a 713f
000000e0: d95a 392b d529 82bf 1171 9487 b609 5bbf
000000f0: c11a 76d5 c401 88bf 2286 6dfb b0e7 873f
00000100: b6a8 37bb d014 473f d294 44fd a54b 73bf
00000110: bddd 9430 8c5d 82bf 627e 7776 012b 71bf
00000120: b7e4 35d6 e146 66bf 3a99 383c fdbc 7fbf
00000130: a1cc 1603 d0a5 8b3f 5583 07dc c4ec 53bf
00000140: fd02 d4bb d0a7 7c3f 1429 051e 9193 853f
00000150: 0a29 3a22 4375 8b3f c97c 0af9 e1a7 6e3f
00000160: 0b26 9998 dd62 8c3f 49bc 7c93 14f3 85bf
00000170: 37ee 283d e138 603f cfd1 f17e fd4b 873f
00000180: 91f3 8ea0 e42a 7cbf 6d35 5e34 2e02 413f
00000190: 4d67 a912 2fa5 863f 1d8d 9589 9555 e43e
000001a0: 3ff5 fd06 981d 843f cb4f 3380 1310 833f
000001b0: 9429 bbff 3d2d 60bf cbb0 9773 8668 863f
000001c0: 776a b038 60db 883f 8513 eae1 d50c 843f
000001d0: 3058 1497 a935 75bf 5dec 3d54 3e78 7f3f
000001e0: d50d 60b7 343b 71bf a946 bc78 3887 7dbf
000001f0: 020e 716f b855 85bf 8bed f9cc cde1 613f
00000200: 2049 a2ec d7ec 883f d380 5c91 de21 85bf
00000210: d34c 1513 3b25 82bf cd3f 6111 44ae 81bf
00000220: 2b5e ec3f edf4 5b3f 0d7a 7e79 71cc 7cbf
00000230: 0af5 7fc8 b055 853f 55df 22a0 d267 75bf
00000240: a730 f53c 24b6 8abf d549 bd63 a665 8b3f
00000250: a960 c4e4 5e14 81bf 00bd c67e 312d 6ebf
00000260: edf8 d80f 5c90 56bf 113e d239 6096 593f
00000270: 4d58 ccea edfa 88bf 5c40 3da6 b969 4ebf
00000280: ba8a 5e5c 74fd 813f 0272 f7fd 467a 873f
00000290: 4bf3 b979 7e6f 7abf 865a ee81 27fb 3d3f
000002a0: 97d7 3468 f988 87bf 120a 9c64 8feb 58bf
000002b0: bbf5 1c5c 976c 643f a045 3a3a fe46 8b3f
000002c0: f344 268d 1b3f 5dbf 2d95 1743 9929 85bf
000002d0: a895 4529 ec4d 80bf d7d5 478a 672d 8b3f
000002e0: 039a 401c 5030 5c3f ad77 6761 c360 623f
000002f0: 437b 05cd b2d6 62bf f7f5 7050 591b 82bf
00000300: fa98 87a7 d8ce 813f 2c7c 4d7d 602e 88bf
00000310: 3222 8125 3183 803f 2d0d 45e9 be64 80bf
00000320: c077 5dfc 2f2c 78bf fdce b8c7 d517 7d3f
00000330: 188d ff06 8341 78bf d07d 4270 fbdf 373f
00000340: 4901 1f76 1d00 6cbf 3333 f016 f17f 76bf
00000350: 9482 6147 e01e 83bf 9359 2635 518b 74bf
00000360: 2519 d561 ddbd 6e3f 9246 103e 3753 8a3f
00000370: 8a01 8f63 6fc0 8cbf f293 0f06 4cbf 883f
00000380: e9af d046 b176 843f 3c73 74e4 9d38 88bf
00000390: 91dc 2f3a 8a95 853f ee45 0994 9f68 81bf
000003a0: ca4d d83f 6d69 893f 9aa7 d084 f3e7 8c3f
000003b0: 3221 3264 a70d 843f 5e87 dfa6 fff4 783f
000003c0: 2915 9e5f 4ff8 5b3f cce2 4f7a e720 863f
000003d0: 463e 9629 e34d ef3e 0caf ba68 c19e 7f3f
000003e0: b298 efc6 c044 793f 2279 672f 068e 89bf
000003f0: 94ac f15b 2290 893f 7565 b29b ffca 6fbf
00000400: 394c 9a80 5666 84bf 1f2d 87f8 06cf 70bf
00000410: 0d73 7e81 589b 553f bd97 5cce f202 89bf
00000420: ee60 8cc3 d206 883f 5269 ef55 3c47 7d3f
00000430: 80e3 9a9b 4feb 853f 6e4a e72c 3091 81bf
00000440: 3eff a077 fce7 883f d455 0143 c024 813f
00000450: 613f a30d da23 633f c9ee 5901 2d9a 85bf
00000460: 411c 0269 e776 8abf bfb1 86d3 d04e 8abf
00000470: 7e0a b6f5 b124 543f 3412 da49 7c47 873f
00000480: 5653 32dd 8c0d 7cbf fede 6fd7 d685 603f
00000490: 1ae7 7fef 4fe0 74bf 9784 3d13 586f 793f
000004a0: b987 74ed 9eb7 62bf 9a2a 158e 0c37 88bf
000004b0: 6176 6d2f 6132 803f f593 b880 e674 65bf
000004c0: e64b f8e8 bf2c 683f ca26 6293 6a21 873f
000004d0: 2cab 0749 6900 88bf 730a b43a 8fd8 70bf
000004e0: 4c3a 63de 09e8 44bf f87f 6088 2e42 88bf
000004f0: c609 9ab6 0066 88bf 0e0a f4bc a730 80bf
00000500: fb15 adc7 99d7 6a3f 538b cb85 3054 30bf
00000510: 3a3c 7259 1831 883f 18c8 3d31 8d94 5fbf
00000520: a684 90e2 45eb 80bf 8845 ede8 01e6 7d3f
00000530: 4735 93a0 d68a 85bf f255 4cfc 9720 69bf
00000540: 7b8f 50b7 7066 633f fd40 d511 a0e7 5d3f
00000550: 7e15 9a94 73e9 8a3f ac6a 2c52 d093 69bf
00000560: 1272 66cb 0274 70bf 7593 0a5e b7b5 7abf
00000570: d063 c607 90ba 7bbf 7331 2865 c588 8abf
00000580: e6b7 9cd2 26d0 6ebf 05da 21b5 b81a 8a3f
00000590: efa0 77a0 8975 71bf e8fb 9f14 bc81 64bf
000005a0: b7cb 7f17 95c4 8a3f 1ad1 7c62 03a2 7b3f
000005b0: d2eb 111c 01d9 373f 44f7 8c76 7241 663f
000005c0: d5f5 8b9d f95b 6bbf a8fb 3778 0b84 833f
000005d0: 95fd 79c4 3687 75bf 79d7 921c 4ef0 6e3f
000005e0: 44db aa07 771d 83bf f4bd 5343 dbfd 61bf
000005f0: 6dcc 5f3f 8bb2 713f f0fb 9108 c9f1 80bf
00000600: ca3e 5431 aae7 663f 3b7f e49a b83b 7abf
00000610: 222f d612 148d 8c3f 05fa 3379 be4d 873f
00000620: f824 4deb 0197 803f 2f87 0477 a750 83bf
00000630: 8f21 de96 5465 8abf f662 f134 ef93 6dbf
00000640: d634 3ac5 f258 86bf 8fdb d796 7c09 7d3f
00000650: c45e be33 f8f6 773f e986 63a4 d366 863f
00000660: 4295 0c92 170c 5b3f bfe2 555c e50b 79bf
00000670: c43b 2c2d 9a01 653f ddcb 0724 21a2 763f
00000680: 495a 587b 6486 633f ef28 3162 5b9b 83bf
00000690: 35de 985e 3d6d 8cbf f77e 85c5 3570 7ebf
000006a0: b915 0af9 fac5 81bf 2af6 9832 7016 883f
000006b0: 4398 a6af b891 673f acf9 3ec0 5881 78bf
000006c0: 193d 18c3 9a8a 853f 16cf 2cbe dd0d 7f3f
000006d0: e4c2 a194 71bc 88bf b862 803e 73a7 70bf
000006e0: 893e 2d68 18aa 663f 165d 2269 e0ad 82bf
000006f0: 8dd4 460c 71ca 87bf b19e e93c 3aae 87bf
00000700: e9b3 7c8d 25bf 833f c57e 6e6e a5fe 8b3f
00000710: a3f8 3c10 f3a9 6cbf 9e3c e509 f84f 7fbf
00000720: 6e42 ab06 c15a 66bf 9623 41cc a450 873f
00000730: 5e07 95a7 d7d6 843f f4d1 9f77 ad26 4fbf
00000740: 704e f960 185f 6bbf a9c8 e1f3 1215 803f
00000750: 06e9 7132 265d 79bf edea 3f69 f068 8bbf
00000760: 0bc6 1b0c 0976 85bf df06 9c61 68ee 7ebf
00000770: 8571 ce5e 08b8 853f 6c28 a831 1da7 873f
00000780: d049 d981 751c 5ebf 7f0b 1b43 d87b 7a3f
00000790: 78bd aa77 e4f8 743f 2f8a ca1f 7728 793f
000007a0: 1565 4e36 00ed 7ebf 9fc9 2013 4055 763f
000007b0: 4446 21fd a814 6fbf 5dbb bcd6 39d7 863f
000007c0: 6944 bd51 b41b 773f aa9c fd00 bdbe 803f
000007d0: 3945 b528 0641 81bf 598a b85f 0330 833f
000007e0: 4285 f7ee b92a 89bf e7cd 3e26 669d 813f
000007f0: 21f4 90bd 1009 843f 9c96 5acb 8430 70bf
-0.007051886393489787 0.0063527991072797945 0.005051950889956519 -0.00037285932567471925 0.0077068728238612735 -0.0005404830125340782 0.01313787480652953 -0.010476216245821048
-0.0032561313633343945 0.00206835952461857 0.012449061412928147 0.008257755154633747 0.0046587179160535895 0.009533348509205746 -0.010689287992432262 -0.0012517689441393948
-0.00040950238697301647 0.008826159981656045 -0.0023911782635208253 -0.011196468574514241 -0.009950973159225003 0.010768968623848407 -0.012099171811604031 -0.00794680610445892
0.01261434216765593 0.003274384624942321 0.011605948782776715 0.004297768000477517 -0.008868852025597661 -0.001650264979907116 -0.011722123874972625 0.011672384903877623
0.0007043856807602753 -0.004710815807162665 -0.008967490418043117 -0.004191404069814194 -0.002719346129819468 -0.007748593521262054 0.013499856085081698 -0.0012161180931046973
0.00699597870448154 0.010535367706911582 0.013407253725081354 0.003742162087590016 0.013860446185520755 -0.010717545271829236 0.001980247421014682 0.011375408588926298
-0.0068768435239093964 0.0005190587623801597 0.011057250744830016 9.696156029809358e-06 0.009822070802096959 0.009308006620280104 -0.001974698154161911 0.010941553499798215
0.012137176256193911 0.009790106732234136 -0.005178129636325621 0.0076830324868480656 -0.004206853793224015 -0.0072090345309036375 -0.01041740503399691 0.002182867006750027
0.012170493039125818 -0.010318507014347144 -0.0088600745390636 -0.00863316705741104 0.001706344308052619 -0.007030909786321715 0.01041734802128726 -0.005225966220841223
-0.013042719946178073 0.013377475661091967 -0.008339635235231251 -0.003683659239150594 -0.0013771914522205345 0.0015617313104349143 -0.012197359779332251 -0.0009281307688784424
0.008784207409751377 0.011463694215245294 -0.006453985257050497 0.0004574748472178442 -0.011491726391436958 -0.0015210056612323703 0.0024931865927146613 0.013319002296415416
-0.0017850655609417648 -0.010333249435414327 -0.007961125382915338 0.013270195872773378 0.001720503075384295 0.0022434059167002114 -0.002299641819419136 -0.008841226355907656
0.008695309269523655 -0.011807206939634517 0.008062728840870202 -0.008004657262637405 -0.005901515430961568 0.007102809027447196 -0.005921851945433397 0.00036430252681360093
-0.003418023626153542 -0.005493108516941447 -0.00933623521649566 -0.005015675751926091 0.003752643954302875 0.012854034024744086 -0.014038915849483375 0.01208362000938654
0.009992012952430645 -0.011826737913503409 0.010539131069874837 -0.008500334458548555 0.012408116827862598 0.014114286890691653 0.009791667695268378 0.006093023910553301
0.0017071509487050585 0.010804947300117183 1.4927028405136517e-05 0.0077197604220307185 0.006169083629151627 -0.012477920838986526 0.012481945448789035 -0.0038809769008138436
-0.009960819053310132 -0.004103686551796742 0.0013187755884935288 -0.012212654993685729 0.01173176440492837 0.007148013769404509 0.010702726303280619 -0.008577705736489718
0.012161228562149181 0.008370878262364302 0.002336431393906866 -0.010547973254907987 -0.012922103778931883 -0.012845641570344733 0.001229451931835129 0.011366816524295144
-0.006848860025589007 0.002016944515613405 -0.005096733329986747 0.006209701579650637 -0.0022848228505986915 -0.011823747716922118 0.007908591518282994 -0.0026192190178044813
0.0029510257952636175 0.0112942053058477 -0.011719534436414124 -0.004112777223101649 -0.00063801271314807 -0.011844981705564792 -0.011913304874956131 -0.007905302480598866
0.0032766345515564655 -0.0002491587127179579 0.011812391500170095 -0.0019275072890789832 -0.00826124761266762 0.007299430332595398 -0.010518719458924365 -0.0030672996966909444
0.0023681832776833423 0.0018252432995105588 0.013140585873098184 -0.003122240902837822 -0.004016886631145871 -0.0065209543978753575 -0.006769716852795107 -0.012956182622496403
-0.0037613638168272233 0.012746279742924757 -0.004262483219896958 -0.00250326857076243 0.013070263652456988 0.006746304723311414 0.00036388661471392387 0.0027167544943997052
-0.0033397555638418988 0.009529199224742005 -0.005255903182500706 0.003776695787190695 -0.009333543702593546 -0.0021962435226823233 0.0043206633908879745 -0.008273668836634912
0.002796013267136609 -0.006404610742066381 0.013940960717057364 0.011378753732512523 0.008100523942305746 -0.009431179351455292 -0.012888584951512154 -0.0036105796821569404
-0.010911842960263856 0.007089125324902037 0.0058507628817989245 0.01093831391739593 0.0016508321934421565 -0.006114860477617056 0.002564240575686468 0.005525712448149781
0.0023834192786680625 -0.009573663648684476 -0.013880233239532117 -0.007431230588138985 -0.008678398823813592 0.011761547607529971 0.0028771025801744023 -0.005982729609910125
0.010518273428742607 0.0075815831976802275 -0.01207817778433324 -0.004065942928740789 0.0027666546533636244 -0.009120705803339162 -0.011616595446734013 -0.01156278131857333
0.009641927128166432 0.013669292862516067 -0.00349900697065582 -0.007644623661987952 -0.002728821758275316 0.011384284480429756 0.01017540435953251 -0.0009506556518759633
-0.0033412433765905233 0.007852695529639258 -0.006192349631527932 -0.013383749210324558 -0.010479040796300706 -0.007551582087900604 0.01060492076231224 0.01154921348372203
-0.0018378398448431928 0.006465763830138082 0.005120174838040163 0.006142106369824193 -0.007550240353247935 0.00545239476382378 -0.003794031196812127 0.011152698388824761
0.005641655323260422 0.008176304428799536 -0.008424804799377671 0.009368921621960501 -0.012288525204840032 0.008600996057658029 0.00978291586408814 -0.003952521064695038

linear1.bias f8 [12]
00000000: 61eb a7d8 1a1d 8bbf c9e6 7745 1c6b 7a3f
00000010: f6bd d518 7ee0 61bf 3987 f73c 27e0 66bf
00000020: 2390 2e75 ca1b 8bbf d726 b00e 30b6 7ebf
00000030: 8a8c a6b0 7baf 673f 3214 9ceb 3280 823f
00000040: 0871 719b a16d 693f e3af bb24 8d81 7b3f
00000050: 31ec e027 d1bd 5a3f 04de 0557 5a56 8a3f
-0.013239106880964692 0.006449804720881588 -0.0021822417099242 -0.002792431485190952 -0.013236600590808284 -0.007497966503260143 0.002891294080841049 0.009033582511174119
0.003104034079610799 0.006715346662286212 0.0016321699654458061 0.012860017567375877
