saved_models/ssl_model_epoch100000.pt (torch_old, 122197 bytes, 16 tensors)

spatial_conv.weight f4 [69, 1, 69, 1]
0.05704233 -0.021459118 -0.10903612 0.08058922 -0.05624482 -0.011592224 0.03723246 0.10262479
0.023912191 -0.09711534 0.11992586 -0.0610742 0.06373808 -0.07247342 -0.036735088 0.07493599
0.062197506 -0.020789362 -0.089932464 -0.013042264 0.11956175 0.008293822 0.1106628 0.0053115934
0.06454417 -0.04178009 -0.06454003 0.02670364 -0.10381744 0.040097997 0.08050719 0.031811267
-0.1193947 -0.06426323 0.044863105 -0.03594809 0.023068786 0.059005097 0.1031491 -0.028533153
-0.027937554 0.06406294 -0.069976754 0.05770904 0.06147304 0.11442262 0.0926296 -0.10740805
-0.1001433 -0.07109991 -0.0009777099 -0.10672086 0.05363813 -0.05270561 0.07151617 -0.07070832
-0.008694507 0.021988899 -0.089145705 0.059850857 -0.0579042 -0.012329958 0.002888523 0.06337914
-0.111574806 -0.003934115 0.10642417 0.033041105 0.0011278391 -0.016471587 0.044933617 -0.050287113
-0.03392738 0.0118249655 -0.05820811 -0.092112556 -0.011552446 0.06273571 -0.105567485 0.09499368
0.05253482 -0.008992337 0.06304696 0.03582363 0.026779309 0.120007604 -0.037900783 0.07436709
0.051200196 -0.067587756 -0.059334718 0.112504184 0.058641627 -0.09920294 -0.040539727 -0.015308045
-0.05833882 -0.095877685 0.00633128 0.07675481 -0.023856528 -0.0273306 -0.08500525 0.03864047
-0.032807045 0.09167479 -0.06283128 0.0013971254 0.03384556 -0.021016203 0.08071762 0.068638355
-0.045478836 0.019324005 0.05686523 0.0375634 0.081906736 -0.10964003 -0.11971811 -0.07317487
0.10080661 -0.011640571 -0.082205206 -0.1184553 -0.104611576 0.04692936 -0.0878486 0.054500833
0.019083157 -0.053466745 -0.04334046 0.0052606165 0.10020158 0.10783777 -0.019614697 0.10952605
0.03309621 0.11979973 -0.09055335 0.062162355 0.113160804 0.059558004 0.11112411 -0.036926717
-0.11136265 0.006147325 0.118228525 0.10725151 0.028197676 0.07937768 0.07561006 -0.020380132
0.00012798607 0.119145945 -0.11616458 -0.027281635 -0.038693666 0.001093395 0.113228604 0.1091166
0.10166167 0.06730455 -0.105685495 0.092313975 0.08750261 0.020075306 0.10391019 -0.09802526
-0.089692585 0.05147147 0.02050139 0.11368637 0.02009502 -0.031378977 0.09513515 0.03572622
0.028843552 -0.060337216 0.009405822 -0.10233362 0.1118356 0.08051315 0.11981562 -0.011362754
0.110274926 0.08663024 -0.0071831197 0.10322736 -0.075004786 0.023113966 -0.08936627 0.05875802
-0.028277993 -0.095857784 0.073809385 -0.005436592 -0.02910272 0.06134495 0.070372894 -0.03611605
-0.045574486 -0.018715963 -0.023467138 -0.091508776 0.04156387 0.10417691 0.10613115 -0.03997963
-0.02455797 0.100642934 0.0025302768 0.025821537 0.02090399 -0.001718618 0.07252517 0.091719344
0.06813924 -0.087190025 0.1015683 -0.08126964 0.10496512 0.04657139 0.10467602 0.11166009
0.11972886 0.1063412 0.10318327 0.09312998 0.044067666 0.035611212 -0.1203084 0.11014767
-0.0034259558 0.045783356 -0.068841845 0.010085136 0.030976593 0.0038452968 -0.012456864 -0.05827123
-0.06235482 -0.061508235 0.10003893 -0.08113198 -0.009146325 0.029242143 -0.048294075 -0.08915737
-0.032739855 0.015780658 -0.08722456 -0.035813116 0.017232478 -0.024840385 -0.06028898 -0.06376882
00000000: 38a5 693d 08cb afbc 544e dfbd f60b a53d
00000010: f860 66bd 50ed 3dbc 1081 183d f22c d23d
00000020: 80e3 c33c 68e4 c6bd b09b f53d f128 7abd
00000030: 1c89 823d f26c 94bd 8877 16bd 0a78 993d
00000040: d0c2 7e3d 744e aabc 832e b8bd 38af 55bc
00000050: cadc f43d d0e2 073c 2ea3 e23d e00c ae3b
00000060: bc2f 843d 9a21 2bbd 902d 84bd 98c1 da3c
00000070: 3d9e d4bd cc3d 243d f4e0 a43d 884c 023d
00000080: 3585 f4bd 719c 83bd 60c2 373d 4e3e 13bd
00000090: c0fa bc3c 54af 713d d63f d33d 5cbe e9bc
000000a0: 4cdd e4bc 6e33 833d f94f 8fbd 5060 6c3d
000000b0: 28cb 7b3d 6856 ea3d 96b4 bd3d c0f8 dbbd
000000c0: ee17 cdbd d49c 91bd 8026 80ba 7790 dabd
000000d0: a8b3 5b3d d6e1 57bd 1277 923d 86cf 90bd
000000e0: 6873 0ebc 1022 b43c 0692 b6bd 2c26 753d
000000f0: f42c 6dbd 9803 4abc 604d 3d3b eccc 813d
00000100: 5581 e4bd c0e9 80bb eaf4 d93d 1c56 073d
00000110: 00d4 933a 6cef 86bc 500c 383d dcf9 4dbd
00000120: 70f7 0abd 80bd 413c a16b 6ebd 82a5 bcbd
00000130: 7846 3dbc 947b 803d c433 d8bd 0c8c c23d
00000140: c02e 573d 9854 13bc c41e 813d ccbb 123d
00000150: 4860 db3c 8cc6 f53d da3d 1bbd c64d 983d
00000160: 4cb7 513d 736b 8abd f608 73bd 9868 e63d
00000170: 3432 703d e92a cbbd fc0c 26bd 98ce 7abc
00000180: b0f4 6ebd 855b c4bd a076 cf3b a031 9d3d
00000190: c46e c3bc 6ce4 dfbc 3c17 aebd 7845 1e3d
000001a0: ae60 06bd febf bb3d b0ad 80bd c01f b73a
000001b0: a4a1 0a3d 2c2a acbc 484f a53d 4492 8c3d
000001c0: 0448 3abd 604d 9e3c 84eb 683d 14dc 193d
000001d0: b8be a73d f48a e0bd c52e f5bd b5dc 95bd
000001e0: b273 ce3d 18b8 3ebc 345b a8bd b198 f2bd
000001f0: 983e d6bd 0039 403d f7e9 b3bd 443c 5f3d
00000200: 4854 9c3c f2ff 5abd c485 31bd 4061 ac3b
00000210: 7c36 cd3d 0cda dc3d 00af a0bc 324f e03d
00000220: e48f 073d 9059 f53d 0974 b9bd f49d 7e3d
00000230: dac0 e73d 18f3 733d 0a95 e33d 7840 17bd
00000240: 1a12 e4bd 806f c93b cc21 f23d aea6 db3d
00000250: d0fe e63c c490 a23d 72d9 9a3d 3cf4 a6bc
00000260: 0034 0639 ca02 f43d b2e7 edbd bc7d dfbc
00000270: 407d 1ebd 4050 8f3a 66e4 e73d 8678 df3d
00000280: fe33 d03d f8d6 893d a371 d8bd 1c0f bd3d
00000290: 9234 b33d f874 a43c dece d43d 78c1 c8bd
000002a0: bfb0 b7bd c0d3 523d 88f2 a73c 66d4 e83d
000002b0: 509e a43c 3e87 00bd 38d6 c23d a855 123d
000002c0: 5049 ec3c 2824 77bd e01a 1a3c 4a94 d1bd
000002d0: 100a e53d 14e4 a43d e461 f53d d82a 3abc
000002e0: d2d7 e13d 326b b13d 6060 ebbb de68 d33d
000002f0: 1c9c 99bd 8059 bd3c aa05 b7bd 40ac 703d
00000300: 40a7 e7bc 1651 c4bd 6029 973d 7025 b2bb
00000310: d468 eebc d844 7b3d aa1f 903d 6cee 13bd
00000320: 50ac 3abd 3852 99bc 283e c0bc f468 bbbd
00000330: e03e 2a3d b45a d53d 4a5b d93d aec1 23bd
00000340: cc2d c9bc e21d ce3d 00d3 253b b087 d33c
00000350: d83e ab3c 4043 e1ba 1488 943d 5ad7 bb3d
00000360: 968c 8b3d af90 b2bd 0a03 d03d b270 a6bd
00000370: f4f7 d63d a4c1 3e3d 6260 d63d 0cae e43d
00000380: 6834 f53d 6ac9 d93d c051 d33d eeba be3d
00000390: 4c80 343d 10dd 113d 4064 f6bd 1a95 e13d
000003a0: 0086 60bb 5487 3b3d f4fc 8cbd 203c 253c
000003b0: a0c2 fd3c 6001 7c3b e017 4cbc d0ad 6ebd
000003c0: c567 7fbd 0ff0 7bbd 36e1 cc3d 8628 a6bd
000003d0: 78da 15bc 388d ef3c 02d0 45bd 2498 b6bd
000003e0: 3a1a 06bd 7046 813c caa2 b2bd c6b0 12bd
000003f0: 202b 8d3c 107e cbbc 94f1 76bd 3a99 82bd

spatial_conv.bias f4 [69]
0.06639719 -0.050387986 0.045040026 0.042599037 0.02476506 -0.021897256 0.052424595 -0.030201383
-0.065203175 0.09077822 0.092207804 0.093591586 -0.025443219 0.095964685 0.06932956 0.05836621
0.110170275 -0.050893478 0.0590498 0.0047500134 -0.09826085 0.0026082993 0.061955854 -0.11541733
0.014797911 0.11170314 -0.016404629 -0.027009182 0.032292917 0.06205742 -0.009392314 -0.10230802
-0.00656268 -0.10907866 -0.048879743 -0.01865431 -0.09613506 -0.115921974 0.048924014 0.119620934
0.11723782 -0.07353544 -0.0118405 -0.026307523 -0.10820719 0.066241756 -0.07955281 -0.055965766
-0.012177736 0.031866163 -0.005091548 0.029644161 0.047872663 0.009123549 0.060730264 0.08823396
-0.10891606 0.025073037 0.0651858 -0.026339531 0.11124593 -0.109007314 -0.020779692 0.038179263
0.03975545 -0.050560847 -0.054385334 -0.080336735 0.032677144
00000000: 40fb 873d a263 4ebd e47b 383d 547c 2e3d
00000010: 18e0 ca3c e061 b3bc 2cbb 563d e468 f7bc
00000020: 3e89 85bd eee9 b93d 72d7 bc3d f2ac bf3d
00000030: 4c6e d0bc 2289 c43d a8fc 8d3d 6811 6f3d
00000040: f4a0 e13d ae75 50bd 34de 713d 00a6 9b3b
00000050: fc3c c9bd 00f0 2a3b 6cc5 7d3d ec5f ecbd
00000060: f072 723c 9ec4 e43d 0063 86bc 5c42 ddbc
00000070: 9445 043d ec2f 7e3d 38e2 19bc de86 d1bd
00000080: c00b d7bb a264 dfbd 2036 48bd ecd0 98bc
00000090: 75e2 c4bd 8068 edbd 8c64 483d d2fb f43d
000000a0: 621a f03d c099 96bd a8fe 41bc e082 d7bc
000000b0: bb9b ddbd c2a9 873d 95ec a2bd 5c3c 65bd
000000c0: 2085 47bc 1886 023d 00d7 a6bb 50d8 f23c
000000d0: 2016 443d f07a 153c 4cc0 783d 02b4 b43d
000000e0: 620f dfbd f865 cd3c 2280 853d 00c6 d7bc
000000f0: e8d4 e33d 3a3f dfbd 2c3a aabc dc61 1c3d
00000100: 9cd6 223d e418 4fbd 28c3 5ebd 9687 a4bd
00000110: 78d8 053d

temp_conv1.weight f4 [16, 1, 1, 51]
-0.06615559 -0.037748754 -0.020809382 0.09587535 -0.091244824 -0.11001448 0.03212914 0.062275767
0.075690776 0.017378673 -0.045180887 0.07664059 -0.008834824 -0.124966495 0.13377838 0.10275453
-0.034725264 -0.06500665 -0.029291898 0.08156915 -0.07681053 -0.021925785 -0.031563543 0.12103002
-0.04302027 0.005035147 0.060615048 0.05249566 -0.13013361 -0.042953387 -0.070718855 0.13534172
0.118209556 -0.12045464 -0.117288634 -0.075736344 -0.06467787 0.08125396 -0.09158085 0.01241827
0.115321055 0.10687071 0.047710165 -0.11682519 0.064744994 0.046747595 0.02557464 0.062488377
-0.066890344 0.1319939 -0.109529845 0.09201406 0.048830435 -0.124580614 0.03063871 0.0761348
-0.07550113 0.0811951 0.13864236 0.11758523 -0.0012170076 -0.12155646 0.043930337 -0.004825607
-0.020319164 0.13819493 -0.089076966 -0.022946037 0.0017989129 0.1285045 0.1263303 0.0113672465
0.122204736 0.09531452 -0.091641344 -0.11170293 -0.09402672 -0.104118474 0.059589773 0.056270555
-0.08700371 0.07414934 0.039760172 0.13554527 0.12053351 -0.03282723 0.026401252 -0.01639381
0.034499377 -0.1346121 0.03067483 0.013762146 -0.0027587116 -0.051233888 0.12438361 -0.13864724
0.09508045 -0.053877167 0.010395944 -0.06566961 0.09194511 -0.0926653 0.09269059 0.08082333
0.10916883 -0.06423172 0.0260676 0.09784575 -0.08697336 0.042258605 -0.012204528 -0.05214437
-0.057203174 -0.07965756 0.030182853 0.039768398 0.10167794 -0.1341485 0.09636696 -0.028059624
0.12207778 -0.07364349 -0.11935854 -0.110584155 0.11903326 -0.006738484 -0.08028001 0.11101647
-0.08062944 -0.07608614 0.01595822 -0.04789073 -0.071123935 -0.024316005 -0.10303492 0.08515224
-0.055592537 -0.05285065 -0.0024862885 -0.09930894 0.03453657 0.12521245 -0.11189978 -0.1352423
0.080025256 -0.010288805 0.10463506 0.08011252 -0.075283304 0.05208476 0.13964699 -0.113431334
-0.10771974 0.0665665 0.021400869 0.009591982 -0.015128575 -0.13002065 -0.120302275 0.0044121593
-0.047014184 0.12742014 0.029115632 0.03158869 0.12664442 0.13455434 -0.06495288 -0.09339347
-0.09601937 -0.09404607 -0.1099006 0.12491788 -0.09311063 -0.04094182 -0.11070325 0.101496354
-0.10491296 -0.10645823 -0.113413036 -0.038903683 0.06907873 -0.059372112 0.09627336 -0.10426502
0.041663095 -0.11203623 -0.0015541166 0.05407755 -0.026871897 0.050722584 0.02113612 -0.019653298
0.08053553 -0.11142257 -0.117171414 0.054481104 0.05193025 0.0437057 0.0019020736 -0.02791737
-0.046980366 -0.0056370497 0.038800284 -0.0028059483 -0.04194261 -0.026426055 0.043552667 0.07594752
0.09937088 -0.0005785972 -0.010968894 0.061036304 -0.06927067 -0.03739707 -0.06364877 0.06617664
-0.05768519 0.13153444 -0.026500665 -0.07331274 -0.030384481 -0.075875714 0.093253985 0.10703629
-0.010116875 -0.112787314 0.023756504 0.0029799938 0.04835406 -0.11421041 0.12777112 0.02198188
0.011694208 -0.13502795 0.07229936 0.01345177 -0.09798294 -0.018785529 -0.08454697 -0.065991215
0.08209953 -0.1331907 0.094156235 -0.039812014 0.030544415 0.020409584 -0.043817297 -0.012164727
-0.039215535 -0.086685225 0.10402654 0.008440733 0.0017977655 0.1302398 0.08234796 0.09925249
00000000: 957c 87bd 709e 1abd 7078 aabc 4c5a c43d
00000010: 91de babd 464f e1bd d899 033d e014 7f3d
00000020: c403 9b3d b85d 8e3c 980f 39bd bef5 9c3d
00000030: f0bf 10bc 6fee ffbd 33fd 083e f870 d23d
00000040: 143c 0ebd 3522 85bd 90f5 efbc ba0d a73d
00000050: d74e 9dbd b49d b3bc c648 01bd 96de f73d
00000060: 0636 30bd e0fd a43b 7c47 783d b005 573d
00000070: bf41 05be e4ef 2fbd 0cd5 90bd 0597 0a3e
00000080: da17 f23d ecb0 f6bd 0635 f0bd a81b 9bbd
00000090: d575 84bd 7a68 a63d be8e bbbd 0076 4b3c
000000a0: 722d ec3d 08df da3d bc6b 433d 0c42 efbd
000000b0: 0699 843d 687a 3f3d e881 d13c d0f3 7f3d
000000c0: cefd 88bd 6929 073e 2f51 e0bd de71 bc3d
000000d0: 6c02 483d 1f24 ffbd 08fe fa3c 90ec 9b3d
000000e0: 56a0 9abd 9e49 a63d 43f8 0d3e 86d0 f03d
000000f0: 0084 9fba 98f2 f8bd 4cf0 333d 2020 9ebb
00000100: 6074 a6bc f982 0d3e fc6d b6bd 54f9 bbbc
00000110: 80c9 eb3a af96 033e bb5c 013e b03d 3a3c
00000120: 7a46 fa3d 4234 c33d 75ae bbbd 81c4 e4bd
00000130: 1591 c0bd 113c d5bd 6814 743d f47b 663d
00000140: 002f b2bd 9cdb 973d 90db 223d 61cc 0a3e
00000150: 46da f63d d875 06bd 7047 d83c 504c 86bc
00000160: 384f 0d3d c1d7 09be c849 fb3c a07a 613c
00000170: 80cb 34bb a0da 51bd d6bc fe3d 8bf9 0dbe
00000180: 8ab9 c23d 4eae 5cbd c053 2a3c ca7d 86bd
00000190: b84d bc3d 4ec7 bdbd 90d4 bd3d b486 a53d
000001a0: e893 df3d ec8b 83bd b88b d53c 5a63 c83d
000001b0: 171f b2bd 5c17 2d3d 80f5 47bc 5695 55bd
000001c0: e04d 6abd 8123 a3bd 0842 f73c 30e4 223d
000001d0: 863c d03d 395e 09be 0a5c c53d 4cdd e5bc
000001e0: ea03 fa3d 66d2 96bd 4072 f4bd f279 e2bd
000001f0: b6c7 f33d 80ce dcbb d969 a4bd 9a5c e33d
00000200: 0c21 a5bd 0dd3 9bbd d0ba 823c 1229 44bd
00000210: 6da9 91bd 5c32 c7bc f903 d3bd 4c64 ae3d
00000220: 00b5 63bd ec79 58bd 00f1 22bb 7c62 cbbd
00000230: 3876 0d3d b137 003e b62b e5bd f57c 0abe
00000240: 48e4 a33d 6092 28bc e84a d63d 0812 a43d
00000250: 222e 9abd d456 553d 9fff 0e3e b04e e8bd
00000260: 2b9c dcbd 0454 883d e050 af3c b027 1d3c
00000270: d8dd 77bc 2224 05be 0a61 f6bd e093 903b
00000280: f291 40bd 6d7a 023e e883 ee3c 2463 013d
00000290: 13af 013e 9dc8 093e 0406 85bd 1345 bfbd
000002a0: cea5 c4bd 3a9b c0bd 9113 e1bd f2d4 ff3d
000002b0: c9b0 bebd 9cb2 27bd 63b8 e2bd 52dd cf3d
000002c0: 9bdc d6bd c606 dabd 1845 e8bd 7859 1fbd
000002d0: 2679 8d3d 2c30 73bd f82a c53d e688 d5bd
000002e0: eca6 2a3d 4073 e5bd 80b3 cbba 6c80 5d3d
000002f0: 7422 dcbc 7cc2 4f3d a825 ad3c f4ff a0bc
00000300: d0ef a43d 8431 e4bd 91f7 efbd 9427 5f3d
00000310: d0b4 543d c004 333d 004f f93a f8b2 e4bc
00000320: 7c6e 40bd 00b7 b8bb 0ced 1e3d 00e4 37bb
00000330: 04cc 2bbd 747b d8bc 4864 323d 608a 9b3d
00000340: f682 cb3d 00ad 17ba e0b6 33bc 3401 7a3d
00000350: c8dd 8dbd ac2d 19bd 495a 82bd 9e87 873d
00000360: 4e47 6cbd f7b0 063e ec17 d9bc fd24 96bd
00000370: e0e8 f8bc ba64 9bbd f2fb be3d d835 db3d
00000380: 40c1 25bc 09fd e6bd 009d c23c 004c 433b
00000390: e80e 463d 26e7 e9bd 6fd6 023e 5813 b43c
000003a0: 1099 3f3c c444 0abe b011 943d d064 5c3c
000003b0: 48ab c8bd 1ce4 99bc f626 adbd 6726 87bd
000003c0: cc23 a83d 2563 08be fcd4 c03d ec11 23bd
000003d0: 4838 fa3c 0032 a73c c479 33bd 904e 47bc
000003e0: 78a0 20bd 0688 b1bd de0b d53d 004b 0a3c
000003f0: 00a3 eb3a 955d 053e 0ca6 a83d e444 cb3d

temp_conv1.bias f4 [16]
-0.06895848 0.06905098 0.1331595 -0.1208846 -0.059978478 0.054349944 -0.097499825 -0.0771035
0.11880444 0.036216423 -0.095140085 0.0067552775 -0.008651614 -0.024414375 0.061653107 -0.008875862
00000000: 1b3a 8dbd 9a6a 8d3d f75a 083e 5892 f7bd
00000010: feab 75bd 0c9e 5e3d fdad c7bd 71e8 9dbd
00000020: be4f f33d ac57 143d ced8 c2bd 605b dd3b
00000030: 80bf 0dbc a800 c8bc f887 7c3d 106c 11bc

batch_norm1.weight f4 [16]
1.0 1.0 1.0 1.0 1.0 1.0 1.0 1.0
1.0 1.0 1.0 1.0 1.0 1.0 1.0 1.0
00000000: 0000 803f 0000 803f 0000 803f 0000 803f
00000010: 0000 803f 0000 803f 0000 803f 0000 803f
00000020: 0000 803f 0000 803f 0000 803f 0000 803f
00000030: 0000 803f 0000 803f 0000 803f 0000 803f

batch_norm1.bias f4 [16]
0.0 0.0 0.0 0.0 0.0 0.0 0.0 0.0
0.0 0.0 0.0 0.0 0.0 0.0 0.0 0.0
00000000: 0000 0000 0000 0000 0000 0000 0000 0000
00000010: 0000 0000 0000 0000 0000 0000 0000 0000
00000020: 0000 0000 0000 0000 0000 0000 0000 0000
00000030: 0000 0000 0000 0000 0000 0000 0000 0000

batch_norm1.running_mean f4 [16]
0.0 0.0 0.0 0.0 0.0 0.0 0.0 0.0
0.0 0.0 0.0 0.0 0.0 0.0 0.0 0.0
00000000: 0000 0000 0000 0000 0000 0000 0000 0000
00000010: 0000 0000 0000 0000 0000 0000 0000 0000
00000020: 0000 0000 0000 0000 0000 0000 0000 0000
00000030: 0000 0000 0000 0000 0000 0000 0000 0000

batch_norm1.running_var f4 [16]
1.0 1.0 1.0 1.0 1.0 1.0 1.0 1.0
1.0 1.0 1.0 1.0 1.0 1.0 1.0 1.0
00000000: 0000 803f 0000 803f 0000 803f 0000 803f
00000010: 0000 803f 0000 803f 0000 803f 0000 803f
00000020: 0000 803f 0000 803f 0000 803f 0000 803f
00000030: 0000 803f 0000 803f 0000 803f 0000 803f

temp_conv2.weight f4 [16, 16, 1, 51]
0.009396844 -0.030200483 0.030651461 -0.03118507 -0.022943672 0.00384615 0.0025590472 0.018090263
-0.034178678 -0.034071855 -0.023818001 -0.025285803 -0.004395252 0.02887268 -0.007740915 -0.02888583
-0.018672321 0.031960595 0.031580914 0.027921166 -0.02729053 -0.0019294806 -0.00521289 -0.011227796
-0.01022771 -0.00636157 -0.027979786 0.018569637 0.0032993704 -0.004872866 0.03284799 -0.030250527
0.010336351 -0.025030205 -0.012418689 0.03134596 -0.014586905 -0.026996527 0.023778077 -0.0071457066
-0.004406268 0.011624981 0.025391266 0.025031503 0.006455172 -0.031257886 0.0061468743 0.025285281
-0.0341219 -0.028808981 0.029966895 0.020616852 -0.023753714 0.008763913 -0.034587752 0.0058066845
0.023932375 -0.007427886 0.029688742 -0.03441028 -0.019026145 -0.0026980303 0.0110966 0.004985884
0.02389953 -0.005907571 -0.021215022 0.014769342 0.009375714 -0.007936144 -0.020778218 0.0043620504
0.0022918321 -0.016720641 0.013289928 -0.033007734 -0.0120646935 0.02474587 -0.027725719 0.01834469
-0.014278304 0.027447104 0.013499226 0.012913268 0.016253628 -0.009493146 -0.017624073 0.024352942
0.023380589 0.028846193 0.026296083 -0.025034484 0.010926615 0.005076833 -0.033233978 -0.012659222
0.028296065 0.034732837 -0.018287254 0.014116138 -0.029427456 -1.642853e-05 -0.028017469 0.007512931
0.003534682 0.014370836 0.029218834 0.0059212856 0.011766415 0.0074870437 0.018461742 -0.011417715
-0.0062703323 0.03228152 -0.0049512424 -9.1385096e-05 -0.024029363 0.029325474 -0.031333994 0.026708867
0.008227222 0.034299176 0.006704703 0.010733888 -0.019023696 0.030384514 0.010876287 -0.019194445
0.019554086 0.030071523 -0.007756982 0.0074518733 0.027583558 0.03261706 -0.0064610485 -0.017837413
-0.030340292 -0.017581256 0.025488019 0.010071117 0.0055610053 0.030904885 -0.026362645 0.020988092
-0.016945062 -0.02665177 -0.016057769 0.016387578 -0.030489286 -0.0012769587 0.0009569414 -0.010932511
0.0036238842 0.01635401 0.02345749 -0.009246942 -0.019751165 0.0039423853 0.01156906 0.022356663
-0.013379723 -0.030994672 0.034059208 -0.008656453 -0.02617073 0.031335738 0.0083218515 0.020860456
0.015790366 0.024358835 -0.0026079006 -0.0155328605 -0.011063907 -0.015247388 -0.011514809 0.03473256
-0.023572817 0.004146125 -0.03430993 -0.021257067 0.004897658 0.004991472 -0.03230556 0.012114726
0.0039628185 -0.0059541054 0.029916395 -0.004762724 -0.02960214 -0.027565667 -0.0038114265 0.015776332
0.0057409704 0.031246107 -0.0033816658 -0.0018612221 0.019962694 0.034617078 -0.028349157 0.022347182
0.029678833 -0.016893324 0.0124447085 -0.03087762 0.015005361 -0.014581576 -0.008577671 0.009177614
0.011055782 0.008823071 0.0013736486 -0.015722735 -0.0174573 -0.0149382595 -0.0015212521 -0.032272592
-0.018536642 -0.027982991 -0.015007801 0.0071363375 -0.0266118 -0.0031428896 -0.003069386 0.012128364
0.02896424 0.00072185695 0.026106458 -0.019698467 0.0010359697 0.0072880164 -0.019625496 -0.014350541
-0.01201974 -0.0083015 0.007692907 -0.031765103 0.023098063 0.034206595 -0.02800909 0.022595234
0.021893788 0.0038048178 -0.029292187 0.007685192 0.026524447 0.031124223 0.016099378 -0.027579956
-0.009266961 -0.02430978 0.0123136975 -0.022889715 -0.015012326 0.0054539405 0.0078011528 0.0072450675
00000000: 38f5 193c 0167 f7bc c618 fb3c d577 ffbc
00000010: 5ef4 bbbc b00f 7c3b b0b5 273b 0832 943c
00000020: f1fe 0bbd ee8e 0bbd f81d c3bc 2c24 cfbc
00000030: 0c06 90bb 6686 ec3c 80a7 fdbb faa1 ecbc
00000040: b2f6 98bc 1de9 023d fd5a 013d eeba e43c
00000050: 6490 dfbc a0e6 fcba e4d0 aabb caf4 37bc
00000060: 2092 27bc b874 d0bb dd35 e5bc 5a1f 983c
00000070: 403a 583b 90ac 9fbb 9d8b 063d f4cf f7bc
00000080: cc59 293c 250c cdbc c277 4bbc 9f64 003d
00000090: eafd 6ebc d227 ddbc 3eca c23c 8826 eabb
000000a0: 7462 90bb b476 3e3c 5801 d03c de0e cd3c
000000b0: e885 d33b 4508 00bd b86b c93b 1423 cf3c
000000c0: 68c3 0bbd d000 ecbc 227d f53c ace4 a83c
000000d0: 2697 c2bc 8496 0f3c e3ab 0dbd 0046 be3b
000000e0: d40d c43c a065 f3bb ce35 f33c cbf1 0cbd
000000f0: b8dc 9bbc 70d1 30bb 84ce 353c a060 a33b
00000100: f2c8 c33c 4c94 c1bb 20cb adbc 1cfb 713c
00000110: 989c 193c 9a06 02bc 1537 aabc 88ef 8e3b
00000120: 9032 163b baf9 88bc 00be 593c 1e33 07bd
00000130: feaa 45bc dab7 ca3c 0c21 e3bc 9a47 963c
00000140: 8cef 69bc c0d8 e03c dc2b 5d3c 2c92 533c
00000150: 5426 853c 2489 1bbc 5c60 90bc d27f c73c
00000160: a688 bf3c da4e ec3c e26a d73c 1e15 cdbc
00000170: 8c05 333c 905b a63b 5a20 08bd a068 4fbc
00000180: 26cd e73c 0544 0e3d 27cf 95bc 6047 673c
00000190: d911 f1bc 00d0 89b7 e484 e5bc 082f f63b
000001a0: 20a6 673b a873 6b3c 565c ef3c 5807 c23b
000001b0: ecc7 403c e055 f53b 143d 973c 5e11 3bbc
000001c0: 5c77 cdbb a139 043d 083e a2bb 00a6 bfb8
000001d0: 3ad9 c4bc fa3b f03c 1358 00bd 8ecc da3c
000001e0: 78cb 063c 4b7d 0c3d 20b3 db3b 30dd 2f3c
000001f0: 95d7 9bbc f2e8 f83c 7432 323c ab3d 9dbc
00000200: e42f a03c 8e58 f63c 482e febb d82e f43b
00000210: eaf6 e13c 7799 053d 34b7 d3bb c41f 92bc
00000220: 348c f8bc 9106 90bc 40cc d03c 5401 253c
00000230: 1839 b63b 3e2c fd3c 79f6 d7bc 38ef ab3c
00000240: 5fd0 8abc d054 dabc 958b 83bc 3e3f 863c
00000250: abc4 f9bc a05f a7ba 40db 7a3a 461e 33bc
00000260: b07e 6d3b d8f8 853c ec29 c03c 7c80 17bc
00000270: 32cd a1bc 202f 813b 288c 3d3c 5225 b73c
00000280: a036 5bbc 8ae8 fdbc ab81 0b3d ccd3 0dbc
00000290: 0064 d6bc e759 003d 6058 083c 8ce3 aa3c
000002a0: cc5a 813c 2e8c c73c 50e9 2abb 8a7d 7ebc
000002b0: 6445 35bc 2ed0 79bc 9ca8 3cbc bb43 0e3d
000002c0: c81b c1bc 38dc 873b 9288 0cbd 4d23 aebc
000002d0: 887c a03b 808f a33b d652 04bd d87c 463c
000002e0: 88da 813b a81a c3bb 3a13 f53c a010 9cbb
000002f0: 3080 f2bc 65d1 e1bc 20c9 79bb 5e3d 813c
00000300: c01e bc3b d6f7 ff3c f09e 5dbb 40f4 f3ba
00000310: ce88 a33c a3ca 0d3d 7e3c e8bc 7011 b73c
00000320: 0621 f33c de63 8abc e4e4 4b3c 10f3 fcbc
00000330: 0cd9 753c 90e7 6ebc 5c89 0cbc b45d 163c
00000340: 5023 353c a48e 103c 000c b43a f7cc 80bc
00000350: 9d02 8fbc 9abf 74bc c064 c7ba 4430 04bd
00000360: 28da 97bc 963c e5bc 48e3 75bc f0d7 e93b
00000370: fd00 dabc f0f8 4dbb c027 49bb 0cb6 463c
00000380: 6a46 ed3c 003b 3d3a 36dd d53c ae5e a1bc
00000390: 60c9 873a 50d0 ee3b a6c5 a0bc 881e 6bbc
000003a0: 72ee 44bc 0403 08bc c814 fc3b 201c 02bd
000003b0: 2638 bd3c 371c 0c3d 5273 e5bc a419 b93c
000003c0: 9a5a b33c 405a 793b 2bf6 efbc 10d4 fb3b
000003d0: cc49 d93c 3af8 fe3c d8e2 833c 5cef e1bc
000003e0: 74d4 17bc 4e25 c7bc 64bf 493c 3683 bbbc
000003f0: 42f6 75bc f8b6 b23b d0a0 ff3b 0868 ed3b

temp_conv2.bias f4 [16]
-0.014835946 0.017497275 0.0027001724 0.024170976 0.01747999 -0.033866044 0.0008969791 -0.03308819
-0.024796303 0.0013848282 -0.0093739815 0.0035830364 -0.02007373 0.026895713 0.017322175 0.007083919
00000000: 7812 73bc 7256 8f3c 60f5 303b 3602 c63c
00000010: 3232 8f3c 1fb7 0abd 4023 6b3a 7b87 07bd
00000020: 9e21 cbbc 2083 b53a 5495 19bc 60d1 6a3b
00000030: aa71 a4bc 6654 dc3c 3ce7 8d3c 3820 e83b

batch_norm2.weight f4 [16]
1.0 1.0 1.0 1.0 1.0 1.0 1.0 1.0
1.0 1.0 1.0 1.0 1.0 1.0 1.0 1.0
00000000: 0000 803f 0000 803f 0000 803f 0000 803f
00000010: 0000 803f 0000 803f 0000 803f 0000 803f
00000020: 0000 803f 0000 803f 0000 803f 0000 803f
00000030: 0000 803f 0000 803f 0000 803f 0000 803f

batch_norm2.bias f4 [16]
0.0 0.0 0.0 0.0 0.0 0.0 0.0 0.0
0.0 0.0 0.0 0.0 0.0 0.0 0.0 0.0
00000000: 0000 0000 0000 0000 0000 0000 0000 0000
00000010: 0000 0000 0000 0000 0000 0000 0000 0000
00000020: 0000 0000 0000 0000 0000 0000 0000 0000
00000030: 0000 0000 0000 0000 0000 0000 0000 0000

batch_norm2.running_mean f4 [16]
0.0 0.0 0.0 0.0 0.0 0.0 0.0 0.0
0.0 0.0 0.0 0.0 0.0 0.0 0.0 0.0
00000000: 0000 0000 0000 0000 0000 0000 0000 0000
00000010: 0000 0000 0000 0000 0000 0000 0000 0000
00000020: 0000 0000 0000 0000 0000 0000 0000 0000
00000030: 0000 0000 0000 0000 0000 0000 0000 0000

batch_norm2.running_var f4 [16]
1.0 1.0 1.0 1.0 1.0 1.0 1.0 1.0
1.0 1.0 1.0 1.0 1.0 1.0 1.0 1.0
00000000: 0000 803f 0000 803f 0000 803f 0000 803f
00000010: 0000 803f 0000 803f 0000 803f 0000 803f
00000020: 0000 803f 0000 803f 0000 803f 0000 803f
00000030: 0000 803f 0000 803f 0000 803f 0000 803f

linear_class.weight f4 [10, 1104]
-0.023393288 0.017640471 0.0018708557 -0.0134966355 -0.0198389 0.025105257 0.022770528 0.015960358
0.015475489 -0.002964398 -0.016891703 -0.0074848663 0.0028902516 0.02712788 0.018639173 0.0020585395
0.004342854 -0.0058614314 0.027610894 0.029058684 -0.022631008 -0.0007374454 -0.0137803145 0.008829817
0.015270002 0.02083921 -0.003559962 -0.0036128778 0.030004188 -0.01514648 -0.029676475 0.023105167
-0.00832968 0.013714276 -0.02958217 -0.023176813 -0.0024403818 0.029156893 -0.0083789695 0.029438753
0.028037295 -0.00077340007 -0.012548085 0.01143685 -0.018034432 0.027438339 -0.009769028 -0.005130181
-0.012430683 0.009829216 0.018259615 -0.0075737424 0.02845215 0.008392613 -0.023000086 0.01222286
0.0072058663 -0.0056512095 0.009383563 -0.0067606233 0.027599555 0.026326705 0.009161171 -0.005772168
-0.029080821 0.021160536 -0.009778732 0.012268294 -0.021918364 -0.011379367 0.0065600686 -0.022483127
-0.016455757 -0.018360581 -0.023614436 0.029035512 0.0050249435 -0.01472535 0.00064437836 -0.01752204
-0.017095368 -0.015107753 0.026342038 0.005917784 -0.023307852 0.029274248 0.015135255 -0.020500619
0.0062688626 -0.02650705 0.008535303 -0.017484024 0.022357669 -0.002624195 -0.015276325 0.010770917
0.01179735 0.025747519 -0.0033890046 0.009923212 -0.006235311 0.02920039 0.014307145 -0.007885419
-0.028862957 -0.018555425 0.017790545 0.0013716668 0.009802248 -0.025714785 -0.0058015045 0.014082063
-0.00425978 0.02571239 -0.027049443 0.004362978 -0.007748617 0.019294582 0.014892496 0.018384531
-0.023549695 0.028938651 0.028980184 -0.026947876 0.010797784 -0.020007212 -0.022108547 0.021074664
0.0050796047 -0.005667627 0.005568385 -0.024491848 -0.02821385 0.024300069 -0.018198885 -0.01763638
-0.02887232 -0.023496559 0.01806181 -0.024047356 -0.010774083 0.01871204 -0.019165477 -0.020144017
0.020777058 -0.0046205316 -0.010603743 -0.021419713 -0.014197603 -0.017135734 0.025267035 0.007648669
-0.010202467 0.005923733 0.018697124 -0.01977003 0.022463765 0.0084593035 0.022060685 -0.0007656347
-0.014416467 -0.0035252962 0.020642761 -0.0049934257 0.016612329 0.02314531 0.0107708275 -0.00090168044
-0.01476357 0.014460765 0.025623396 0.00849792 0.013378147 0.006975051 -0.02243353 -0.005229542
-0.01447794 -0.027102133 0.015077028 -0.029279437 0.00070517696 0.0123635605 0.017695777 -0.02426103
0.0013416894 0.0020673238 0.027824696 0.017120745 -0.019915964 0.018160023 0.0001357682 -0.02091043
0.0077287033 -0.01691462 0.012862444 -0.01633202 -0.023397673 0.024525508 0.027827766 0.0069058165
-0.001523897 0.003121402 0.019026596 0.015084203 -0.016403452 -0.012150222 0.02936522 -0.025708485
0.009896707 -0.019261818 0.024422456 0.013033591 0.008347623 0.018850379 0.0017380454 0.0045726746
-0.029715933 -0.0010846183 -0.026695244 0.026491642 -0.008479513 -0.005466569 -0.012267521 -0.0031270888
0.02365727 -0.013598533 0.021238819 0.028383762 0.027569491 -0.022767605 -0.012199644 -0.015881784
-0.026307074 -0.0029266477 0.0041388385 0.00036734156 -0.025716601 -0.020964988 -0.012386775 0.012771081
-0.010859791 0.024971627 -0.0034347419 -0.02425738 0.028382946 -0.00082652085 -0.018014679 -0.0021712016
0.018554214 -0.022062484 0.01702027 0.015311118 0.0010214504 0.02787337 -0.020807782 0.0049481466
00000000: 48a3 bfbc c082 903c 8037 f53a fe20 5dbc
00000010: 3085 a2bc 8aa9 cd3c 4289 ba3c 4cbf 823c
00000020: e88c 7d3c 5846 42bb 7860 8abc 9c43 f5bb
00000030: 606a 3d3b 4a3b de3c 2eb1 983c 90e8 063b
00000040: 804e 8e3b 4011 c0bb 3e30 e23c 7a0c ee3c
00000050: aa64 b9bc 2051 41ba d4c6 61bc f0aa 103c
00000060: 082f 7a3c feb6 aa3c 404e 69bb 08c6 6cbb
00000070: 58cb f53c f128 78bc 141c f3bc 0c47 bd3c
00000080: 3679 08bc d8b1 603c 4f56 f2bc 4ddd bdbc
00000090: d0ee 1fbb 70da ee3c f247 09bc 8a29 f13c
000000a0: 78ae e53c 00be 4aba 7c96 4dbc a061 3b3c
000000b0: f2bc 93bc 5ec6 e03c 460e 20bc 141b a8bb
000000c0: 10aa 4bbc b80a 213c 3095 953c 282d f8bb
000000d0: 7c14 e93c 2c81 093c ad6a bcbc 6442 483c
000000e0: 301f ec3b c82d b9bb 84bd 193c 3888 ddbb
000000f0: 7618 e23c 1aab d73c bc18 163c 7424 bdbb
00000100: e73a eebc dc58 ad3c fa36 20bc f400 493c
00000110: 248e b3bc 8670 3abc d8f5 d63b 892e b8bc
00000120: 39ce 86bc ee68 96bc 1073 c1bc e2db ed3c
00000130: 48a8 a43b 9842 71bc 80eb 283a 628a 8fbc
00000140: 960b 8cbc 8286 77bc 42cb d73c f8e9 c13b
00000150: 1cf0 bebc 8cd0 ef3c dcf9 773c eaf0 a7bc
00000160: 086b cd3b 5025 d9bc a8d7 0b3c a83a 8fbc
00000170: 6e27 b73c b0fa 2bbb 8d49 7abc 8078 303c
00000180: ac49 413c 76ec d23c 101a 5ebb f894 223c
00000190: 9451 ccbb a835 ef3c 8468 6a3c d831 01bc
000001a0: 0272 ecbc 8c01 98bc 7abd 913c 80c9 b33a
000001b0: 9c99 203c d0a7 d2bc 8c1a bebb 74b8 663c
000001c0: a095 8bbb caa2 d23c cb96 ddbc 50f7 8e3b
000001d0: 1ce8 fdbb ac0f 9e3c a8ff 733c 289b 963c
000001e0: 4aeb c0bc c010 ed3c da67 ed3c cbc1 dcbc
000001f0: 30e9 303c 2ae6 a3bc fc1c b5bc c6a4 ac3c
00000200: d072 a63b 80b7 b9bb 0077 b63b 21a3 c8bc
00000210: bb20 e7bc f010 c73c d415 95bc 2b7a 90bc
00000220: a585 ecbc db7b c0bc 5cf6 933c f6fe c4bc
00000230: c885 30bc fe49 993c eb00 9dbc 1105 a5bc
00000240: a634 aa3c d467 97bb 52bb 2dbc 6578 afbc
00000250: 109d 68bc 3d60 8cbc d0fc ce3c b0a1 fa3b
00000260: 4028 27bc e01b c23b b62a 993c c2f4 a1bc
00000270: ee05 b83c e498 0a3c 9cb8 b43c e0b4 48ba
00000280: 0c33 6cbc a808 67bb 021b a93c e49f a3bb
00000290: 9416 883c 3c9b bd3c 2078 303c c05e 6cba
000002a0: e7e2 71bc d8ec 6c3c 28e8 d13c dc3a 0b3c
000002b0: 0430 5b3c f88e e43b 86c6 b7bc 945c abbb
000002c0: e234 6dbc 4b05 debc a405 773c 6edb efbc
000002d0: a0db 383a 8890 4a3c bcf6 903c 11bf c6bc
000002e0: a0db af3a f07b 073b 9ef0 e33c ce40 8c3c
000002f0: ce26 a3bc 54c4 943c 005d 0e39 5a4c abbc
00000300: 1041 fd3b 8790 8abc 00bd 523c baca 85bc
00000310: 7aac bfbc b8e9 c83c 0ef7 e33c 304a e23b
00000320: 80bd c7ba 7090 4c3b aadd 9b3c bc23 773c
00000330: 8860 86bc ba11 47bc 548f f03c 9a9a d2bc
00000340: cc25 223c f6ca 9dbc 9a11 c83c d88a 553c
00000350: 78c4 083c 1c6c 9a3c 20cf e33a 60d6 953b
00000360: d46e f3bc c029 8eba fcaf dabc 0005 d93c
00000370: a8ed 0abc e820 b3bb b6fd 48bc d8ef 4cbb
00000380: e4cc c13c 62cc 5ebc 08fd ad3c 1085 e83c
00000390: 6ad9 e13c 2183 babc 04e1 47bc 841a 82bc
000003a0: ef81 d7bc 00cd 3fbb 189f 873b c097 c039
000003b0: 9fab d2bc c4be abbc e6f1 4abc cc3d 513c
000003c0: 44ed 31bc 4c91 cc3c 6819 61bb 6ab7 c6bc
000003d0: 5a83 e83c e0aa 58ba 8593 93bc b84a 0ebb
000003e0: 02ff 973c 62bc b4bc 186e 8b3c 7cdb 7a3c
000003f0: 30e2 853a b256 e43c 1575 aabc 1024 a23b

linear_class.bias f4 [10]
-0.00938439 0.0076780356 -0.020261597 -0.015840065 -0.026437776 0.014074571 0.011728469 0.026563566
-0.027604526 0.0017157383
00000000: fcc0 19bc 0898 fb3b a6fb a5bc 06c3 81bc
00000010: 0994 d8bc 0899 663c c428 403c d69b d93c
00000020: e322 e2bc a0e2 e03a
